…
I1228 21:15:23.615432  8417 upgrade_proto.cpp:67] Attempting to upgrade input file specified using deprecated input fields: /home/duan/caffe/caffe_ocr_for_linux-v2/examples/ocr-duan/inception-bn/pla2/modules/deploy.prototxt
I1228 21:15:23.615541  8417 upgrade_proto.cpp:70] Successfully upgraded file specified using deprecated input fields.
W1228 21:15:23.615546  8417 upgrade_proto.cpp:72] Note that future Caffe releases will only support input layers and not input fields.
I1228 21:15:23.616055  8417 net.cpp:51] Initializing net from parameters: 
name: "inception_bn"
state {
  phase: TEST
  level: 0
}
layer {
  name: "input"
  type: "Input"
  top: "data"
  input_param {
    shape {
      dim: 1
      dim: 3
      dim: 32
      dim: 100
    }
  }
}
layer {
  name: "conv1_7x7_s2"
  type: "Convolution"
  bottom: "data"
  top: "conv1_7x7_s2"
  param {
    lr_mult: 10
    decay_mult: 1
  }
  param {
    lr_mult: 20
    decay_mult: 0
  }
  convolution_param {
    num_output: 32
    pad: 3
    kernel_size: 7
    stride: 2
    weight_filler {
      type: "xavier"
      std: 1
    }
    bias_filler {
      type: "constant"
      value: 0.2
    }
  }
}
layer {
  name: "conv1_7x7_s2_bn"
  type: "BatchNorm"
  bottom: "conv1_7x7_s2"
  top: "conv1_7x7_s2"
}
layer {
  name: "conv1_7x7_relu"
  type: "ReLU"
  bottom: "conv1_7x7_s2"
  top: "conv1_7x7_s2"
}
layer {
  name: "conv1_9x9_s2"
  type: "Convolution"
  bottom: "data"
  top: "conv1_9x9_s2"
  param {
    lr_mult: 10
    decay_mult: 1
  }
  param {
    lr_mult: 20
    decay_mult: 0
  }
  convolution_param {
    num_output: 32
    pad: 4
    kernel_size: 9
    stride: 2
    weight_filler {
      type: "xavier"
      std: 1
    }
    bias_filler {
      type: "constant"
      value: 0.2
    }
  }
}
layer {
  name: "conv1_9x9_s2_bn"
  type: "BatchNorm"
  bottom: "conv1_9x9_s2"
  top: "conv1_9x9_s2"
}
layer {
  name: "conv1_9x9_relu"
  type: "ReLU"
  bottom: "conv1_9x9_s2"
  top: "conv1_9x9_s2"
}
layer {
  name: "conv1_concat"
  type: "Concat"
  bottom: "conv1_7x7_s2"
  bottom: "conv1_9x9_s2"
  top: "conv1_concat"
}
layer {
  name: "pool1_3x3_s2"
  type: "Pooling"
  bottom: "conv1_concat"
  top: "pool1_3x3_s2"
  pooling_param {
    pool: MAX
    kernel_size: 2
    stride_h: 2
    stride_w: 2
  }
}
layer {
  name: "conv2_3x3"
  type: "Convolution"
  bottom: "pool1_3x3_s2"
  top: "conv2_3x3"
  param {
    lr_mult: 10
    decay_mult: 1
  }
  param {
    lr_mult: 20
    decay_mult: 0
  }
  convolution_param {
    num_output: 128
    pad: 1
    kernel_size: 3
    stride: 1
    weight_filler {
      type: "xavier"
      std: 1
    }
    bias_filler {
      type: "constant"
      value: 0.2
    }
  }
}
layer {
  name: "conv2_3x3_bn"
  type: "BatchNorm"
  bottom: "conv2_3x3"
  top: "conv2_3x3"
}
layer {
  name: "conv2_3x3_relu"
  type: "ReLU"
  bottom: "conv2_3x3"
  top: "conv2_3x3"
}
layer {
  name: "pool2_3x3_s2"
  type: "Pooling"
  bottom: "conv2_3x3"
  top: "pool2_3x3_s2"
  pooling_param {
    pool: MAX
    kernel_h: 2
    kernel_w: 2
    stride_h: 2
    stride_w: 2
  }
}
layer {
  name: "inception_3a_1x1"
  type: "Convolution"
  bottom: "pool2_3x3_s2"
  top: "inception_3a_1x1"
  param {
    lr_mult: 10
    decay_mult: 1
  }
  param {
    lr_mult: 20
    decay_mult: 0
  }
  convolution_param {
    num_output: 96
    pad: 0
    kernel_size: 1
    stride: 1
    weight_filler {
      type: "xavier"
      std: 1
    }
    bias_filler {
      type: "constant"
      value: 0.2
    }
  }
}
layer {
  name: "inception_3a_1x1_bn"
  type: "BatchNorm"
  bottom: "inception_3a_1x1"
  top: "inception_3a_1x1"
}
layer {
  name: "inception_3a_relu_1x1"
  type: "ReLU"
  bottom: "inception_3a_1x1"
  top: "inception_3a_1x1"
}
layer {
  name: "inception_3a_3x3_reduce"
  type: "Convolution"
  bottom: "pool2_3x3_s2"
  top: "inception_3a_3x3_reduce"
  param {
    lr_mult: 10
    decay_mult: 1
  }
  param {
    lr_mult: 20
    decay_mult: 0
  }
  convolution_param {
    num_output: 96
    pad: 0
    kernel_size: 1
    stride: 1
    weight_filler {
      type: "xavier"
      std: 1
    }
    bias_filler {
      type: "constant"
      value: 0.2
    }
  }
}
layer {
  name: "inception_3a_3x3_reduce_bn"
  type: "BatchNorm"
  bottom: "inception_3a_3x3_reduce"
  top: "inception_3a_3x3_reduce"
}
layer {
  name: "inception_3a_relu_3x3_reduce"
  type: "ReLU"
  bottom: "inception_3a_3x3_reduce"
  top: "inception_3a_3x3_reduce"
}
layer {
  name: "inception_3a_3x3"
  type: "Convolution"
  bottom: "inception_3a_3x3_reduce"
  top: "inception_3a_3x3"
  param {
    lr_mult: 10
    decay_mult: 1
  }
  param {
    lr_mult: 20
    decay_mult: 0
  }
  convolution_param {
    num_output: 224
    pad: 1
    kernel_size: 3
    stride: 1
    weight_filler {
      type: "xavier"
      std: 1
    }
    bias_filler {
      type: "constant"
      value: 0.2
    }
  }
}
layer {
  name: "inception_3a_3x3_bn"
  type: "BatchNorm"
  bottom: "inception_3a_3x3"
  top: "inception_3a_3x3"
}
layer {
  name: "inception_3a_relu_3x3"
  type: "ReLU"
  bottom: "inception_3a_3x3"
  top: "inception_3a_3x3"
}
layer {
  name: "inception_3a_pool"
  type: "Pooling"
  bottom: "pool2_3x3_s2"
  top: "inception_3a_pool"
  pooling_param {
    pool: MAX
    kernel_size: 3
    stride: 1
    pad: 1
  }
}
layer {
  name: "inception_3a_pool_proj"
  type: "Convolution"
  bottom: "inception_3a_pool"
  top: "inception_3a_pool_proj"
  param {
    lr_mult: 10
    decay_mult: 1
  }
  param {
    lr_mult: 20
    decay_mult: 0
  }
  convolution_param {
    num_output: 64
    pad: 0
    kernel_size: 1
    stride: 1
    weight_filler {
      type: "xavier"
      std: 1
    }
    bias_filler {
      type: "constant"
      value: 0.2
    }
  }
}
layer {
  name: "inception_3a_pool_proj_bn"
  type: "BatchNorm"
  bottom: "inception_3a_pool_proj"
  top: "inception_3a_pool_proj"
}
layer {
  name: "inception_3a_relu_pool_proj"
  type: "ReLU"
  bottom: "inception_3a_pool_proj"
  top: "inception_3a_pool_proj"
}
layer {
  name: "inception_3a_output"
  type: "Concat"
  bottom: "inception_3a_1x1"
  bottom: "inception_3a_3x3"
  bottom: "inception_3a_pool_proj"
  top: "inception_3a_output"
}
layer {
  name: "inception_3b_1x1"
  type: "Convolution"
  bottom: "inception_3a_output"
  top: "inception_3b_1x1"
  param {
    lr_mult: 10
    decay_mult: 1
  }
  param {
    lr_mult: 20
    decay_mult: 0
  }
  convolution_param {
    num_output: 64
    pad: 0
    kernel_size: 1
    stride: 1
    weight_filler {
      type: "xavier"
      std: 1
    }
    bias_filler {
      type: "constant"
      value: 0.2
    }
  }
}
layer {
  name: "inception_3b_1x1_bn"
  type: "BatchNorm"
  bottom: "inception_3b_1x1"
  top: "inception_3b_1x1"
}
layer {
  name: "inception_3b_relu_1x1"
  type: "ReLU"
  bottom: "inception_3b_1x1"
  top: "inception_3b_1x1"
}
layer {
  name: "inception_3b_3x3_reduce"
  type: "Convolution"
  bottom: "inception_3a_output"
  top: "inception_3b_3x3_reduce"
  param {
    lr_mult: 10
    decay_mult: 1
  }
  param {
    lr_mult: 20
    decay_mult: 0
  }
  convolution_param {
    num_output: 96
    pad: 0
    kernel_size: 1
    stride: 1
    weight_filler {
      type: "xavier"
      std: 1
    }
    bias_filler {
      type: "constant"
      value: 0.2
    }
  }
}
layer {
  name: "inception_3b_3x3_reduce_bn"
  type: "BatchNorm"
  bottom: "inception_3b_3x3_reduce"
  top: "inception_3b_3x3_reduce"
}
layer {
  name: "inception_3b_relu_3x3_reduce"
  type: "ReLU"
  bottom: "inception_3b_3x3_reduce"
  top: "inception_3b_3x3_reduce"
}
layer {
  name: "inception_3b_3x3"
  type: "Convolution"
  bottom: "inception_3b_3x3_reduce"
  top: "inception_3b_3x3"
  param {
    lr_mult: 10
    decay_mult: 1
  }
  param {
    lr_mult: 20
    decay_mult: 0
  }
  convolution_param {
    num_output: 160
    pad: 1
    kernel_size: 3
    stride: 1
    weight_filler {
      type: "xavier"
      std: 1
    }
    bias_filler {
      type: "constant"
      value: 0.2
    }
  }
}
layer {
  name: "inception_3b_3x3_bn"
  type: "BatchNorm"
  bottom: "inception_3b_3x3"
  top: "inception_3b_3x3"
}
layer {
  name: "inception_3b_relu_3x3"
  type: "ReLU"
  bottom: "inception_3b_3x3"
  top: "inception_3b_3x3"
}
layer {
  name: "inception_3b_pool"
  type: "Pooling"
  bottom: "inception_3a_output"
  top: "inception_3b_pool"
  pooling_param {
    pool: MAX
    kernel_size: 3
    stride: 1
    pad: 1
  }
}
layer {
  name: "inception_3b_pool_proj"
  type: "Convolution"
  bottom: "inception_3b_pool"
  top: "inception_3b_pool_proj"
  param {
    lr_mult: 10
    decay_mult: 1
  }
  param {
    lr_mult: 20
    decay_mult: 0
  }
  convolution_param {
    num_output: 32
    pad: 0
    kernel_size: 1
    stride: 1
    weight_filler {
      type: "xavier"
      std: 1
    }
    bias_filler {
      type: "constant"
      value: 0.2
    }
  }
}
layer {
  name: "inception_3b_pool_proj_bn"
  type: "BatchNorm"
  bottom: "inception_3b_pool_proj"
  top: "inception_3b_pool_proj"
}
layer {
  name: "inception_3b_relu_pool_proj"
  type: "ReLU"
  bottom: "inception_3b_pool_proj"
  top: "inception_3b_pool_proj"
}
layer {
  name: "inception_3b_output"
  type: "Concat"
  bottom: "inception_3b_1x1"
  bottom: "inception_3b_3x3"
  bottom: "inception_3b_pool_proj"
  top: "inception_3b_output"
}
layer {
  name: "inception_3b_output_proj"
  type: "Convolution"
  bottom: "inception_3b_output"
  top: "inception_3b_output_proj"
  param {
    lr_mult: 10
    decay_mult: 1
  }
  param {
    lr_mult: 20
    decay_mult: 0
  }
  convolution_param {
    num_output: 384
    pad: 0
    kernel_size: 1
    stride: 1
    weight_filler {
      type: "xavier"
      std: 1
    }
    bias_filler {
      type: "constant"
      value: 0.2
    }
  }
}
layer {
  name: "inception_3b_output_sum"
  type: "Eltwise"
  bottom: "inception_3b_output_proj"
  bottom: "inception_3a_output"
  top: "inception_3b_output_sum"
  eltwise_param {
    operation: SUM
  }
}
layer {
  name: "inception_3c_1x1"
  type: "Convolution"
  bottom: "inception_3b_output_sum"
  top: "inception_3c_1x1"
  param {
    lr_mult: 10
    decay_mult: 1
  }
  param {
    lr_mult: 20
    decay_mult: 0
  }
  convolution_param {
    num_output: 64
    pad: 0
    kernel_size: 1
    stride: 1
    weight_filler {
      type: "xavier"
      std: 1
    }
    bias_filler {
      type: "constant"
      value: 0.2
    }
  }
}
layer {
  name: "inception_3c_1x1_bn"
  type: "BatchNorm"
  bottom: "inception_3c_1x1"
  top: "inception_3c_1x1"
}
layer {
  name: "inception_3c_relu_1x1"
  type: "ReLU"
  bottom: "inception_3c_1x1"
  top: "inception_3c_1x1"
}
layer {
  name: "inception_3c_3x3_reduce"
  type: "Convolution"
  bottom: "inception_3b_output_sum"
  top: "inception_3c_3x3_reduce"
  param {
    lr_mult: 10
    decay_mult: 1
  }
  param {
    lr_mult: 20
    decay_mult: 0
  }
  convolution_param {
    num_output: 96
    pad: 0
    kernel_size: 1
    stride: 1
    weight_filler {
      type: "xavier"
      std: 1
    }
    bias_filler {
      type: "constant"
      value: 0.2
    }
  }
}
layer {
  name: "inception_3c_3x3_reduce_bn"
  type: "BatchNorm"
  bottom: "inception_3c_3x3_reduce"
  top: "inception_3c_3x3_reduce"
}
layer {
  name: "inception_3c_relu_3x3_reduce"
  type: "ReLU"
  bottom: "inception_3c_3x3_reduce"
  top: "inception_3c_3x3_reduce"
}
layer {
  name: "inception_3c_3x3"
  type: "Convolution"
  bottom: "inception_3c_3x3_reduce"
  top: "inception_3c_3x3"
  param {
    lr_mult: 10
    decay_mult: 1
  }
  param {
    lr_mult: 20
    decay_mult: 0
  }
  convolution_param {
    num_output: 160
    pad: 1
    kernel_size: 3
    stride: 1
    weight_filler {
      type: "xavier"
      std: 1
    }
    bias_filler {
      type: "constant"
      value: 0.2
    }
  }
}
layer {
  name: "inception_3c_3x3_bn"
  type: "BatchNorm"
  bottom: "inception_3c_3x3"
  top: "inception_3c_3x3"
}
layer {
  name: "inception_3c_relu_3x3"
  type: "ReLU"
  bottom: "inception_3c_3x3"
  top: "inception_3c_3x3"
}
layer {
  name: "inception_3c_pool"
  type: "Pooling"
  bottom: "inception_3b_output_sum"
  top: "inception_3c_pool"
  pooling_param {
    pool: MAX
    kernel_size: 3
    stride: 1
    pad: 1
  }
}
layer {
  name: "inception_3c_pool_proj"
  type: "Convolution"
  bottom: "inception_3c_pool"
  top: "inception_3c_pool_proj"
  param {
    lr_mult: 10
    decay_mult: 1
  }
  param {
    lr_mult: 20
    decay_mult: 0
  }
  convolution_param {
    num_output: 32
    pad: 0
    kernel_size: 1
    stride: 1
    weight_filler {
      type: "xavier"
      std: 1
    }
    bias_filler {
      type: "constant"
      value: 0.2
    }
  }
}
layer {
  name: "inception_3c_pool_proj_bn"
  type: "BatchNorm"
  bottom: "inception_3c_pool_proj"
  top: "inception_3c_pool_proj"
}
layer {
  name: "inception_3c_relu_pool_proj"
  type: "ReLU"
  bottom: "inception_3c_pool_proj"
  top: "inception_3c_pool_proj"
}
layer {
  name: "inception_3c_output"
  type: "Concat"
  bottom: "inception_3c_1x1"
  bottom: "inception_3c_3x3"
  bottom: "inception_3c_pool_proj"
  top: "inception_3c_output"
}
layer {
  name: "inception_3c_output_proj"
  type: "Convolution"
  bottom: "inception_3c_output"
  top: "inception_3c_output_proj"
  param {
    lr_mult: 10
    decay_mult: 1
  }
  param {
    lr_mult: 20
    decay_mult: 0
  }
  convolution_param {
    num_output: 384
    pad: 0
    kernel_size: 1
    stride: 1
    weight_filler {
      type: "xavier"
      std: 1
    }
    bias_filler {
      type: "constant"
      value: 0.2
    }
  }
}
layer {
  name: "inception_3c_output_sum"
  type: "Eltwise"
  bottom: "inception_3c_output_proj"
  bottom: "inception_3b_output_sum"
  top: "inception_3c_output_sum"
  eltwise_param {
    operation: SUM
  }
}
layer {
  name: "pool5_ave"
  type: "Pooling"
  bottom: "inception_3c_output_sum"
  top: "pool5_ave"
  pooling_param {
    pool: AVE
    kernel_h: 4
    kernel_w: 1
    stride_h: 1
    stride_w: 1
  }
}
layer {
  name: "pool5_ave_transpose"
  type: "Transpose"
  bottom: "pool5_ave"
  top: "pool5_ave_transpose"
  transpose_param {
    dim: 3
    dim: 2
    dim: 0
    dim: 1
  }
}
layer {
  name: "blstm_input"
  type: "Reshape"
  bottom: "pool5_ave_transpose"
  top: "blstm_input"
  reshape_param {
    shape {
      dim: -1
    }
    axis: 1
    num_axes: 2
  }
}
layer {
  name: "lstm1"
  type: "Lstm"
  bottom: "blstm_input"
  top: "lstm1"
  lstm_param {
    num_output: 256
    weight_filler {
      type: "gaussian"
      std: 0.1
    }
    bias_filler {
      type: "constant"
    }
  }
}
layer {
  name: "lstm1-reverse1"
  type: "Reverse"
  bottom: "blstm_input"
  top: "rlstm1_input"
  reverse_param {
    axis: 0
  }
}
layer {
  name: "rlstm1"
  type: "Lstm"
  bottom: "rlstm1_input"
  top: "rlstm1-output"
  lstm_param {
    num_output: 256
    weight_filler {
      type: "gaussian"
      std: 0.1
    }
    bias_filler {
      type: "constant"
    }
  }
}
layer {
  name: "lstm1-reverse2"
  type: "Reverse"
  bottom: "rlstm1-output"
  top: "rlstm1"
  reverse_param {
    axis: 0
  }
}
layer {
  name: "blstm1"
  type: "Concat"
  bottom: "lstm1"
  bottom: "rlstm1"
  top: "blstm1"
  concat_param {
    axis: 2
  }
}
layer {
  name: "lstm2"
  type: "Lstm"
  bottom: "blstm1"
  top: "lstm2"
  lstm_param {
    num_output: 256
    weight_filler {
      type: "gaussian"
      std: 0.1
    }
    bias_filler {
      type: "constant"
    }
  }
}
layer {
  name: "lstm2-reverse1"
  type: "Reverse"
  bottom: "blstm1"
  top: "rlstm2_input"
  reverse_param {
    axis: 0
  }
}
layer {
  name: "rlstm2"
  type: "Lstm"
  bottom: "rlstm2_input"
  top: "rlstm2-output"
  lstm_param {
    num_output: 256
    weight_filler {
      type: "gaussian"
      std: 0.1
    }
    bias_filler {
      type: "constant"
    }
  }
}
layer {
  name: "lstm2-reverse2"
  type: "Reverse"
  bottom: "rlstm2-output"
  top: "rlstm2"
  reverse_param {
    axis: 0
  }
}
layer {
  name: "blstm2"
  type: "Concat"
  bottom: "lstm2"
  bottom: "rlstm2"
  top: "blstm2"
  concat_param {
    axis: 2
  }
}
layer {
  name: "blstm_sum"
  type: "Eltwise"
  bottom: "blstm1"
  bottom: "blstm2"
  top: "blstm_sum"
  eltwise_param {
    operation: SUM
  }
}
layer {
  name: "fc1x5990"
  type: "InnerProduct"
  bottom: "blstm_sum"
  top: "fc1x5990"
  param {
    lr_mult: 1
    decay_mult: 1
  }
  param {
    lr_mult: 2
    decay_mult: 0
  }
  inner_product_param {
    num_output: 37
    weight_filler {
      type: "xavier"
    }
    bias_filler {
      type: "constant"
      value: 0
    }
    axis: 2
  }
}
layer {
  name: "result"
  type: "CTCGreedyDecoder"
  bottom: "fc1x5990"
  top: "result"
}
I1228 21:15:23.616385  8417 layer_factory.hpp:77] Creating layer input
I1228 21:15:23.616408  8417 net.cpp:84] Creating Layer input
I1228 21:15:23.616430  8417 net.cpp:380] input -> data
I1228 21:15:23.631800  8417 net.cpp:122] Setting up input
I1228 21:15:23.631851  8417 net.cpp:129] Top shape: 1 3 32 100 (9600)
I1228 21:15:23.631855  8417 net.cpp:137] Memory required for data: 38400
I1228 21:15:23.631865  8417 layer_factory.hpp:77] Creating layer data_input_0_split
I1228 21:15:23.631894  8417 net.cpp:84] Creating Layer data_input_0_split
I1228 21:15:23.631899  8417 net.cpp:406] data_input_0_split <- data
I1228 21:15:23.631928  8417 net.cpp:380] data_input_0_split -> data_input_0_split_0
I1228 21:15:23.631938  8417 net.cpp:380] data_input_0_split -> data_input_0_split_1
I1228 21:15:23.631983  8417 net.cpp:122] Setting up data_input_0_split
I1228 21:15:23.631988  8417 net.cpp:129] Top shape: 1 3 32 100 (9600)
I1228 21:15:23.631989  8417 net.cpp:129] Top shape: 1 3 32 100 (9600)
I1228 21:15:23.631991  8417 net.cpp:137] Memory required for data: 115200
I1228 21:15:23.631994  8417 layer_factory.hpp:77] Creating layer conv1_7x7_s2
I1228 21:15:23.632012  8417 net.cpp:84] Creating Layer conv1_7x7_s2
I1228 21:15:23.632015  8417 net.cpp:406] conv1_7x7_s2 <- data_input_0_split_0
I1228 21:15:23.632028  8417 net.cpp:380] conv1_7x7_s2 -> conv1_7x7_s2
I1228 21:15:23.801182  8417 net.cpp:122] Setting up conv1_7x7_s2
I1228 21:15:23.801218  8417 net.cpp:129] Top shape: 1 32 16 50 (25600)
I1228 21:15:23.801221  8417 net.cpp:137] Memory required for data: 217600
I1228 21:15:23.801271  8417 layer_factory.hpp:77] Creating layer conv1_7x7_s2_bn
I1228 21:15:23.801300  8417 net.cpp:84] Creating Layer conv1_7x7_s2_bn
I1228 21:15:23.801303  8417 net.cpp:406] conv1_7x7_s2_bn <- conv1_7x7_s2
I1228 21:15:23.801309  8417 net.cpp:367] conv1_7x7_s2_bn -> conv1_7x7_s2 (in-place)
I1228 21:15:23.801496  8417 net.cpp:122] Setting up conv1_7x7_s2_bn
I1228 21:15:23.801501  8417 net.cpp:129] Top shape: 1 32 16 50 (25600)
I1228 21:15:23.801502  8417 net.cpp:137] Memory required for data: 320000
I1228 21:15:23.801527  8417 layer_factory.hpp:77] Creating layer conv1_7x7_relu
I1228 21:15:23.801533  8417 net.cpp:84] Creating Layer conv1_7x7_relu
I1228 21:15:23.801534  8417 net.cpp:406] conv1_7x7_relu <- conv1_7x7_s2
I1228 21:15:23.801556  8417 net.cpp:367] conv1_7x7_relu -> conv1_7x7_s2 (in-place)
I1228 21:15:23.801726  8417 net.cpp:122] Setting up conv1_7x7_relu
I1228 21:15:23.801733  8417 net.cpp:129] Top shape: 1 32 16 50 (25600)
I1228 21:15:23.801753  8417 net.cpp:137] Memory required for data: 422400
I1228 21:15:23.801755  8417 layer_factory.hpp:77] Creating layer conv1_9x9_s2
I1228 21:15:23.801764  8417 net.cpp:84] Creating Layer conv1_9x9_s2
I1228 21:15:23.801784  8417 net.cpp:406] conv1_9x9_s2 <- data_input_0_split_1
I1228 21:15:23.801787  8417 net.cpp:380] conv1_9x9_s2 -> conv1_9x9_s2
I1228 21:15:23.802748  8417 net.cpp:122] Setting up conv1_9x9_s2
I1228 21:15:23.802757  8417 net.cpp:129] Top shape: 1 32 16 50 (25600)
I1228 21:15:23.802778  8417 net.cpp:137] Memory required for data: 524800
I1228 21:15:23.802783  8417 layer_factory.hpp:77] Creating layer conv1_9x9_s2_bn
I1228 21:15:23.802791  8417 net.cpp:84] Creating Layer conv1_9x9_s2_bn
I1228 21:15:23.802794  8417 net.cpp:406] conv1_9x9_s2_bn <- conv1_9x9_s2
I1228 21:15:23.802815  8417 net.cpp:367] conv1_9x9_s2_bn -> conv1_9x9_s2 (in-place)
I1228 21:15:23.802996  8417 net.cpp:122] Setting up conv1_9x9_s2_bn
I1228 21:15:23.803000  8417 net.cpp:129] Top shape: 1 32 16 50 (25600)
I1228 21:15:23.803002  8417 net.cpp:137] Memory required for data: 627200
I1228 21:15:23.803026  8417 layer_factory.hpp:77] Creating layer conv1_9x9_relu
I1228 21:15:23.803030  8417 net.cpp:84] Creating Layer conv1_9x9_relu
I1228 21:15:23.803031  8417 net.cpp:406] conv1_9x9_relu <- conv1_9x9_s2
I1228 21:15:23.803035  8417 net.cpp:367] conv1_9x9_relu -> conv1_9x9_s2 (in-place)
I1228 21:15:23.803233  8417 net.cpp:122] Setting up conv1_9x9_relu
I1228 21:15:23.803238  8417 net.cpp:129] Top shape: 1 32 16 50 (25600)
I1228 21:15:23.803241  8417 net.cpp:137] Memory required for data: 729600
I1228 21:15:23.803261  8417 layer_factory.hpp:77] Creating layer conv1_concat
I1228 21:15:23.803266  8417 net.cpp:84] Creating Layer conv1_concat
I1228 21:15:23.803267  8417 net.cpp:406] conv1_concat <- conv1_7x7_s2
I1228 21:15:23.803269  8417 net.cpp:406] conv1_concat <- conv1_9x9_s2
I1228 21:15:23.803292  8417 net.cpp:380] conv1_concat -> conv1_concat
I1228 21:15:23.803310  8417 net.cpp:122] Setting up conv1_concat
I1228 21:15:23.803313  8417 net.cpp:129] Top shape: 1 64 16 50 (51200)
I1228 21:15:23.803315  8417 net.cpp:137] Memory required for data: 934400
I1228 21:15:23.803316  8417 layer_factory.hpp:77] Creating layer pool1_3x3_s2
I1228 21:15:23.803321  8417 net.cpp:84] Creating Layer pool1_3x3_s2
I1228 21:15:23.803323  8417 net.cpp:406] pool1_3x3_s2 <- conv1_concat
I1228 21:15:23.803325  8417 net.cpp:380] pool1_3x3_s2 -> pool1_3x3_s2
I1228 21:15:23.803360  8417 net.cpp:122] Setting up pool1_3x3_s2
I1228 21:15:23.803377  8417 net.cpp:129] Top shape: 1 64 8 25 (12800)
I1228 21:15:23.803380  8417 net.cpp:137] Memory required for data: 985600
I1228 21:15:23.803380  8417 layer_factory.hpp:77] Creating layer conv2_3x3
I1228 21:15:23.803387  8417 net.cpp:84] Creating Layer conv2_3x3
I1228 21:15:23.803388  8417 net.cpp:406] conv2_3x3 <- pool1_3x3_s2
I1228 21:15:23.803393  8417 net.cpp:380] conv2_3x3 -> conv2_3x3
I1228 21:15:23.805902  8417 net.cpp:122] Setting up conv2_3x3
I1228 21:15:23.805919  8417 net.cpp:129] Top shape: 1 128 8 25 (25600)
I1228 21:15:23.805935  8417 net.cpp:137] Memory required for data: 1088000
I1228 21:15:23.805943  8417 layer_factory.hpp:77] Creating layer conv2_3x3_bn
I1228 21:15:23.805950  8417 net.cpp:84] Creating Layer conv2_3x3_bn
I1228 21:15:23.805953  8417 net.cpp:406] conv2_3x3_bn <- conv2_3x3
I1228 21:15:23.805958  8417 net.cpp:367] conv2_3x3_bn -> conv2_3x3 (in-place)
I1228 21:15:23.806097  8417 net.cpp:122] Setting up conv2_3x3_bn
I1228 21:15:23.806102  8417 net.cpp:129] Top shape: 1 128 8 25 (25600)
I1228 21:15:23.806104  8417 net.cpp:137] Memory required for data: 1190400
I1228 21:15:23.806108  8417 layer_factory.hpp:77] Creating layer conv2_3x3_relu
I1228 21:15:23.806114  8417 net.cpp:84] Creating Layer conv2_3x3_relu
I1228 21:15:23.806116  8417 net.cpp:406] conv2_3x3_relu <- conv2_3x3
I1228 21:15:23.806119  8417 net.cpp:367] conv2_3x3_relu -> conv2_3x3 (in-place)
I1228 21:15:23.806704  8417 net.cpp:122] Setting up conv2_3x3_relu
I1228 21:15:23.806723  8417 net.cpp:129] Top shape: 1 128 8 25 (25600)
I1228 21:15:23.806743  8417 net.cpp:137] Memory required for data: 1292800
I1228 21:15:23.806746  8417 layer_factory.hpp:77] Creating layer pool2_3x3_s2
I1228 21:15:23.806749  8417 net.cpp:84] Creating Layer pool2_3x3_s2
I1228 21:15:23.806751  8417 net.cpp:406] pool2_3x3_s2 <- conv2_3x3
I1228 21:15:23.806773  8417 net.cpp:380] pool2_3x3_s2 -> pool2_3x3_s2
I1228 21:15:23.806826  8417 net.cpp:122] Setting up pool2_3x3_s2
I1228 21:15:23.806831  8417 net.cpp:129] Top shape: 1 128 4 13 (6656)
I1228 21:15:23.806833  8417 net.cpp:137] Memory required for data: 1319424
I1228 21:15:23.806848  8417 layer_factory.hpp:77] Creating layer pool2_3x3_s2_pool2_3x3_s2_0_split
I1228 21:15:23.806851  8417 net.cpp:84] Creating Layer pool2_3x3_s2_pool2_3x3_s2_0_split
I1228 21:15:23.806854  8417 net.cpp:406] pool2_3x3_s2_pool2_3x3_s2_0_split <- pool2_3x3_s2
I1228 21:15:23.806869  8417 net.cpp:380] pool2_3x3_s2_pool2_3x3_s2_0_split -> pool2_3x3_s2_pool2_3x3_s2_0_split_0
I1228 21:15:23.806874  8417 net.cpp:380] pool2_3x3_s2_pool2_3x3_s2_0_split -> pool2_3x3_s2_pool2_3x3_s2_0_split_1
I1228 21:15:23.806876  8417 net.cpp:380] pool2_3x3_s2_pool2_3x3_s2_0_split -> pool2_3x3_s2_pool2_3x3_s2_0_split_2
I1228 21:15:23.806944  8417 net.cpp:122] Setting up pool2_3x3_s2_pool2_3x3_s2_0_split
I1228 21:15:23.806949  8417 net.cpp:129] Top shape: 1 128 4 13 (6656)
I1228 21:15:23.806965  8417 net.cpp:129] Top shape: 1 128 4 13 (6656)
I1228 21:15:23.806967  8417 net.cpp:129] Top shape: 1 128 4 13 (6656)
I1228 21:15:23.806969  8417 net.cpp:137] Memory required for data: 1399296
I1228 21:15:23.806970  8417 layer_factory.hpp:77] Creating layer inception_3a_1x1
I1228 21:15:23.806995  8417 net.cpp:84] Creating Layer inception_3a_1x1
I1228 21:15:23.806998  8417 net.cpp:406] inception_3a_1x1 <- pool2_3x3_s2_pool2_3x3_s2_0_split_0
I1228 21:15:23.807015  8417 net.cpp:380] inception_3a_1x1 -> inception_3a_1x1
I1228 21:15:23.808256  8417 net.cpp:122] Setting up inception_3a_1x1
I1228 21:15:23.808265  8417 net.cpp:129] Top shape: 1 96 4 13 (4992)
I1228 21:15:23.808285  8417 net.cpp:137] Memory required for data: 1419264
I1228 21:15:23.808291  8417 layer_factory.hpp:77] Creating layer inception_3a_1x1_bn
I1228 21:15:23.808298  8417 net.cpp:84] Creating Layer inception_3a_1x1_bn
I1228 21:15:23.808300  8417 net.cpp:406] inception_3a_1x1_bn <- inception_3a_1x1
I1228 21:15:23.808305  8417 net.cpp:367] inception_3a_1x1_bn -> inception_3a_1x1 (in-place)
I1228 21:15:23.808486  8417 net.cpp:122] Setting up inception_3a_1x1_bn
I1228 21:15:23.808490  8417 net.cpp:129] Top shape: 1 96 4 13 (4992)
I1228 21:15:23.808492  8417 net.cpp:137] Memory required for data: 1439232
I1228 21:15:23.808514  8417 layer_factory.hpp:77] Creating layer inception_3a_relu_1x1
I1228 21:15:23.808517  8417 net.cpp:84] Creating Layer inception_3a_relu_1x1
I1228 21:15:23.808519  8417 net.cpp:406] inception_3a_relu_1x1 <- inception_3a_1x1
I1228 21:15:23.808522  8417 net.cpp:367] inception_3a_relu_1x1 -> inception_3a_1x1 (in-place)
I1228 21:15:23.808758  8417 net.cpp:122] Setting up inception_3a_relu_1x1
I1228 21:15:23.808764  8417 net.cpp:129] Top shape: 1 96 4 13 (4992)
I1228 21:15:23.808766  8417 net.cpp:137] Memory required for data: 1459200
I1228 21:15:23.808780  8417 layer_factory.hpp:77] Creating layer inception_3a_3x3_reduce
I1228 21:15:23.808806  8417 net.cpp:84] Creating Layer inception_3a_3x3_reduce
I1228 21:15:23.808809  8417 net.cpp:406] inception_3a_3x3_reduce <- pool2_3x3_s2_pool2_3x3_s2_0_split_1
I1228 21:15:23.808814  8417 net.cpp:380] inception_3a_3x3_reduce -> inception_3a_3x3_reduce
I1228 21:15:23.809875  8417 net.cpp:122] Setting up inception_3a_3x3_reduce
I1228 21:15:23.809885  8417 net.cpp:129] Top shape: 1 96 4 13 (4992)
I1228 21:15:23.809886  8417 net.cpp:137] Memory required for data: 1479168
I1228 21:15:23.809890  8417 layer_factory.hpp:77] Creating layer inception_3a_3x3_reduce_bn
I1228 21:15:23.809895  8417 net.cpp:84] Creating Layer inception_3a_3x3_reduce_bn
I1228 21:15:23.809896  8417 net.cpp:406] inception_3a_3x3_reduce_bn <- inception_3a_3x3_reduce
I1228 21:15:23.809900  8417 net.cpp:367] inception_3a_3x3_reduce_bn -> inception_3a_3x3_reduce (in-place)
I1228 21:15:23.810091  8417 net.cpp:122] Setting up inception_3a_3x3_reduce_bn
I1228 21:15:23.810094  8417 net.cpp:129] Top shape: 1 96 4 13 (4992)
I1228 21:15:23.810096  8417 net.cpp:137] Memory required for data: 1499136
I1228 21:15:23.810112  8417 layer_factory.hpp:77] Creating layer inception_3a_relu_3x3_reduce
I1228 21:15:23.810117  8417 net.cpp:84] Creating Layer inception_3a_relu_3x3_reduce
I1228 21:15:23.810118  8417 net.cpp:406] inception_3a_relu_3x3_reduce <- inception_3a_3x3_reduce
I1228 21:15:23.810134  8417 net.cpp:367] inception_3a_relu_3x3_reduce -> inception_3a_3x3_reduce (in-place)
I1228 21:15:23.810281  8417 net.cpp:122] Setting up inception_3a_relu_3x3_reduce
I1228 21:15:23.810286  8417 net.cpp:129] Top shape: 1 96 4 13 (4992)
I1228 21:15:23.810287  8417 net.cpp:137] Memory required for data: 1519104
I1228 21:15:23.810302  8417 layer_factory.hpp:77] Creating layer inception_3a_3x3
I1228 21:15:23.810309  8417 net.cpp:84] Creating Layer inception_3a_3x3
I1228 21:15:23.810326  8417 net.cpp:406] inception_3a_3x3 <- inception_3a_3x3_reduce
I1228 21:15:23.810330  8417 net.cpp:380] inception_3a_3x3 -> inception_3a_3x3
I1228 21:15:23.812562  8417 net.cpp:122] Setting up inception_3a_3x3
I1228 21:15:23.812575  8417 net.cpp:129] Top shape: 1 224 4 13 (11648)
I1228 21:15:23.812590  8417 net.cpp:137] Memory required for data: 1565696
I1228 21:15:23.812595  8417 layer_factory.hpp:77] Creating layer inception_3a_3x3_bn
I1228 21:15:23.812602  8417 net.cpp:84] Creating Layer inception_3a_3x3_bn
I1228 21:15:23.812604  8417 net.cpp:406] inception_3a_3x3_bn <- inception_3a_3x3
I1228 21:15:23.812608  8417 net.cpp:367] inception_3a_3x3_bn -> inception_3a_3x3 (in-place)
I1228 21:15:23.812763  8417 net.cpp:122] Setting up inception_3a_3x3_bn
I1228 21:15:23.812768  8417 net.cpp:129] Top shape: 1 224 4 13 (11648)
I1228 21:15:23.812770  8417 net.cpp:137] Memory required for data: 1612288
I1228 21:15:23.812793  8417 layer_factory.hpp:77] Creating layer inception_3a_relu_3x3
I1228 21:15:23.812799  8417 net.cpp:84] Creating Layer inception_3a_relu_3x3
I1228 21:15:23.812801  8417 net.cpp:406] inception_3a_relu_3x3 <- inception_3a_3x3
I1228 21:15:23.812808  8417 net.cpp:367] inception_3a_relu_3x3 -> inception_3a_3x3 (in-place)
I1228 21:15:23.812947  8417 net.cpp:122] Setting up inception_3a_relu_3x3
I1228 21:15:23.812953  8417 net.cpp:129] Top shape: 1 224 4 13 (11648)
I1228 21:15:23.812955  8417 net.cpp:137] Memory required for data: 1658880
I1228 21:15:23.812958  8417 layer_factory.hpp:77] Creating layer inception_3a_pool
I1228 21:15:23.812963  8417 net.cpp:84] Creating Layer inception_3a_pool
I1228 21:15:23.812965  8417 net.cpp:406] inception_3a_pool <- pool2_3x3_s2_pool2_3x3_s2_0_split_2
I1228 21:15:23.812968  8417 net.cpp:380] inception_3a_pool -> inception_3a_pool
I1228 21:15:23.812999  8417 net.cpp:122] Setting up inception_3a_pool
I1228 21:15:23.813004  8417 net.cpp:129] Top shape: 1 128 4 13 (6656)
I1228 21:15:23.813005  8417 net.cpp:137] Memory required for data: 1685504
I1228 21:15:23.813007  8417 layer_factory.hpp:77] Creating layer inception_3a_pool_proj
I1228 21:15:23.813015  8417 net.cpp:84] Creating Layer inception_3a_pool_proj
I1228 21:15:23.813017  8417 net.cpp:406] inception_3a_pool_proj <- inception_3a_pool
I1228 21:15:23.813022  8417 net.cpp:380] inception_3a_pool_proj -> inception_3a_pool_proj
I1228 21:15:23.814041  8417 net.cpp:122] Setting up inception_3a_pool_proj
I1228 21:15:23.814057  8417 net.cpp:129] Top shape: 1 64 4 13 (3328)
I1228 21:15:23.814060  8417 net.cpp:137] Memory required for data: 1698816
I1228 21:15:23.814081  8417 layer_factory.hpp:77] Creating layer inception_3a_pool_proj_bn
I1228 21:15:23.814090  8417 net.cpp:84] Creating Layer inception_3a_pool_proj_bn
I1228 21:15:23.814095  8417 net.cpp:406] inception_3a_pool_proj_bn <- inception_3a_pool_proj
I1228 21:15:23.814100  8417 net.cpp:367] inception_3a_pool_proj_bn -> inception_3a_pool_proj (in-place)
I1228 21:15:23.814262  8417 net.cpp:122] Setting up inception_3a_pool_proj_bn
I1228 21:15:23.814268  8417 net.cpp:129] Top shape: 1 64 4 13 (3328)
I1228 21:15:23.814270  8417 net.cpp:137] Memory required for data: 1712128
I1228 21:15:23.814278  8417 layer_factory.hpp:77] Creating layer inception_3a_relu_pool_proj
I1228 21:15:23.814283  8417 net.cpp:84] Creating Layer inception_3a_relu_pool_proj
I1228 21:15:23.814285  8417 net.cpp:406] inception_3a_relu_pool_proj <- inception_3a_pool_proj
I1228 21:15:23.814290  8417 net.cpp:367] inception_3a_relu_pool_proj -> inception_3a_pool_proj (in-place)
I1228 21:15:23.814430  8417 net.cpp:122] Setting up inception_3a_relu_pool_proj
I1228 21:15:23.814436  8417 net.cpp:129] Top shape: 1 64 4 13 (3328)
I1228 21:15:23.814438  8417 net.cpp:137] Memory required for data: 1725440
I1228 21:15:23.814440  8417 layer_factory.hpp:77] Creating layer inception_3a_output
I1228 21:15:23.814445  8417 net.cpp:84] Creating Layer inception_3a_output
I1228 21:15:23.814446  8417 net.cpp:406] inception_3a_output <- inception_3a_1x1
I1228 21:15:23.814448  8417 net.cpp:406] inception_3a_output <- inception_3a_3x3
I1228 21:15:23.814451  8417 net.cpp:406] inception_3a_output <- inception_3a_pool_proj
I1228 21:15:23.814455  8417 net.cpp:380] inception_3a_output -> inception_3a_output
I1228 21:15:23.814474  8417 net.cpp:122] Setting up inception_3a_output
I1228 21:15:23.814478  8417 net.cpp:129] Top shape: 1 384 4 13 (19968)
I1228 21:15:23.814481  8417 net.cpp:137] Memory required for data: 1805312
I1228 21:15:23.814482  8417 layer_factory.hpp:77] Creating layer inception_3a_output_inception_3a_output_0_split
I1228 21:15:23.814486  8417 net.cpp:84] Creating Layer inception_3a_output_inception_3a_output_0_split
I1228 21:15:23.814487  8417 net.cpp:406] inception_3a_output_inception_3a_output_0_split <- inception_3a_output
I1228 21:15:23.814491  8417 net.cpp:380] inception_3a_output_inception_3a_output_0_split -> inception_3a_output_inception_3a_output_0_split_0
I1228 21:15:23.814496  8417 net.cpp:380] inception_3a_output_inception_3a_output_0_split -> inception_3a_output_inception_3a_output_0_split_1
I1228 21:15:23.814499  8417 net.cpp:380] inception_3a_output_inception_3a_output_0_split -> inception_3a_output_inception_3a_output_0_split_2
I1228 21:15:23.814503  8417 net.cpp:380] inception_3a_output_inception_3a_output_0_split -> inception_3a_output_inception_3a_output_0_split_3
I1228 21:15:23.814548  8417 net.cpp:122] Setting up inception_3a_output_inception_3a_output_0_split
I1228 21:15:23.814550  8417 net.cpp:129] Top shape: 1 384 4 13 (19968)
I1228 21:15:23.814553  8417 net.cpp:129] Top shape: 1 384 4 13 (19968)
I1228 21:15:23.814556  8417 net.cpp:129] Top shape: 1 384 4 13 (19968)
I1228 21:15:23.814558  8417 net.cpp:129] Top shape: 1 384 4 13 (19968)
I1228 21:15:23.814560  8417 net.cpp:137] Memory required for data: 2124800
I1228 21:15:23.814561  8417 layer_factory.hpp:77] Creating layer inception_3b_1x1
I1228 21:15:23.814568  8417 net.cpp:84] Creating Layer inception_3b_1x1
I1228 21:15:23.814571  8417 net.cpp:406] inception_3b_1x1 <- inception_3a_output_inception_3a_output_0_split_0
I1228 21:15:23.814576  8417 net.cpp:380] inception_3b_1x1 -> inception_3b_1x1
I1228 21:15:23.816452  8417 net.cpp:122] Setting up inception_3b_1x1
I1228 21:15:23.816468  8417 net.cpp:129] Top shape: 1 64 4 13 (3328)
I1228 21:15:23.816469  8417 net.cpp:137] Memory required for data: 2138112
I1228 21:15:23.816493  8417 layer_factory.hpp:77] Creating layer inception_3b_1x1_bn
I1228 21:15:23.816500  8417 net.cpp:84] Creating Layer inception_3b_1x1_bn
I1228 21:15:23.816504  8417 net.cpp:406] inception_3b_1x1_bn <- inception_3b_1x1
I1228 21:15:23.816509  8417 net.cpp:367] inception_3b_1x1_bn -> inception_3b_1x1 (in-place)
I1228 21:15:23.816668  8417 net.cpp:122] Setting up inception_3b_1x1_bn
I1228 21:15:23.816673  8417 net.cpp:129] Top shape: 1 64 4 13 (3328)
I1228 21:15:23.816674  8417 net.cpp:137] Memory required for data: 2151424
I1228 21:15:23.816679  8417 layer_factory.hpp:77] Creating layer inception_3b_relu_1x1
I1228 21:15:23.816702  8417 net.cpp:84] Creating Layer inception_3b_relu_1x1
I1228 21:15:23.816705  8417 net.cpp:406] inception_3b_relu_1x1 <- inception_3b_1x1
I1228 21:15:23.816709  8417 net.cpp:367] inception_3b_relu_1x1 -> inception_3b_1x1 (in-place)
I1228 21:15:23.816898  8417 net.cpp:122] Setting up inception_3b_relu_1x1
I1228 21:15:23.816922  8417 net.cpp:129] Top shape: 1 64 4 13 (3328)
I1228 21:15:23.816925  8417 net.cpp:137] Memory required for data: 2164736
I1228 21:15:23.816926  8417 layer_factory.hpp:77] Creating layer inception_3b_3x3_reduce
I1228 21:15:23.816947  8417 net.cpp:84] Creating Layer inception_3b_3x3_reduce
I1228 21:15:23.816951  8417 net.cpp:406] inception_3b_3x3_reduce <- inception_3a_output_inception_3a_output_0_split_1
I1228 21:15:23.816956  8417 net.cpp:380] inception_3b_3x3_reduce -> inception_3b_3x3_reduce
I1228 21:15:23.818161  8417 net.cpp:122] Setting up inception_3b_3x3_reduce
I1228 21:15:23.818171  8417 net.cpp:129] Top shape: 1 96 4 13 (4992)
I1228 21:15:23.818172  8417 net.cpp:137] Memory required for data: 2184704
I1228 21:15:23.818176  8417 layer_factory.hpp:77] Creating layer inception_3b_3x3_reduce_bn
I1228 21:15:23.818181  8417 net.cpp:84] Creating Layer inception_3b_3x3_reduce_bn
I1228 21:15:23.818183  8417 net.cpp:406] inception_3b_3x3_reduce_bn <- inception_3b_3x3_reduce
I1228 21:15:23.818186  8417 net.cpp:367] inception_3b_3x3_reduce_bn -> inception_3b_3x3_reduce (in-place)
I1228 21:15:23.818385  8417 net.cpp:122] Setting up inception_3b_3x3_reduce_bn
I1228 21:15:23.818390  8417 net.cpp:129] Top shape: 1 96 4 13 (4992)
I1228 21:15:23.818392  8417 net.cpp:137] Memory required for data: 2204672
I1228 21:15:23.818413  8417 layer_factory.hpp:77] Creating layer inception_3b_relu_3x3_reduce
I1228 21:15:23.818418  8417 net.cpp:84] Creating Layer inception_3b_relu_3x3_reduce
I1228 21:15:23.818419  8417 net.cpp:406] inception_3b_relu_3x3_reduce <- inception_3b_3x3_reduce
I1228 21:15:23.818423  8417 net.cpp:367] inception_3b_relu_3x3_reduce -> inception_3b_3x3_reduce (in-place)
I1228 21:15:23.818876  8417 net.cpp:122] Setting up inception_3b_relu_3x3_reduce
I1228 21:15:23.818884  8417 net.cpp:129] Top shape: 1 96 4 13 (4992)
I1228 21:15:23.818905  8417 net.cpp:137] Memory required for data: 2224640
I1228 21:15:23.818907  8417 layer_factory.hpp:77] Creating layer inception_3b_3x3
I1228 21:15:23.818914  8417 net.cpp:84] Creating Layer inception_3b_3x3
I1228 21:15:23.818917  8417 net.cpp:406] inception_3b_3x3 <- inception_3b_3x3_reduce
I1228 21:15:23.818935  8417 net.cpp:380] inception_3b_3x3 -> inception_3b_3x3
I1228 21:15:23.820749  8417 net.cpp:122] Setting up inception_3b_3x3
I1228 21:15:23.820758  8417 net.cpp:129] Top shape: 1 160 4 13 (8320)
I1228 21:15:23.820760  8417 net.cpp:137] Memory required for data: 2257920
I1228 21:15:23.820765  8417 layer_factory.hpp:77] Creating layer inception_3b_3x3_bn
I1228 21:15:23.820770  8417 net.cpp:84] Creating Layer inception_3b_3x3_bn
I1228 21:15:23.820772  8417 net.cpp:406] inception_3b_3x3_bn <- inception_3b_3x3
I1228 21:15:23.820775  8417 net.cpp:367] inception_3b_3x3_bn -> inception_3b_3x3 (in-place)
I1228 21:15:23.820996  8417 net.cpp:122] Setting up inception_3b_3x3_bn
I1228 21:15:23.821002  8417 net.cpp:129] Top shape: 1 160 4 13 (8320)
I1228 21:15:23.821003  8417 net.cpp:137] Memory required for data: 2291200
I1228 21:15:23.821025  8417 layer_factory.hpp:77] Creating layer inception_3b_relu_3x3
I1228 21:15:23.821030  8417 net.cpp:84] Creating Layer inception_3b_relu_3x3
I1228 21:15:23.821033  8417 net.cpp:406] inception_3b_relu_3x3 <- inception_3b_3x3
I1228 21:15:23.821053  8417 net.cpp:367] inception_3b_relu_3x3 -> inception_3b_3x3 (in-place)
I1228 21:15:23.821216  8417 net.cpp:122] Setting up inception_3b_relu_3x3
I1228 21:15:23.821221  8417 net.cpp:129] Top shape: 1 160 4 13 (8320)
I1228 21:15:23.821223  8417 net.cpp:137] Memory required for data: 2324480
I1228 21:15:23.821244  8417 layer_factory.hpp:77] Creating layer inception_3b_pool
I1228 21:15:23.821249  8417 net.cpp:84] Creating Layer inception_3b_pool
I1228 21:15:23.821250  8417 net.cpp:406] inception_3b_pool <- inception_3a_output_inception_3a_output_0_split_2
I1228 21:15:23.821272  8417 net.cpp:380] inception_3b_pool -> inception_3b_pool
I1228 21:15:23.821305  8417 net.cpp:122] Setting up inception_3b_pool
I1228 21:15:23.821308  8417 net.cpp:129] Top shape: 1 384 4 13 (19968)
I1228 21:15:23.821323  8417 net.cpp:137] Memory required for data: 2404352
I1228 21:15:23.821326  8417 layer_factory.hpp:77] Creating layer inception_3b_pool_proj
I1228 21:15:23.821331  8417 net.cpp:84] Creating Layer inception_3b_pool_proj
I1228 21:15:23.821334  8417 net.cpp:406] inception_3b_pool_proj <- inception_3b_pool
I1228 21:15:23.821338  8417 net.cpp:380] inception_3b_pool_proj -> inception_3b_pool_proj
I1228 21:15:23.822408  8417 net.cpp:122] Setting up inception_3b_pool_proj
I1228 21:15:23.822417  8417 net.cpp:129] Top shape: 1 32 4 13 (1664)
I1228 21:15:23.822419  8417 net.cpp:137] Memory required for data: 2411008
I1228 21:15:23.822423  8417 layer_factory.hpp:77] Creating layer inception_3b_pool_proj_bn
I1228 21:15:23.822427  8417 net.cpp:84] Creating Layer inception_3b_pool_proj_bn
I1228 21:15:23.822429  8417 net.cpp:406] inception_3b_pool_proj_bn <- inception_3b_pool_proj
I1228 21:15:23.822433  8417 net.cpp:367] inception_3b_pool_proj_bn -> inception_3b_pool_proj (in-place)
I1228 21:15:23.822633  8417 net.cpp:122] Setting up inception_3b_pool_proj_bn
I1228 21:15:23.822636  8417 net.cpp:129] Top shape: 1 32 4 13 (1664)
I1228 21:15:23.822638  8417 net.cpp:137] Memory required for data: 2417664
I1228 21:15:23.822660  8417 layer_factory.hpp:77] Creating layer inception_3b_relu_pool_proj
I1228 21:15:23.822665  8417 net.cpp:84] Creating Layer inception_3b_relu_pool_proj
I1228 21:15:23.822667  8417 net.cpp:406] inception_3b_relu_pool_proj <- inception_3b_pool_proj
I1228 21:15:23.822685  8417 net.cpp:367] inception_3b_relu_pool_proj -> inception_3b_pool_proj (in-place)
I1228 21:15:23.822935  8417 net.cpp:122] Setting up inception_3b_relu_pool_proj
I1228 21:15:23.822955  8417 net.cpp:129] Top shape: 1 32 4 13 (1664)
I1228 21:15:23.822957  8417 net.cpp:137] Memory required for data: 2424320
I1228 21:15:23.822960  8417 layer_factory.hpp:77] Creating layer inception_3b_output
I1228 21:15:23.822971  8417 net.cpp:84] Creating Layer inception_3b_output
I1228 21:15:23.822973  8417 net.cpp:406] inception_3b_output <- inception_3b_1x1
I1228 21:15:23.822976  8417 net.cpp:406] inception_3b_output <- inception_3b_3x3
I1228 21:15:23.822978  8417 net.cpp:406] inception_3b_output <- inception_3b_pool_proj
I1228 21:15:23.822983  8417 net.cpp:380] inception_3b_output -> inception_3b_output
I1228 21:15:23.823015  8417 net.cpp:122] Setting up inception_3b_output
I1228 21:15:23.823032  8417 net.cpp:129] Top shape: 1 256 4 13 (13312)
I1228 21:15:23.823034  8417 net.cpp:137] Memory required for data: 2477568
I1228 21:15:23.823035  8417 layer_factory.hpp:77] Creating layer inception_3b_output_proj
I1228 21:15:23.823043  8417 net.cpp:84] Creating Layer inception_3b_output_proj
I1228 21:15:23.823045  8417 net.cpp:406] inception_3b_output_proj <- inception_3b_output
I1228 21:15:23.823048  8417 net.cpp:380] inception_3b_output_proj -> inception_3b_output_proj
I1228 21:15:23.824450  8417 net.cpp:122] Setting up inception_3b_output_proj
I1228 21:15:23.824460  8417 net.cpp:129] Top shape: 1 384 4 13 (19968)
I1228 21:15:23.824461  8417 net.cpp:137] Memory required for data: 2557440
I1228 21:15:23.824465  8417 layer_factory.hpp:77] Creating layer inception_3b_output_sum
I1228 21:15:23.824470  8417 net.cpp:84] Creating Layer inception_3b_output_sum
I1228 21:15:23.824472  8417 net.cpp:406] inception_3b_output_sum <- inception_3b_output_proj
I1228 21:15:23.824476  8417 net.cpp:406] inception_3b_output_sum <- inception_3a_output_inception_3a_output_0_split_3
I1228 21:15:23.824479  8417 net.cpp:380] inception_3b_output_sum -> inception_3b_output_sum
I1228 21:15:23.824535  8417 net.cpp:122] Setting up inception_3b_output_sum
I1228 21:15:23.824539  8417 net.cpp:129] Top shape: 1 384 4 13 (19968)
I1228 21:15:23.824542  8417 net.cpp:137] Memory required for data: 2637312
I1228 21:15:23.824543  8417 layer_factory.hpp:77] Creating layer inception_3b_output_sum_inception_3b_output_sum_0_split
I1228 21:15:23.824546  8417 net.cpp:84] Creating Layer inception_3b_output_sum_inception_3b_output_sum_0_split
I1228 21:15:23.824548  8417 net.cpp:406] inception_3b_output_sum_inception_3b_output_sum_0_split <- inception_3b_output_sum
I1228 21:15:23.824565  8417 net.cpp:380] inception_3b_output_sum_inception_3b_output_sum_0_split -> inception_3b_output_sum_inception_3b_output_sum_0_split_0
I1228 21:15:23.824570  8417 net.cpp:380] inception_3b_output_sum_inception_3b_output_sum_0_split -> inception_3b_output_sum_inception_3b_output_sum_0_split_1
I1228 21:15:23.824573  8417 net.cpp:380] inception_3b_output_sum_inception_3b_output_sum_0_split -> inception_3b_output_sum_inception_3b_output_sum_0_split_2
I1228 21:15:23.824579  8417 net.cpp:380] inception_3b_output_sum_inception_3b_output_sum_0_split -> inception_3b_output_sum_inception_3b_output_sum_0_split_3
I1228 21:15:23.824650  8417 net.cpp:122] Setting up inception_3b_output_sum_inception_3b_output_sum_0_split
I1228 21:15:23.824653  8417 net.cpp:129] Top shape: 1 384 4 13 (19968)
I1228 21:15:23.824656  8417 net.cpp:129] Top shape: 1 384 4 13 (19968)
I1228 21:15:23.824658  8417 net.cpp:129] Top shape: 1 384 4 13 (19968)
I1228 21:15:23.824661  8417 net.cpp:129] Top shape: 1 384 4 13 (19968)
I1228 21:15:23.824676  8417 net.cpp:137] Memory required for data: 2956800
I1228 21:15:23.824677  8417 layer_factory.hpp:77] Creating layer inception_3c_1x1
I1228 21:15:23.824686  8417 net.cpp:84] Creating Layer inception_3c_1x1
I1228 21:15:23.824687  8417 net.cpp:406] inception_3c_1x1 <- inception_3b_output_sum_inception_3b_output_sum_0_split_0
I1228 21:15:23.824692  8417 net.cpp:380] inception_3c_1x1 -> inception_3c_1x1
I1228 21:15:23.825697  8417 net.cpp:122] Setting up inception_3c_1x1
I1228 21:15:23.825706  8417 net.cpp:129] Top shape: 1 64 4 13 (3328)
I1228 21:15:23.825721  8417 net.cpp:137] Memory required for data: 2970112
I1228 21:15:23.825726  8417 layer_factory.hpp:77] Creating layer inception_3c_1x1_bn
I1228 21:15:23.825731  8417 net.cpp:84] Creating Layer inception_3c_1x1_bn
I1228 21:15:23.825732  8417 net.cpp:406] inception_3c_1x1_bn <- inception_3c_1x1
I1228 21:15:23.825754  8417 net.cpp:367] inception_3c_1x1_bn -> inception_3c_1x1 (in-place)
I1228 21:15:23.825983  8417 net.cpp:122] Setting up inception_3c_1x1_bn
I1228 21:15:23.825986  8417 net.cpp:129] Top shape: 1 64 4 13 (3328)
I1228 21:15:23.825989  8417 net.cpp:137] Memory required for data: 2983424
I1228 21:15:23.825991  8417 layer_factory.hpp:77] Creating layer inception_3c_relu_1x1
I1228 21:15:23.825996  8417 net.cpp:84] Creating Layer inception_3c_relu_1x1
I1228 21:15:23.826016  8417 net.cpp:406] inception_3c_relu_1x1 <- inception_3c_1x1
I1228 21:15:23.826020  8417 net.cpp:367] inception_3c_relu_1x1 -> inception_3c_1x1 (in-place)
I1228 21:15:23.826161  8417 net.cpp:122] Setting up inception_3c_relu_1x1
I1228 21:15:23.826167  8417 net.cpp:129] Top shape: 1 64 4 13 (3328)
I1228 21:15:23.826169  8417 net.cpp:137] Memory required for data: 2996736
I1228 21:15:23.826171  8417 layer_factory.hpp:77] Creating layer inception_3c_3x3_reduce
I1228 21:15:23.826177  8417 net.cpp:84] Creating Layer inception_3c_3x3_reduce
I1228 21:15:23.826198  8417 net.cpp:406] inception_3c_3x3_reduce <- inception_3b_output_sum_inception_3b_output_sum_0_split_1
I1228 21:15:23.826203  8417 net.cpp:380] inception_3c_3x3_reduce -> inception_3c_3x3_reduce
I1228 21:15:23.827244  8417 net.cpp:122] Setting up inception_3c_3x3_reduce
I1228 21:15:23.827253  8417 net.cpp:129] Top shape: 1 96 4 13 (4992)
I1228 21:15:23.827255  8417 net.cpp:137] Memory required for data: 3016704
I1228 21:15:23.827260  8417 layer_factory.hpp:77] Creating layer inception_3c_3x3_reduce_bn
I1228 21:15:23.827263  8417 net.cpp:84] Creating Layer inception_3c_3x3_reduce_bn
I1228 21:15:23.827266  8417 net.cpp:406] inception_3c_3x3_reduce_bn <- inception_3c_3x3_reduce
I1228 21:15:23.827270  8417 net.cpp:367] inception_3c_3x3_reduce_bn -> inception_3c_3x3_reduce (in-place)
I1228 21:15:23.827479  8417 net.cpp:122] Setting up inception_3c_3x3_reduce_bn
I1228 21:15:23.827483  8417 net.cpp:129] Top shape: 1 96 4 13 (4992)
I1228 21:15:23.827486  8417 net.cpp:137] Memory required for data: 3036672
I1228 21:15:23.827507  8417 layer_factory.hpp:77] Creating layer inception_3c_relu_3x3_reduce
I1228 21:15:23.827510  8417 net.cpp:84] Creating Layer inception_3c_relu_3x3_reduce
I1228 21:15:23.827512  8417 net.cpp:406] inception_3c_relu_3x3_reduce <- inception_3c_3x3_reduce
I1228 21:15:23.827534  8417 net.cpp:367] inception_3c_relu_3x3_reduce -> inception_3c_3x3_reduce (in-place)
I1228 21:15:23.827703  8417 net.cpp:122] Setting up inception_3c_relu_3x3_reduce
I1228 21:15:23.827708  8417 net.cpp:129] Top shape: 1 96 4 13 (4992)
I1228 21:15:23.827711  8417 net.cpp:137] Memory required for data: 3056640
I1228 21:15:23.827713  8417 layer_factory.hpp:77] Creating layer inception_3c_3x3
I1228 21:15:23.827733  8417 net.cpp:84] Creating Layer inception_3c_3x3
I1228 21:15:23.827735  8417 net.cpp:406] inception_3c_3x3 <- inception_3c_3x3_reduce
I1228 21:15:23.827739  8417 net.cpp:380] inception_3c_3x3 -> inception_3c_3x3
I1228 21:15:23.830839  8417 net.cpp:122] Setting up inception_3c_3x3
I1228 21:15:23.830855  8417 net.cpp:129] Top shape: 1 160 4 13 (8320)
I1228 21:15:23.830857  8417 net.cpp:137] Memory required for data: 3089920
I1228 21:15:23.830864  8417 layer_factory.hpp:77] Creating layer inception_3c_3x3_bn
I1228 21:15:23.830871  8417 net.cpp:84] Creating Layer inception_3c_3x3_bn
I1228 21:15:23.830875  8417 net.cpp:406] inception_3c_3x3_bn <- inception_3c_3x3
I1228 21:15:23.830880  8417 net.cpp:367] inception_3c_3x3_bn -> inception_3c_3x3 (in-place)
I1228 21:15:23.831105  8417 net.cpp:122] Setting up inception_3c_3x3_bn
I1228 21:15:23.831110  8417 net.cpp:129] Top shape: 1 160 4 13 (8320)
I1228 21:15:23.831112  8417 net.cpp:137] Memory required for data: 3123200
I1228 21:15:23.831130  8417 layer_factory.hpp:77] Creating layer inception_3c_relu_3x3
I1228 21:15:23.831135  8417 net.cpp:84] Creating Layer inception_3c_relu_3x3
I1228 21:15:23.831137  8417 net.cpp:406] inception_3c_relu_3x3 <- inception_3c_3x3
I1228 21:15:23.831140  8417 net.cpp:367] inception_3c_relu_3x3 -> inception_3c_3x3 (in-place)
I1228 21:15:23.831281  8417 net.cpp:122] Setting up inception_3c_relu_3x3
I1228 21:15:23.831288  8417 net.cpp:129] Top shape: 1 160 4 13 (8320)
I1228 21:15:23.831290  8417 net.cpp:137] Memory required for data: 3156480
I1228 21:15:23.831291  8417 layer_factory.hpp:77] Creating layer inception_3c_pool
I1228 21:15:23.831296  8417 net.cpp:84] Creating Layer inception_3c_pool
I1228 21:15:23.831300  8417 net.cpp:406] inception_3c_pool <- inception_3b_output_sum_inception_3b_output_sum_0_split_2
I1228 21:15:23.831303  8417 net.cpp:380] inception_3c_pool -> inception_3c_pool
I1228 21:15:23.831351  8417 net.cpp:122] Setting up inception_3c_pool
I1228 21:15:23.831354  8417 net.cpp:129] Top shape: 1 384 4 13 (19968)
I1228 21:15:23.831356  8417 net.cpp:137] Memory required for data: 3236352
I1228 21:15:23.831370  8417 layer_factory.hpp:77] Creating layer inception_3c_pool_proj
I1228 21:15:23.831378  8417 net.cpp:84] Creating Layer inception_3c_pool_proj
I1228 21:15:23.831382  8417 net.cpp:406] inception_3c_pool_proj <- inception_3c_pool
I1228 21:15:23.831385  8417 net.cpp:380] inception_3c_pool_proj -> inception_3c_pool_proj
I1228 21:15:23.833240  8417 net.cpp:122] Setting up inception_3c_pool_proj
I1228 21:15:23.833250  8417 net.cpp:129] Top shape: 1 32 4 13 (1664)
I1228 21:15:23.833252  8417 net.cpp:137] Memory required for data: 3243008
I1228 21:15:23.833257  8417 layer_factory.hpp:77] Creating layer inception_3c_pool_proj_bn
I1228 21:15:23.833264  8417 net.cpp:84] Creating Layer inception_3c_pool_proj_bn
I1228 21:15:23.833267  8417 net.cpp:406] inception_3c_pool_proj_bn <- inception_3c_pool_proj
I1228 21:15:23.833271  8417 net.cpp:367] inception_3c_pool_proj_bn -> inception_3c_pool_proj (in-place)
I1228 21:15:23.833464  8417 net.cpp:122] Setting up inception_3c_pool_proj_bn
I1228 21:15:23.833485  8417 net.cpp:129] Top shape: 1 32 4 13 (1664)
I1228 21:15:23.833487  8417 net.cpp:137] Memory required for data: 3249664
I1228 21:15:23.833492  8417 layer_factory.hpp:77] Creating layer inception_3c_relu_pool_proj
I1228 21:15:23.833497  8417 net.cpp:84] Creating Layer inception_3c_relu_pool_proj
I1228 21:15:23.833498  8417 net.cpp:406] inception_3c_relu_pool_proj <- inception_3c_pool_proj
I1228 21:15:23.833503  8417 net.cpp:367] inception_3c_relu_pool_proj -> inception_3c_pool_proj (in-place)
I1228 21:15:23.834102  8417 net.cpp:122] Setting up inception_3c_relu_pool_proj
I1228 21:15:23.834116  8417 net.cpp:129] Top shape: 1 32 4 13 (1664)
I1228 21:15:23.834120  8417 net.cpp:137] Memory required for data: 3256320
I1228 21:15:23.834141  8417 layer_factory.hpp:77] Creating layer inception_3c_output
I1228 21:15:23.834152  8417 net.cpp:84] Creating Layer inception_3c_output
I1228 21:15:23.834156  8417 net.cpp:406] inception_3c_output <- inception_3c_1x1
I1228 21:15:23.834159  8417 net.cpp:406] inception_3c_output <- inception_3c_3x3
I1228 21:15:23.834162  8417 net.cpp:406] inception_3c_output <- inception_3c_pool_proj
I1228 21:15:23.834178  8417 net.cpp:380] inception_3c_output -> inception_3c_output
I1228 21:15:23.834233  8417 net.cpp:122] Setting up inception_3c_output
I1228 21:15:23.834242  8417 net.cpp:129] Top shape: 1 256 4 13 (13312)
I1228 21:15:23.834245  8417 net.cpp:137] Memory required for data: 3309568
I1228 21:15:23.834249  8417 layer_factory.hpp:77] Creating layer inception_3c_output_proj
I1228 21:15:23.834260  8417 net.cpp:84] Creating Layer inception_3c_output_proj
I1228 21:15:23.834264  8417 net.cpp:406] inception_3c_output_proj <- inception_3c_output
I1228 21:15:23.834270  8417 net.cpp:380] inception_3c_output_proj -> inception_3c_output_proj
I1228 21:15:23.835489  8417 net.cpp:122] Setting up inception_3c_output_proj
I1228 21:15:23.835505  8417 net.cpp:129] Top shape: 1 384 4 13 (19968)
I1228 21:15:23.835506  8417 net.cpp:137] Memory required for data: 3389440
I1228 21:15:23.835513  8417 layer_factory.hpp:77] Creating layer inception_3c_output_sum
I1228 21:15:23.835520  8417 net.cpp:84] Creating Layer inception_3c_output_sum
I1228 21:15:23.835525  8417 net.cpp:406] inception_3c_output_sum <- inception_3c_output_proj
I1228 21:15:23.835527  8417 net.cpp:406] inception_3c_output_sum <- inception_3b_output_sum_inception_3b_output_sum_0_split_3
I1228 21:15:23.835531  8417 net.cpp:380] inception_3c_output_sum -> inception_3c_output_sum
I1228 21:15:23.835556  8417 net.cpp:122] Setting up inception_3c_output_sum
I1228 21:15:23.835561  8417 net.cpp:129] Top shape: 1 384 4 13 (19968)
I1228 21:15:23.835561  8417 net.cpp:137] Memory required for data: 3469312
I1228 21:15:23.835563  8417 layer_factory.hpp:77] Creating layer pool5_ave
I1228 21:15:23.835568  8417 net.cpp:84] Creating Layer pool5_ave
I1228 21:15:23.835571  8417 net.cpp:406] pool5_ave <- inception_3c_output_sum
I1228 21:15:23.835573  8417 net.cpp:380] pool5_ave -> pool5_ave
I1228 21:15:23.836076  8417 net.cpp:122] Setting up pool5_ave
I1228 21:15:23.836086  8417 net.cpp:129] Top shape: 1 384 1 13 (4992)
I1228 21:15:23.836088  8417 net.cpp:137] Memory required for data: 3489280
I1228 21:15:23.836091  8417 layer_factory.hpp:77] Creating layer pool5_ave_transpose
I1228 21:15:23.836123  8417 net.cpp:84] Creating Layer pool5_ave_transpose
I1228 21:15:23.836127  8417 net.cpp:406] pool5_ave_transpose <- pool5_ave
I1228 21:15:23.836130  8417 net.cpp:380] pool5_ave_transpose -> pool5_ave_transpose
I1228 21:15:23.836241  8417 net.cpp:122] Setting up pool5_ave_transpose
I1228 21:15:23.836246  8417 net.cpp:129] Top shape: 13 1 1 384 (4992)
I1228 21:15:23.836246  8417 net.cpp:137] Memory required for data: 3509248
I1228 21:15:23.836248  8417 layer_factory.hpp:77] Creating layer blstm_input
I1228 21:15:23.836253  8417 net.cpp:84] Creating Layer blstm_input
I1228 21:15:23.836256  8417 net.cpp:406] blstm_input <- pool5_ave_transpose
I1228 21:15:23.836259  8417 net.cpp:380] blstm_input -> blstm_input
I1228 21:15:23.836282  8417 net.cpp:122] Setting up blstm_input
I1228 21:15:23.836285  8417 net.cpp:129] Top shape: 13 1 384 (4992)
I1228 21:15:23.836287  8417 net.cpp:137] Memory required for data: 3529216
I1228 21:15:23.836288  8417 layer_factory.hpp:77] Creating layer blstm_input_blstm_input_0_split
I1228 21:15:23.836292  8417 net.cpp:84] Creating Layer blstm_input_blstm_input_0_split
I1228 21:15:23.836293  8417 net.cpp:406] blstm_input_blstm_input_0_split <- blstm_input
I1228 21:15:23.836297  8417 net.cpp:380] blstm_input_blstm_input_0_split -> blstm_input_blstm_input_0_split_0
I1228 21:15:23.836300  8417 net.cpp:380] blstm_input_blstm_input_0_split -> blstm_input_blstm_input_0_split_1
I1228 21:15:23.836328  8417 net.cpp:122] Setting up blstm_input_blstm_input_0_split
I1228 21:15:23.836330  8417 net.cpp:129] Top shape: 13 1 384 (4992)
I1228 21:15:23.836333  8417 net.cpp:129] Top shape: 13 1 384 (4992)
I1228 21:15:23.836334  8417 net.cpp:137] Memory required for data: 3569152
I1228 21:15:23.836336  8417 layer_factory.hpp:77] Creating layer lstm1
I1228 21:15:23.836340  8417 net.cpp:84] Creating Layer lstm1
I1228 21:15:23.836343  8417 net.cpp:406] lstm1 <- blstm_input_blstm_input_0_split_0
I1228 21:15:23.836347  8417 net.cpp:380] lstm1 -> lstm1
I1228 21:15:23.844655  8417 net.cpp:122] Setting up lstm1
I1228 21:15:23.844676  8417 net.cpp:129] Top shape: 13 1 256 (3328)
I1228 21:15:23.844677  8417 net.cpp:137] Memory required for data: 3582464
I1228 21:15:23.844686  8417 layer_factory.hpp:77] Creating layer lstm1-reverse1
I1228 21:15:23.844697  8417 net.cpp:84] Creating Layer lstm1-reverse1
I1228 21:15:23.844700  8417 net.cpp:406] lstm1-reverse1 <- blstm_input_blstm_input_0_split_1
I1228 21:15:23.844707  8417 net.cpp:380] lstm1-reverse1 -> rlstm1_input
I1228 21:15:23.844740  8417 net.cpp:122] Setting up lstm1-reverse1
I1228 21:15:23.844743  8417 net.cpp:129] Top shape: 13 1 384 (4992)
I1228 21:15:23.844745  8417 net.cpp:137] Memory required for data: 3602432
I1228 21:15:23.844746  8417 layer_factory.hpp:77] Creating layer rlstm1
I1228 21:15:23.844777  8417 net.cpp:84] Creating Layer rlstm1
I1228 21:15:23.844779  8417 net.cpp:406] rlstm1 <- rlstm1_input
I1228 21:15:23.844796  8417 net.cpp:380] rlstm1 -> rlstm1-output
I1228 21:15:23.851083  8417 net.cpp:122] Setting up rlstm1
I1228 21:15:23.851099  8417 net.cpp:129] Top shape: 13 1 256 (3328)
I1228 21:15:23.851100  8417 net.cpp:137] Memory required for data: 3615744
I1228 21:15:23.851107  8417 layer_factory.hpp:77] Creating layer lstm1-reverse2
I1228 21:15:23.851114  8417 net.cpp:84] Creating Layer lstm1-reverse2
I1228 21:15:23.851116  8417 net.cpp:406] lstm1-reverse2 <- rlstm1-output
I1228 21:15:23.851122  8417 net.cpp:380] lstm1-reverse2 -> rlstm1
I1228 21:15:23.851145  8417 net.cpp:122] Setting up lstm1-reverse2
I1228 21:15:23.851147  8417 net.cpp:129] Top shape: 13 1 256 (3328)
I1228 21:15:23.851150  8417 net.cpp:137] Memory required for data: 3629056
I1228 21:15:23.851164  8417 layer_factory.hpp:77] Creating layer blstm1
I1228 21:15:23.851168  8417 net.cpp:84] Creating Layer blstm1
I1228 21:15:23.851171  8417 net.cpp:406] blstm1 <- lstm1
I1228 21:15:23.851191  8417 net.cpp:406] blstm1 <- rlstm1
I1228 21:15:23.851196  8417 net.cpp:380] blstm1 -> blstm1
I1228 21:15:23.851224  8417 net.cpp:122] Setting up blstm1
I1228 21:15:23.851227  8417 net.cpp:129] Top shape: 13 1 512 (6656)
I1228 21:15:23.851228  8417 net.cpp:137] Memory required for data: 3655680
I1228 21:15:23.851230  8417 layer_factory.hpp:77] Creating layer blstm1_blstm1_0_split
I1228 21:15:23.851235  8417 net.cpp:84] Creating Layer blstm1_blstm1_0_split
I1228 21:15:23.851238  8417 net.cpp:406] blstm1_blstm1_0_split <- blstm1
I1228 21:15:23.851240  8417 net.cpp:380] blstm1_blstm1_0_split -> blstm1_blstm1_0_split_0
I1228 21:15:23.851245  8417 net.cpp:380] blstm1_blstm1_0_split -> blstm1_blstm1_0_split_1
I1228 21:15:23.851263  8417 net.cpp:380] blstm1_blstm1_0_split -> blstm1_blstm1_0_split_2
I1228 21:15:23.851342  8417 net.cpp:122] Setting up blstm1_blstm1_0_split
I1228 21:15:23.851346  8417 net.cpp:129] Top shape: 13 1 512 (6656)
I1228 21:15:23.851348  8417 net.cpp:129] Top shape: 13 1 512 (6656)
I1228 21:15:23.851368  8417 net.cpp:129] Top shape: 13 1 512 (6656)
I1228 21:15:23.851371  8417 net.cpp:137] Memory required for data: 3735552
I1228 21:15:23.851372  8417 layer_factory.hpp:77] Creating layer lstm2
I1228 21:15:23.851377  8417 net.cpp:84] Creating Layer lstm2
I1228 21:15:23.851397  8417 net.cpp:406] lstm2 <- blstm1_blstm1_0_split_0
I1228 21:15:23.851408  8417 net.cpp:380] lstm2 -> lstm2
I1228 21:15:23.858119  8417 net.cpp:122] Setting up lstm2
I1228 21:15:23.858134  8417 net.cpp:129] Top shape: 13 1 256 (3328)
I1228 21:15:23.858135  8417 net.cpp:137] Memory required for data: 3748864
I1228 21:15:23.858141  8417 layer_factory.hpp:77] Creating layer lstm2-reverse1
I1228 21:15:23.858148  8417 net.cpp:84] Creating Layer lstm2-reverse1
I1228 21:15:23.858151  8417 net.cpp:406] lstm2-reverse1 <- blstm1_blstm1_0_split_1
I1228 21:15:23.858156  8417 net.cpp:380] lstm2-reverse1 -> rlstm2_input
I1228 21:15:23.858178  8417 net.cpp:122] Setting up lstm2-reverse1
I1228 21:15:23.858181  8417 net.cpp:129] Top shape: 13 1 512 (6656)
I1228 21:15:23.858201  8417 net.cpp:137] Memory required for data: 3775488
I1228 21:15:23.858203  8417 layer_factory.hpp:77] Creating layer rlstm2
I1228 21:15:23.858208  8417 net.cpp:84] Creating Layer rlstm2
I1228 21:15:23.858229  8417 net.cpp:406] rlstm2 <- rlstm2_input
I1228 21:15:23.858235  8417 net.cpp:380] rlstm2 -> rlstm2-output
I1228 21:15:23.865772  8417 net.cpp:122] Setting up rlstm2
I1228 21:15:23.865789  8417 net.cpp:129] Top shape: 13 1 256 (3328)
I1228 21:15:23.865810  8417 net.cpp:137] Memory required for data: 3788800
I1228 21:15:23.865818  8417 layer_factory.hpp:77] Creating layer lstm2-reverse2
I1228 21:15:23.865828  8417 net.cpp:84] Creating Layer lstm2-reverse2
I1228 21:15:23.865833  8417 net.cpp:406] lstm2-reverse2 <- rlstm2-output
I1228 21:15:23.865840  8417 net.cpp:380] lstm2-reverse2 -> rlstm2
I1228 21:15:23.865918  8417 net.cpp:122] Setting up lstm2-reverse2
I1228 21:15:23.865934  8417 net.cpp:129] Top shape: 13 1 256 (3328)
I1228 21:15:23.865936  8417 net.cpp:137] Memory required for data: 3802112
I1228 21:15:23.865937  8417 layer_factory.hpp:77] Creating layer blstm2
I1228 21:15:23.865944  8417 net.cpp:84] Creating Layer blstm2
I1228 21:15:23.865947  8417 net.cpp:406] blstm2 <- lstm2
I1228 21:15:23.865950  8417 net.cpp:406] blstm2 <- rlstm2
I1228 21:15:23.865953  8417 net.cpp:380] blstm2 -> blstm2
I1228 21:15:23.865975  8417 net.cpp:122] Setting up blstm2
I1228 21:15:23.865978  8417 net.cpp:129] Top shape: 13 1 512 (6656)
I1228 21:15:23.865979  8417 net.cpp:137] Memory required for data: 3828736
I1228 21:15:23.865981  8417 layer_factory.hpp:77] Creating layer blstm_sum
I1228 21:15:23.865986  8417 net.cpp:84] Creating Layer blstm_sum
I1228 21:15:23.865988  8417 net.cpp:406] blstm_sum <- blstm1_blstm1_0_split_2
I1228 21:15:23.865991  8417 net.cpp:406] blstm_sum <- blstm2
I1228 21:15:23.865994  8417 net.cpp:380] blstm_sum -> blstm_sum
I1228 21:15:23.866013  8417 net.cpp:122] Setting up blstm_sum
I1228 21:15:23.866015  8417 net.cpp:129] Top shape: 13 1 512 (6656)
I1228 21:15:23.866017  8417 net.cpp:137] Memory required for data: 3855360
I1228 21:15:23.866019  8417 layer_factory.hpp:77] Creating layer fc1x5990
I1228 21:15:23.866036  8417 net.cpp:84] Creating Layer fc1x5990
I1228 21:15:23.866039  8417 net.cpp:406] fc1x5990 <- blstm_sum
I1228 21:15:23.866060  8417 net.cpp:380] fc1x5990 -> fc1x5990
I1228 21:15:23.866257  8417 net.cpp:122] Setting up fc1x5990
I1228 21:15:23.866261  8417 net.cpp:129] Top shape: 13 1 37 (481)
I1228 21:15:23.866263  8417 net.cpp:137] Memory required for data: 3857284
I1228 21:15:23.866284  8417 layer_factory.hpp:77] Creating layer result
I1228 21:15:23.866289  8417 net.cpp:84] Creating Layer result
I1228 21:15:23.866291  8417 net.cpp:406] result <- fc1x5990
I1228 21:15:23.866294  8417 net.cpp:380] result -> result
I1228 21:15:23.866312  8417 net.cpp:122] Setting up result
I1228 21:15:23.866315  8417 net.cpp:129] Top shape: 1 13 1 1 (13)
I1228 21:15:23.866317  8417 net.cpp:137] Memory required for data: 3857336
I1228 21:15:23.866319  8417 net.cpp:200] result does not need backward computation.
I1228 21:15:23.866322  8417 net.cpp:200] fc1x5990 does not need backward computation.
I1228 21:15:23.866323  8417 net.cpp:200] blstm_sum does not need backward computation.
I1228 21:15:23.866338  8417 net.cpp:200] blstm2 does not need backward computation.
…
