…
I1222 15:48:59.189874 21746 upgrade_proto.cpp:67] Attempting to upgrade input file specified using deprecated input fields: /home/duan/caffe/caffe_ocr_for_linux-v2/examples/ocr-duan/inception-bn/pla-1/modules/deploy.prototxt
I1222 15:48:59.189982 21746 upgrade_proto.cpp:70] Successfully upgraded file specified using deprecated input fields.
W1222 15:48:59.189986 21746 upgrade_proto.cpp:72] Note that future Caffe releases will only support input layers and not input fields.
I1222 15:48:59.190516 21746 net.cpp:51] Initializing net from parameters: 
name: "inception_bn"
state {
  phase: TEST
  level: 0
}
layer {
  name: "input"
  type: "Input"
  top: "data"
  input_param {
    shape {
      dim: 1
      dim: 3
      dim: 32
      dim: 100
    }
  }
}
layer {
  name: "conv1_7x7_s2"
  type: "Convolution"
  bottom: "data"
  top: "conv1_7x7_s2"
  param {
    lr_mult: 10
    decay_mult: 1
  }
  param {
    lr_mult: 20
    decay_mult: 0
  }
  convolution_param {
    num_output: 32
    pad: 3
    kernel_size: 7
    stride: 2
    weight_filler {
      type: "xavier"
      std: 1
    }
    bias_filler {
      type: "constant"
      value: 0.2
    }
  }
}
layer {
  name: "conv1_7x7_s2_bn"
  type: "BatchNorm"
  bottom: "conv1_7x7_s2"
  top: "conv1_7x7_s2"
}
layer {
  name: "conv1_7x7_relu"
  type: "ReLU"
  bottom: "conv1_7x7_s2"
  top: "conv1_7x7_s2"
}
layer {
  name: "conv1_9x9_s2"
  type: "Convolution"
  bottom: "data"
  top: "conv1_9x9_s2"
  param {
    lr_mult: 10
    decay_mult: 1
  }
  param {
    lr_mult: 20
    decay_mult: 0
  }
  convolution_param {
    num_output: 32
    pad: 4
    kernel_size: 9
    stride: 2
    weight_filler {
      type: "xavier"
      std: 1
    }
    bias_filler {
      type: "constant"
      value: 0.2
    }
  }
}
layer {
  name: "conv1_9x9_s2_bn"
  type: "BatchNorm"
  bottom: "conv1_9x9_s2"
  top: "conv1_9x9_s2"
}
layer {
  name: "conv1_9x9_relu"
  type: "ReLU"
  bottom: "conv1_9x9_s2"
  top: "conv1_9x9_s2"
}
layer {
  name: "conv1_concat"
  type: "Concat"
  bottom: "conv1_7x7_s2"
  bottom: "conv1_9x9_s2"
  top: "conv1_concat"
}
layer {
  name: "pool1_3x3_s2"
  type: "Pooling"
  bottom: "conv1_concat"
  top: "pool1_3x3_s2"
  pooling_param {
    pool: MAX
    kernel_size: 2
    stride_h: 2
    stride_w: 2
  }
}
layer {
  name: "conv2_3x3"
  type: "Convolution"
  bottom: "pool1_3x3_s2"
  top: "conv2_3x3"
  param {
    lr_mult: 10
    decay_mult: 1
  }
  param {
    lr_mult: 20
    decay_mult: 0
  }
  convolution_param {
    num_output: 128
    pad: 1
    kernel_size: 3
    stride: 1
    weight_filler {
      type: "xavier"
      std: 1
    }
    bias_filler {
      type: "constant"
      value: 0.2
    }
  }
}
layer {
  name: "conv2_3x3_bn"
  type: "BatchNorm"
  bottom: "conv2_3x3"
  top: "conv2_3x3"
}
layer {
  name: "conv2_3x3_relu"
  type: "ReLU"
  bottom: "conv2_3x3"
  top: "conv2_3x3"
}
layer {
  name: "pool2_3x3_s2"
  type: "Pooling"
  bottom: "conv2_3x3"
  top: "pool2_3x3_s2"
  pooling_param {
    pool: MAX
    kernel_h: 2
    kernel_w: 2
    stride_h: 2
    stride_w: 2
  }
}
layer {
  name: "inception_3a_1x1"
  type: "Convolution"
  bottom: "pool2_3x3_s2"
  top: "inception_3a_1x1"
  param {
    lr_mult: 10
    decay_mult: 1
  }
  param {
    lr_mult: 20
    decay_mult: 0
  }
  convolution_param {
    num_output: 96
    pad: 0
    kernel_size: 1
    stride: 1
    weight_filler {
      type: "xavier"
      std: 1
    }
    bias_filler {
      type: "constant"
      value: 0.2
    }
  }
}
layer {
  name: "inception_3a_1x1_bn"
  type: "BatchNorm"
  bottom: "inception_3a_1x1"
  top: "inception_3a_1x1"
}
layer {
  name: "inception_3a_relu_1x1"
  type: "ReLU"
  bottom: "inception_3a_1x1"
  top: "inception_3a_1x1"
}
layer {
  name: "inception_3a_3x3_reduce"
  type: "Convolution"
  bottom: "pool2_3x3_s2"
  top: "inception_3a_3x3_reduce"
  param {
    lr_mult: 10
    decay_mult: 1
  }
  param {
    lr_mult: 20
    decay_mult: 0
  }
  convolution_param {
    num_output: 96
    pad: 0
    kernel_size: 1
    stride: 1
    weight_filler {
      type: "xavier"
      std: 1
    }
    bias_filler {
      type: "constant"
      value: 0.2
    }
  }
}
layer {
  name: "inception_3a_3x3_reduce_bn"
  type: "BatchNorm"
  bottom: "inception_3a_3x3_reduce"
  top: "inception_3a_3x3_reduce"
}
layer {
  name: "inception_3a_relu_3x3_reduce"
  type: "ReLU"
  bottom: "inception_3a_3x3_reduce"
  top: "inception_3a_3x3_reduce"
}
layer {
  name: "inception_3a_3x3"
  type: "Convolution"
  bottom: "inception_3a_3x3_reduce"
  top: "inception_3a_3x3"
  param {
    lr_mult: 10
    decay_mult: 1
  }
  param {
    lr_mult: 20
    decay_mult: 0
  }
  convolution_param {
    num_output: 224
    pad: 1
    kernel_size: 3
    stride: 1
    weight_filler {
      type: "xavier"
      std: 1
    }
    bias_filler {
      type: "constant"
      value: 0.2
    }
  }
}
layer {
  name: "inception_3a_3x3_bn"
  type: "BatchNorm"
  bottom: "inception_3a_3x3"
  top: "inception_3a_3x3"
}
layer {
  name: "inception_3a_relu_3x3"
  type: "ReLU"
  bottom: "inception_3a_3x3"
  top: "inception_3a_3x3"
}
layer {
  name: "inception_3a_pool"
  type: "Pooling"
  bottom: "pool2_3x3_s2"
  top: "inception_3a_pool"
  pooling_param {
    pool: MAX
    kernel_size: 3
    stride: 1
    pad: 1
  }
}
layer {
  name: "inception_3a_pool_proj"
  type: "Convolution"
  bottom: "inception_3a_pool"
  top: "inception_3a_pool_proj"
  param {
    lr_mult: 10
    decay_mult: 1
  }
  param {
    lr_mult: 20
    decay_mult: 0
  }
  convolution_param {
    num_output: 64
    pad: 0
    kernel_size: 1
    stride: 1
    weight_filler {
      type: "xavier"
      std: 1
    }
    bias_filler {
      type: "constant"
      value: 0.2
    }
  }
}
layer {
  name: "inception_3a_pool_proj_bn"
  type: "BatchNorm"
  bottom: "inception_3a_pool_proj"
  top: "inception_3a_pool_proj"
}
layer {
  name: "inception_3a_relu_pool_proj"
  type: "ReLU"
  bottom: "inception_3a_pool_proj"
  top: "inception_3a_pool_proj"
}
layer {
  name: "inception_3a_output"
  type: "Concat"
  bottom: "inception_3a_1x1"
  bottom: "inception_3a_3x3"
  bottom: "inception_3a_pool_proj"
  top: "inception_3a_output"
}
layer {
  name: "inception_3b_1x1"
  type: "Convolution"
  bottom: "inception_3a_output"
  top: "inception_3b_1x1"
  param {
    lr_mult: 10
    decay_mult: 1
  }
  param {
    lr_mult: 20
    decay_mult: 0
  }
  convolution_param {
    num_output: 64
    pad: 0
    kernel_size: 1
    stride: 1
    weight_filler {
      type: "xavier"
      std: 1
    }
    bias_filler {
      type: "constant"
      value: 0.2
    }
  }
}
layer {
  name: "inception_3b_1x1_bn"
  type: "BatchNorm"
  bottom: "inception_3b_1x1"
  top: "inception_3b_1x1"
}
layer {
  name: "inception_3b_relu_1x1"
  type: "ReLU"
  bottom: "inception_3b_1x1"
  top: "inception_3b_1x1"
}
layer {
  name: "inception_3b_3x3_reduce"
  type: "Convolution"
  bottom: "inception_3a_output"
  top: "inception_3b_3x3_reduce"
  param {
    lr_mult: 10
    decay_mult: 1
  }
  param {
    lr_mult: 20
    decay_mult: 0
  }
  convolution_param {
    num_output: 96
    pad: 0
    kernel_size: 1
    stride: 1
    weight_filler {
      type: "xavier"
      std: 1
    }
    bias_filler {
      type: "constant"
      value: 0.2
    }
  }
}
layer {
  name: "inception_3b_3x3_reduce_bn"
  type: "BatchNorm"
  bottom: "inception_3b_3x3_reduce"
  top: "inception_3b_3x3_reduce"
}
layer {
  name: "inception_3b_relu_3x3_reduce"
  type: "ReLU"
  bottom: "inception_3b_3x3_reduce"
  top: "inception_3b_3x3_reduce"
}
layer {
  name: "inception_3b_3x3"
  type: "Convolution"
  bottom: "inception_3b_3x3_reduce"
  top: "inception_3b_3x3"
  param {
    lr_mult: 10
    decay_mult: 1
  }
  param {
    lr_mult: 20
    decay_mult: 0
  }
  convolution_param {
    num_output: 160
    pad: 1
    kernel_size: 3
    stride: 1
    weight_filler {
      type: "xavier"
      std: 1
    }
    bias_filler {
      type: "constant"
      value: 0.2
    }
  }
}
layer {
  name: "inception_3b_3x3_bn"
  type: "BatchNorm"
  bottom: "inception_3b_3x3"
  top: "inception_3b_3x3"
}
layer {
  name: "inception_3b_relu_3x3"
  type: "ReLU"
  bottom: "inception_3b_3x3"
  top: "inception_3b_3x3"
}
layer {
  name: "inception_3b_pool"
  type: "Pooling"
  bottom: "inception_3a_output"
  top: "inception_3b_pool"
  pooling_param {
    pool: MAX
    kernel_size: 3
    stride: 1
    pad: 1
  }
}
layer {
  name: "inception_3b_pool_proj"
  type: "Convolution"
  bottom: "inception_3b_pool"
  top: "inception_3b_pool_proj"
  param {
    lr_mult: 10
    decay_mult: 1
  }
  param {
    lr_mult: 20
    decay_mult: 0
  }
  convolution_param {
    num_output: 32
    pad: 0
    kernel_size: 1
    stride: 1
    weight_filler {
      type: "xavier"
      std: 1
    }
    bias_filler {
      type: "constant"
      value: 0.2
    }
  }
}
layer {
  name: "inception_3b_pool_proj_bn"
  type: "BatchNorm"
  bottom: "inception_3b_pool_proj"
  top: "inception_3b_pool_proj"
}
layer {
  name: "inception_3b_relu_pool_proj"
  type: "ReLU"
  bottom: "inception_3b_pool_proj"
  top: "inception_3b_pool_proj"
}
layer {
  name: "inception_3b_output"
  type: "Concat"
  bottom: "inception_3b_1x1"
  bottom: "inception_3b_3x3"
  bottom: "inception_3b_pool_proj"
  top: "inception_3b_output"
}
layer {
  name: "inception_3b_output_proj"
  type: "Convolution"
  bottom: "inception_3b_output"
  top: "inception_3b_output_proj"
  param {
    lr_mult: 10
    decay_mult: 1
  }
  param {
    lr_mult: 20
    decay_mult: 0
  }
  convolution_param {
    num_output: 384
    pad: 0
    kernel_size: 1
    stride: 1
    weight_filler {
      type: "xavier"
      std: 1
    }
    bias_filler {
      type: "constant"
      value: 0.2
    }
  }
}
layer {
  name: "inception_3b_output_sum"
  type: "Eltwise"
  bottom: "inception_3b_output_proj"
  bottom: "inception_3a_output"
  top: "inception_3b_output_sum"
  eltwise_param {
    operation: SUM
  }
}
layer {
  name: "inception_3c_1x1"
  type: "Convolution"
  bottom: "inception_3b_output_sum"
  top: "inception_3c_1x1"
  param {
    lr_mult: 10
    decay_mult: 1
  }
  param {
    lr_mult: 20
    decay_mult: 0
  }
  convolution_param {
    num_output: 64
    pad: 0
    kernel_size: 1
    stride: 1
    weight_filler {
      type: "xavier"
      std: 1
    }
    bias_filler {
      type: "constant"
      value: 0.2
    }
  }
}
layer {
  name: "inception_3c_1x1_bn"
  type: "BatchNorm"
  bottom: "inception_3c_1x1"
  top: "inception_3c_1x1"
}
layer {
  name: "inception_3c_relu_1x1"
  type: "ReLU"
  bottom: "inception_3c_1x1"
  top: "inception_3c_1x1"
}
layer {
  name: "inception_3c_3x3_reduce"
  type: "Convolution"
  bottom: "inception_3b_output_sum"
  top: "inception_3c_3x3_reduce"
  param {
    lr_mult: 10
    decay_mult: 1
  }
  param {
    lr_mult: 20
    decay_mult: 0
  }
  convolution_param {
    num_output: 96
    pad: 0
    kernel_size: 1
    stride: 1
    weight_filler {
      type: "xavier"
      std: 1
    }
    bias_filler {
      type: "constant"
      value: 0.2
    }
  }
}
layer {
  name: "inception_3c_3x3_reduce_bn"
  type: "BatchNorm"
  bottom: "inception_3c_3x3_reduce"
  top: "inception_3c_3x3_reduce"
}
layer {
  name: "inception_3c_relu_3x3_reduce"
  type: "ReLU"
  bottom: "inception_3c_3x3_reduce"
  top: "inception_3c_3x3_reduce"
}
layer {
  name: "inception_3c_3x3"
  type: "Convolution"
  bottom: "inception_3c_3x3_reduce"
  top: "inception_3c_3x3"
  param {
    lr_mult: 10
    decay_mult: 1
  }
  param {
    lr_mult: 20
    decay_mult: 0
  }
  convolution_param {
    num_output: 160
    pad: 1
    kernel_size: 3
    stride: 1
    weight_filler {
      type: "xavier"
      std: 1
    }
    bias_filler {
      type: "constant"
      value: 0.2
    }
  }
}
layer {
  name: "inception_3c_3x3_bn"
  type: "BatchNorm"
  bottom: "inception_3c_3x3"
  top: "inception_3c_3x3"
}
layer {
  name: "inception_3c_relu_3x3"
  type: "ReLU"
  bottom: "inception_3c_3x3"
  top: "inception_3c_3x3"
}
layer {
  name: "inception_3c_pool"
  type: "Pooling"
  bottom: "inception_3b_output_sum"
  top: "inception_3c_pool"
  pooling_param {
    pool: MAX
    kernel_size: 3
    stride: 1
    pad: 1
  }
}
layer {
  name: "inception_3c_pool_proj"
  type: "Convolution"
  bottom: "inception_3c_pool"
  top: "inception_3c_pool_proj"
  param {
    lr_mult: 10
    decay_mult: 1
  }
  param {
    lr_mult: 20
    decay_mult: 0
  }
  convolution_param {
    num_output: 32
    pad: 0
    kernel_size: 1
    stride: 1
    weight_filler {
      type: "xavier"
      std: 1
    }
    bias_filler {
      type: "constant"
      value: 0.2
    }
  }
}
layer {
  name: "inception_3c_pool_proj_bn"
  type: "BatchNorm"
  bottom: "inception_3c_pool_proj"
  top: "inception_3c_pool_proj"
}
layer {
  name: "inception_3c_relu_pool_proj"
  type: "ReLU"
  bottom: "inception_3c_pool_proj"
  top: "inception_3c_pool_proj"
}
layer {
  name: "inception_3c_output"
  type: "Concat"
  bottom: "inception_3c_1x1"
  bottom: "inception_3c_3x3"
  bottom: "inception_3c_pool_proj"
  top: "inception_3c_output"
}
layer {
  name: "inception_3c_output_proj"
  type: "Convolution"
  bottom: "inception_3c_output"
  top: "inception_3c_output_proj"
  param {
    lr_mult: 10
    decay_mult: 1
  }
  param {
    lr_mult: 20
    decay_mult: 0
  }
  convolution_param {
    num_output: 384
    pad: 0
    kernel_size: 1
    stride: 1
    weight_filler {
      type: "xavier"
      std: 1
    }
    bias_filler {
      type: "constant"
      value: 0.2
    }
  }
}
layer {
  name: "inception_3c_output_sum"
  type: "Eltwise"
  bottom: "inception_3c_output_proj"
  bottom: "inception_3b_output_sum"
  top: "inception_3c_output_sum"
  eltwise_param {
    operation: SUM
  }
}
layer {
  name: "pool5_ave"
  type: "Pooling"
  bottom: "inception_3c_output_sum"
  top: "pool5_ave"
  pooling_param {
    pool: AVE
    kernel_h: 4
    kernel_w: 1
    stride_h: 1
    stride_w: 1
  }
}
layer {
  name: "pool5_ave_transpose"
  type: "Transpose"
  bottom: "pool5_ave"
  top: "pool5_ave_transpose"
  transpose_param {
    dim: 3
    dim: 2
    dim: 0
    dim: 1
  }
}
layer {
  name: "blstm_input"
  type: "Reshape"
  bottom: "pool5_ave_transpose"
  top: "blstm_input"
  reshape_param {
    shape {
      dim: -1
    }
    axis: 1
    num_axes: 2
  }
}
layer {
  name: "lstm1"
  type: "Lstm"
  bottom: "blstm_input"
  top: "lstm1"
  lstm_param {
    num_output: 256
    weight_filler {
      type: "gaussian"
      std: 0.1
    }
    bias_filler {
      type: "constant"
    }
  }
}
layer {
  name: "lstm1-reverse1"
  type: "Reverse"
  bottom: "blstm_input"
  top: "rlstm1_input"
  reverse_param {
    axis: 0
  }
}
layer {
  name: "rlstm1"
  type: "Lstm"
  bottom: "rlstm1_input"
  top: "rlstm1-output"
  lstm_param {
    num_output: 256
    weight_filler {
      type: "gaussian"
      std: 0.1
    }
    bias_filler {
      type: "constant"
    }
  }
}
layer {
  name: "lstm1-reverse2"
  type: "Reverse"
  bottom: "rlstm1-output"
  top: "rlstm1"
  reverse_param {
    axis: 0
  }
}
layer {
  name: "blstm1"
  type: "Concat"
  bottom: "lstm1"
  bottom: "rlstm1"
  top: "blstm1"
  concat_param {
    axis: 2
  }
}
layer {
  name: "lstm2"
  type: "Lstm"
  bottom: "blstm1"
  top: "lstm2"
  lstm_param {
    num_output: 256
    weight_filler {
      type: "gaussian"
      std: 0.1
    }
    bias_filler {
      type: "constant"
    }
  }
}
layer {
  name: "lstm2-reverse1"
  type: "Reverse"
  bottom: "blstm1"
  top: "rlstm2_input"
  reverse_param {
    axis: 0
  }
}
layer {
  name: "rlstm2"
  type: "Lstm"
  bottom: "rlstm2_input"
  top: "rlstm2-output"
  lstm_param {
    num_output: 256
    weight_filler {
      type: "gaussian"
      std: 0.1
    }
    bias_filler {
      type: "constant"
    }
  }
}
layer {
  name: "lstm2-reverse2"
  type: "Reverse"
  bottom: "rlstm2-output"
  top: "rlstm2"
  reverse_param {
    axis: 0
  }
}
layer {
  name: "blstm2"
  type: "Concat"
  bottom: "lstm2"
  bottom: "rlstm2"
  top: "blstm2"
  concat_param {
    axis: 2
  }
}
layer {
  name: "blstm_sum"
  type: "Eltwise"
  bottom: "blstm1"
  bottom: "blstm2"
  top: "blstm_sum"
  eltwise_param {
    operation: SUM
  }
}
layer {
  name: "fc1x5990"
  type: "InnerProduct"
  bottom: "blstm_sum"
  top: "fc1x5990"
  param {
    lr_mult: 1
    decay_mult: 1
  }
  param {
    lr_mult: 2
    decay_mult: 0
  }
  inner_product_param {
    num_output: 37
    weight_filler {
      type: "xavier"
    }
    bias_filler {
      type: "constant"
      value: 0
    }
    axis: 2
  }
}
layer {
  name: "result"
  type: "CTCGreedyDecoder"
  bottom: "fc1x5990"
  top: "result"
}
I1222 15:48:59.190846 21746 layer_factory.hpp:77] Creating layer input
I1222 15:48:59.190857 21746 net.cpp:84] Creating Layer input
I1222 15:48:59.190862 21746 net.cpp:380] input -> data
I1222 15:48:59.205641 21746 net.cpp:122] Setting up input
I1222 15:48:59.205660 21746 net.cpp:129] Top shape: 1 3 32 100 (9600)
I1222 15:48:59.205662 21746 net.cpp:137] Memory required for data: 38400
I1222 15:48:59.205693 21746 layer_factory.hpp:77] Creating layer data_input_0_split
I1222 15:48:59.205705 21746 net.cpp:84] Creating Layer data_input_0_split
I1222 15:48:59.205711 21746 net.cpp:406] data_input_0_split <- data
I1222 15:48:59.205724 21746 net.cpp:380] data_input_0_split -> data_input_0_split_0
I1222 15:48:59.205739 21746 net.cpp:380] data_input_0_split -> data_input_0_split_1
I1222 15:48:59.205799 21746 net.cpp:122] Setting up data_input_0_split
I1222 15:48:59.205802 21746 net.cpp:129] Top shape: 1 3 32 100 (9600)
I1222 15:48:59.205823 21746 net.cpp:129] Top shape: 1 3 32 100 (9600)
I1222 15:48:59.205826 21746 net.cpp:137] Memory required for data: 115200
I1222 15:48:59.205827 21746 layer_factory.hpp:77] Creating layer conv1_7x7_s2
I1222 15:48:59.205845 21746 net.cpp:84] Creating Layer conv1_7x7_s2
I1222 15:48:59.205849 21746 net.cpp:406] conv1_7x7_s2 <- data_input_0_split_0
I1222 15:48:59.205860 21746 net.cpp:380] conv1_7x7_s2 -> conv1_7x7_s2
I1222 15:48:59.364405 21746 net.cpp:122] Setting up conv1_7x7_s2
I1222 15:48:59.364444 21746 net.cpp:129] Top shape: 1 32 16 50 (25600)
I1222 15:48:59.364445 21746 net.cpp:137] Memory required for data: 217600
I1222 15:48:59.364496 21746 layer_factory.hpp:77] Creating layer conv1_7x7_s2_bn
I1222 15:48:59.364526 21746 net.cpp:84] Creating Layer conv1_7x7_s2_bn
I1222 15:48:59.364531 21746 net.cpp:406] conv1_7x7_s2_bn <- conv1_7x7_s2
I1222 15:48:59.364536 21746 net.cpp:367] conv1_7x7_s2_bn -> conv1_7x7_s2 (in-place)
I1222 15:48:59.364751 21746 net.cpp:122] Setting up conv1_7x7_s2_bn
I1222 15:48:59.364756 21746 net.cpp:129] Top shape: 1 32 16 50 (25600)
I1222 15:48:59.364758 21746 net.cpp:137] Memory required for data: 320000
I1222 15:48:59.364764 21746 layer_factory.hpp:77] Creating layer conv1_7x7_relu
I1222 15:48:59.364787 21746 net.cpp:84] Creating Layer conv1_7x7_relu
I1222 15:48:59.364789 21746 net.cpp:406] conv1_7x7_relu <- conv1_7x7_s2
I1222 15:48:59.364792 21746 net.cpp:367] conv1_7x7_relu -> conv1_7x7_s2 (in-place)
I1222 15:48:59.364979 21746 net.cpp:122] Setting up conv1_7x7_relu
I1222 15:48:59.364984 21746 net.cpp:129] Top shape: 1 32 16 50 (25600)
I1222 15:48:59.364986 21746 net.cpp:137] Memory required for data: 422400
I1222 15:48:59.364987 21746 layer_factory.hpp:77] Creating layer conv1_9x9_s2
I1222 15:48:59.365013 21746 net.cpp:84] Creating Layer conv1_9x9_s2
I1222 15:48:59.365015 21746 net.cpp:406] conv1_9x9_s2 <- data_input_0_split_1
I1222 15:48:59.365020 21746 net.cpp:380] conv1_9x9_s2 -> conv1_9x9_s2
I1222 15:48:59.366034 21746 net.cpp:122] Setting up conv1_9x9_s2
I1222 15:48:59.366044 21746 net.cpp:129] Top shape: 1 32 16 50 (25600)
I1222 15:48:59.366063 21746 net.cpp:137] Memory required for data: 524800
I1222 15:48:59.366067 21746 layer_factory.hpp:77] Creating layer conv1_9x9_s2_bn
I1222 15:48:59.366071 21746 net.cpp:84] Creating Layer conv1_9x9_s2_bn
I1222 15:48:59.366073 21746 net.cpp:406] conv1_9x9_s2_bn <- conv1_9x9_s2
I1222 15:48:59.366096 21746 net.cpp:367] conv1_9x9_s2_bn -> conv1_9x9_s2 (in-place)
I1222 15:48:59.366268 21746 net.cpp:122] Setting up conv1_9x9_s2_bn
I1222 15:48:59.366272 21746 net.cpp:129] Top shape: 1 32 16 50 (25600)
I1222 15:48:59.366274 21746 net.cpp:137] Memory required for data: 627200
I1222 15:48:59.366279 21746 layer_factory.hpp:77] Creating layer conv1_9x9_relu
I1222 15:48:59.366282 21746 net.cpp:84] Creating Layer conv1_9x9_relu
I1222 15:48:59.366302 21746 net.cpp:406] conv1_9x9_relu <- conv1_9x9_s2
I1222 15:48:59.366304 21746 net.cpp:367] conv1_9x9_relu -> conv1_9x9_s2 (in-place)
I1222 15:48:59.366473 21746 net.cpp:122] Setting up conv1_9x9_relu
I1222 15:48:59.366478 21746 net.cpp:129] Top shape: 1 32 16 50 (25600)
I1222 15:48:59.366480 21746 net.cpp:137] Memory required for data: 729600
I1222 15:48:59.366482 21746 layer_factory.hpp:77] Creating layer conv1_concat
I1222 15:48:59.366487 21746 net.cpp:84] Creating Layer conv1_concat
I1222 15:48:59.366508 21746 net.cpp:406] conv1_concat <- conv1_7x7_s2
I1222 15:48:59.366509 21746 net.cpp:406] conv1_concat <- conv1_9x9_s2
I1222 15:48:59.366513 21746 net.cpp:380] conv1_concat -> conv1_concat
I1222 15:48:59.366549 21746 net.cpp:122] Setting up conv1_concat
I1222 15:48:59.366572 21746 net.cpp:129] Top shape: 1 64 16 50 (51200)
I1222 15:48:59.366575 21746 net.cpp:137] Memory required for data: 934400
I1222 15:48:59.366575 21746 layer_factory.hpp:77] Creating layer pool1_3x3_s2
I1222 15:48:59.366580 21746 net.cpp:84] Creating Layer pool1_3x3_s2
I1222 15:48:59.366600 21746 net.cpp:406] pool1_3x3_s2 <- conv1_concat
I1222 15:48:59.366603 21746 net.cpp:380] pool1_3x3_s2 -> pool1_3x3_s2
I1222 15:48:59.366649 21746 net.cpp:122] Setting up pool1_3x3_s2
I1222 15:48:59.366672 21746 net.cpp:129] Top shape: 1 64 8 25 (12800)
I1222 15:48:59.366674 21746 net.cpp:137] Memory required for data: 985600
I1222 15:48:59.366675 21746 layer_factory.hpp:77] Creating layer conv2_3x3
I1222 15:48:59.366694 21746 net.cpp:84] Creating Layer conv2_3x3
I1222 15:48:59.366696 21746 net.cpp:406] conv2_3x3 <- pool1_3x3_s2
I1222 15:48:59.366699 21746 net.cpp:380] conv2_3x3 -> conv2_3x3
I1222 15:48:59.368976 21746 net.cpp:122] Setting up conv2_3x3
I1222 15:48:59.369011 21746 net.cpp:129] Top shape: 1 128 8 25 (25600)
I1222 15:48:59.369014 21746 net.cpp:137] Memory required for data: 1088000
I1222 15:48:59.369020 21746 layer_factory.hpp:77] Creating layer conv2_3x3_bn
I1222 15:48:59.369045 21746 net.cpp:84] Creating Layer conv2_3x3_bn
I1222 15:48:59.369048 21746 net.cpp:406] conv2_3x3_bn <- conv2_3x3
I1222 15:48:59.369052 21746 net.cpp:367] conv2_3x3_bn -> conv2_3x3 (in-place)
I1222 15:48:59.369207 21746 net.cpp:122] Setting up conv2_3x3_bn
I1222 15:48:59.369212 21746 net.cpp:129] Top shape: 1 128 8 25 (25600)
I1222 15:48:59.369215 21746 net.cpp:137] Memory required for data: 1190400
I1222 15:48:59.369218 21746 layer_factory.hpp:77] Creating layer conv2_3x3_relu
I1222 15:48:59.369222 21746 net.cpp:84] Creating Layer conv2_3x3_relu
I1222 15:48:59.369223 21746 net.cpp:406] conv2_3x3_relu <- conv2_3x3
I1222 15:48:59.369226 21746 net.cpp:367] conv2_3x3_relu -> conv2_3x3 (in-place)
I1222 15:48:59.369727 21746 net.cpp:122] Setting up conv2_3x3_relu
I1222 15:48:59.369735 21746 net.cpp:129] Top shape: 1 128 8 25 (25600)
I1222 15:48:59.369737 21746 net.cpp:137] Memory required for data: 1292800
I1222 15:48:59.369740 21746 layer_factory.hpp:77] Creating layer pool2_3x3_s2
I1222 15:48:59.369745 21746 net.cpp:84] Creating Layer pool2_3x3_s2
I1222 15:48:59.369766 21746 net.cpp:406] pool2_3x3_s2 <- conv2_3x3
I1222 15:48:59.369771 21746 net.cpp:380] pool2_3x3_s2 -> pool2_3x3_s2
I1222 15:48:59.369848 21746 net.cpp:122] Setting up pool2_3x3_s2
I1222 15:48:59.369853 21746 net.cpp:129] Top shape: 1 128 4 13 (6656)
I1222 15:48:59.369854 21746 net.cpp:137] Memory required for data: 1319424
I1222 15:48:59.369855 21746 layer_factory.hpp:77] Creating layer pool2_3x3_s2_pool2_3x3_s2_0_split
I1222 15:48:59.369860 21746 net.cpp:84] Creating Layer pool2_3x3_s2_pool2_3x3_s2_0_split
I1222 15:48:59.369861 21746 net.cpp:406] pool2_3x3_s2_pool2_3x3_s2_0_split <- pool2_3x3_s2
I1222 15:48:59.369864 21746 net.cpp:380] pool2_3x3_s2_pool2_3x3_s2_0_split -> pool2_3x3_s2_pool2_3x3_s2_0_split_0
I1222 15:48:59.369894 21746 net.cpp:380] pool2_3x3_s2_pool2_3x3_s2_0_split -> pool2_3x3_s2_pool2_3x3_s2_0_split_1
I1222 15:48:59.369896 21746 net.cpp:380] pool2_3x3_s2_pool2_3x3_s2_0_split -> pool2_3x3_s2_pool2_3x3_s2_0_split_2
I1222 15:48:59.369928 21746 net.cpp:122] Setting up pool2_3x3_s2_pool2_3x3_s2_0_split
I1222 15:48:59.369946 21746 net.cpp:129] Top shape: 1 128 4 13 (6656)
I1222 15:48:59.369949 21746 net.cpp:129] Top shape: 1 128 4 13 (6656)
I1222 15:48:59.369951 21746 net.cpp:129] Top shape: 1 128 4 13 (6656)
I1222 15:48:59.369952 21746 net.cpp:137] Memory required for data: 1399296
I1222 15:48:59.369954 21746 layer_factory.hpp:77] Creating layer inception_3a_1x1
I1222 15:48:59.369979 21746 net.cpp:84] Creating Layer inception_3a_1x1
I1222 15:48:59.369982 21746 net.cpp:406] inception_3a_1x1 <- pool2_3x3_s2_pool2_3x3_s2_0_split_0
I1222 15:48:59.369987 21746 net.cpp:380] inception_3a_1x1 -> inception_3a_1x1
I1222 15:48:59.371176 21746 net.cpp:122] Setting up inception_3a_1x1
I1222 15:48:59.371204 21746 net.cpp:129] Top shape: 1 96 4 13 (4992)
I1222 15:48:59.371206 21746 net.cpp:137] Memory required for data: 1419264
I1222 15:48:59.371215 21746 layer_factory.hpp:77] Creating layer inception_3a_1x1_bn
I1222 15:48:59.371222 21746 net.cpp:84] Creating Layer inception_3a_1x1_bn
I1222 15:48:59.371224 21746 net.cpp:406] inception_3a_1x1_bn <- inception_3a_1x1
I1222 15:48:59.371228 21746 net.cpp:367] inception_3a_1x1_bn -> inception_3a_1x1 (in-place)
I1222 15:48:59.371387 21746 net.cpp:122] Setting up inception_3a_1x1_bn
I1222 15:48:59.371393 21746 net.cpp:129] Top shape: 1 96 4 13 (4992)
I1222 15:48:59.371395 21746 net.cpp:137] Memory required for data: 1439232
I1222 15:48:59.371399 21746 layer_factory.hpp:77] Creating layer inception_3a_relu_1x1
I1222 15:48:59.371421 21746 net.cpp:84] Creating Layer inception_3a_relu_1x1
I1222 15:48:59.371423 21746 net.cpp:406] inception_3a_relu_1x1 <- inception_3a_1x1
I1222 15:48:59.371426 21746 net.cpp:367] inception_3a_relu_1x1 -> inception_3a_1x1 (in-place)
I1222 15:48:59.371573 21746 net.cpp:122] Setting up inception_3a_relu_1x1
I1222 15:48:59.371578 21746 net.cpp:129] Top shape: 1 96 4 13 (4992)
I1222 15:48:59.371588 21746 net.cpp:137] Memory required for data: 1459200
I1222 15:48:59.371592 21746 layer_factory.hpp:77] Creating layer inception_3a_3x3_reduce
I1222 15:48:59.371603 21746 net.cpp:84] Creating Layer inception_3a_3x3_reduce
I1222 15:48:59.371606 21746 net.cpp:406] inception_3a_3x3_reduce <- pool2_3x3_s2_pool2_3x3_s2_0_split_1
I1222 15:48:59.371613 21746 net.cpp:380] inception_3a_3x3_reduce -> inception_3a_3x3_reduce
I1222 15:48:59.372690 21746 net.cpp:122] Setting up inception_3a_3x3_reduce
I1222 15:48:59.372699 21746 net.cpp:129] Top shape: 1 96 4 13 (4992)
I1222 15:48:59.372700 21746 net.cpp:137] Memory required for data: 1479168
I1222 15:48:59.372705 21746 layer_factory.hpp:77] Creating layer inception_3a_3x3_reduce_bn
I1222 15:48:59.372709 21746 net.cpp:84] Creating Layer inception_3a_3x3_reduce_bn
I1222 15:48:59.372712 21746 net.cpp:406] inception_3a_3x3_reduce_bn <- inception_3a_3x3_reduce
I1222 15:48:59.372715 21746 net.cpp:367] inception_3a_3x3_reduce_bn -> inception_3a_3x3_reduce (in-place)
I1222 15:48:59.372972 21746 net.cpp:122] Setting up inception_3a_3x3_reduce_bn
I1222 15:48:59.372975 21746 net.cpp:129] Top shape: 1 96 4 13 (4992)
I1222 15:48:59.372977 21746 net.cpp:137] Memory required for data: 1499136
I1222 15:48:59.372982 21746 layer_factory.hpp:77] Creating layer inception_3a_relu_3x3_reduce
I1222 15:48:59.373003 21746 net.cpp:84] Creating Layer inception_3a_relu_3x3_reduce
I1222 15:48:59.373005 21746 net.cpp:406] inception_3a_relu_3x3_reduce <- inception_3a_3x3_reduce
I1222 15:48:59.373008 21746 net.cpp:367] inception_3a_relu_3x3_reduce -> inception_3a_3x3_reduce (in-place)
I1222 15:48:59.373173 21746 net.cpp:122] Setting up inception_3a_relu_3x3_reduce
I1222 15:48:59.373179 21746 net.cpp:129] Top shape: 1 96 4 13 (4992)
I1222 15:48:59.373180 21746 net.cpp:137] Memory required for data: 1519104
I1222 15:48:59.373183 21746 layer_factory.hpp:77] Creating layer inception_3a_3x3
I1222 15:48:59.373208 21746 net.cpp:84] Creating Layer inception_3a_3x3
I1222 15:48:59.373209 21746 net.cpp:406] inception_3a_3x3 <- inception_3a_3x3_reduce
I1222 15:48:59.373214 21746 net.cpp:380] inception_3a_3x3 -> inception_3a_3x3
I1222 15:48:59.375334 21746 net.cpp:122] Setting up inception_3a_3x3
I1222 15:48:59.375344 21746 net.cpp:129] Top shape: 1 224 4 13 (11648)
I1222 15:48:59.375365 21746 net.cpp:137] Memory required for data: 1565696
I1222 15:48:59.375370 21746 layer_factory.hpp:77] Creating layer inception_3a_3x3_bn
I1222 15:48:59.375375 21746 net.cpp:84] Creating Layer inception_3a_3x3_bn
I1222 15:48:59.375377 21746 net.cpp:406] inception_3a_3x3_bn <- inception_3a_3x3
I1222 15:48:59.375382 21746 net.cpp:367] inception_3a_3x3_bn -> inception_3a_3x3 (in-place)
I1222 15:48:59.375557 21746 net.cpp:122] Setting up inception_3a_3x3_bn
I1222 15:48:59.375562 21746 net.cpp:129] Top shape: 1 224 4 13 (11648)
I1222 15:48:59.375563 21746 net.cpp:137] Memory required for data: 1612288
I1222 15:48:59.375567 21746 layer_factory.hpp:77] Creating layer inception_3a_relu_3x3
I1222 15:48:59.375571 21746 net.cpp:84] Creating Layer inception_3a_relu_3x3
I1222 15:48:59.375572 21746 net.cpp:406] inception_3a_relu_3x3 <- inception_3a_3x3
I1222 15:48:59.375576 21746 net.cpp:367] inception_3a_relu_3x3 -> inception_3a_3x3 (in-place)
I1222 15:48:59.375753 21746 net.cpp:122] Setting up inception_3a_relu_3x3
I1222 15:48:59.375759 21746 net.cpp:129] Top shape: 1 224 4 13 (11648)
I1222 15:48:59.375761 21746 net.cpp:137] Memory required for data: 1658880
I1222 15:48:59.375763 21746 layer_factory.hpp:77] Creating layer inception_3a_pool
I1222 15:48:59.375767 21746 net.cpp:84] Creating Layer inception_3a_pool
I1222 15:48:59.375769 21746 net.cpp:406] inception_3a_pool <- pool2_3x3_s2_pool2_3x3_s2_0_split_2
I1222 15:48:59.375793 21746 net.cpp:380] inception_3a_pool -> inception_3a_pool
I1222 15:48:59.375836 21746 net.cpp:122] Setting up inception_3a_pool
I1222 15:48:59.375841 21746 net.cpp:129] Top shape: 1 128 4 13 (6656)
I1222 15:48:59.375844 21746 net.cpp:137] Memory required for data: 1685504
I1222 15:48:59.375844 21746 layer_factory.hpp:77] Creating layer inception_3a_pool_proj
I1222 15:48:59.375851 21746 net.cpp:84] Creating Layer inception_3a_pool_proj
I1222 15:48:59.375854 21746 net.cpp:406] inception_3a_pool_proj <- inception_3a_pool
I1222 15:48:59.375876 21746 net.cpp:380] inception_3a_pool_proj -> inception_3a_pool_proj
I1222 15:48:59.376974 21746 net.cpp:122] Setting up inception_3a_pool_proj
I1222 15:48:59.377007 21746 net.cpp:129] Top shape: 1 64 4 13 (3328)
I1222 15:48:59.377008 21746 net.cpp:137] Memory required for data: 1698816
I1222 15:48:59.377015 21746 layer_factory.hpp:77] Creating layer inception_3a_pool_proj_bn
I1222 15:48:59.377020 21746 net.cpp:84] Creating Layer inception_3a_pool_proj_bn
I1222 15:48:59.377023 21746 net.cpp:406] inception_3a_pool_proj_bn <- inception_3a_pool_proj
I1222 15:48:59.377028 21746 net.cpp:367] inception_3a_pool_proj_bn -> inception_3a_pool_proj (in-place)
I1222 15:48:59.377180 21746 net.cpp:122] Setting up inception_3a_pool_proj_bn
I1222 15:48:59.377187 21746 net.cpp:129] Top shape: 1 64 4 13 (3328)
I1222 15:48:59.377189 21746 net.cpp:137] Memory required for data: 1712128
I1222 15:48:59.377198 21746 layer_factory.hpp:77] Creating layer inception_3a_relu_pool_proj
I1222 15:48:59.377203 21746 net.cpp:84] Creating Layer inception_3a_relu_pool_proj
I1222 15:48:59.377205 21746 net.cpp:406] inception_3a_relu_pool_proj <- inception_3a_pool_proj
I1222 15:48:59.377208 21746 net.cpp:367] inception_3a_relu_pool_proj -> inception_3a_pool_proj (in-place)
I1222 15:48:59.377368 21746 net.cpp:122] Setting up inception_3a_relu_pool_proj
I1222 15:48:59.377374 21746 net.cpp:129] Top shape: 1 64 4 13 (3328)
I1222 15:48:59.377377 21746 net.cpp:137] Memory required for data: 1725440
I1222 15:48:59.377378 21746 layer_factory.hpp:77] Creating layer inception_3a_output
I1222 15:48:59.377382 21746 net.cpp:84] Creating Layer inception_3a_output
I1222 15:48:59.377403 21746 net.cpp:406] inception_3a_output <- inception_3a_1x1
I1222 15:48:59.377405 21746 net.cpp:406] inception_3a_output <- inception_3a_3x3
I1222 15:48:59.377408 21746 net.cpp:406] inception_3a_output <- inception_3a_pool_proj
I1222 15:48:59.377413 21746 net.cpp:380] inception_3a_output -> inception_3a_output
I1222 15:48:59.377432 21746 net.cpp:122] Setting up inception_3a_output
I1222 15:48:59.377437 21746 net.cpp:129] Top shape: 1 384 4 13 (19968)
I1222 15:48:59.377439 21746 net.cpp:137] Memory required for data: 1805312
I1222 15:48:59.377440 21746 layer_factory.hpp:77] Creating layer inception_3a_output_inception_3a_output_0_split
I1222 15:48:59.377444 21746 net.cpp:84] Creating Layer inception_3a_output_inception_3a_output_0_split
I1222 15:48:59.377459 21746 net.cpp:406] inception_3a_output_inception_3a_output_0_split <- inception_3a_output
I1222 15:48:59.377463 21746 net.cpp:380] inception_3a_output_inception_3a_output_0_split -> inception_3a_output_inception_3a_output_0_split_0
I1222 15:48:59.377486 21746 net.cpp:380] inception_3a_output_inception_3a_output_0_split -> inception_3a_output_inception_3a_output_0_split_1
I1222 15:48:59.377491 21746 net.cpp:380] inception_3a_output_inception_3a_output_0_split -> inception_3a_output_inception_3a_output_0_split_2
I1222 15:48:59.377496 21746 net.cpp:380] inception_3a_output_inception_3a_output_0_split -> inception_3a_output_inception_3a_output_0_split_3
I1222 15:48:59.377539 21746 net.cpp:122] Setting up inception_3a_output_inception_3a_output_0_split
I1222 15:48:59.377547 21746 net.cpp:129] Top shape: 1 384 4 13 (19968)
I1222 15:48:59.377550 21746 net.cpp:129] Top shape: 1 384 4 13 (19968)
I1222 15:48:59.377554 21746 net.cpp:129] Top shape: 1 384 4 13 (19968)
I1222 15:48:59.377558 21746 net.cpp:129] Top shape: 1 384 4 13 (19968)
I1222 15:48:59.377562 21746 net.cpp:137] Memory required for data: 2124800
I1222 15:48:59.377564 21746 layer_factory.hpp:77] Creating layer inception_3b_1x1
I1222 15:48:59.377574 21746 net.cpp:84] Creating Layer inception_3b_1x1
I1222 15:48:59.377578 21746 net.cpp:406] inception_3b_1x1 <- inception_3a_output_inception_3a_output_0_split_0
I1222 15:48:59.377583 21746 net.cpp:380] inception_3b_1x1 -> inception_3b_1x1
I1222 15:48:59.379506 21746 net.cpp:122] Setting up inception_3b_1x1
I1222 15:48:59.379521 21746 net.cpp:129] Top shape: 1 64 4 13 (3328)
I1222 15:48:59.379523 21746 net.cpp:137] Memory required for data: 2138112
I1222 15:48:59.379530 21746 layer_factory.hpp:77] Creating layer inception_3b_1x1_bn
I1222 15:48:59.379536 21746 net.cpp:84] Creating Layer inception_3b_1x1_bn
I1222 15:48:59.379539 21746 net.cpp:406] inception_3b_1x1_bn <- inception_3b_1x1
I1222 15:48:59.379544 21746 net.cpp:367] inception_3b_1x1_bn -> inception_3b_1x1 (in-place)
I1222 15:48:59.379758 21746 net.cpp:122] Setting up inception_3b_1x1_bn
I1222 15:48:59.379765 21746 net.cpp:129] Top shape: 1 64 4 13 (3328)
I1222 15:48:59.379766 21746 net.cpp:137] Memory required for data: 2151424
I1222 15:48:59.379770 21746 layer_factory.hpp:77] Creating layer inception_3b_relu_1x1
I1222 15:48:59.379776 21746 net.cpp:84] Creating Layer inception_3b_relu_1x1
I1222 15:48:59.379779 21746 net.cpp:406] inception_3b_relu_1x1 <- inception_3b_1x1
I1222 15:48:59.379782 21746 net.cpp:367] inception_3b_relu_1x1 -> inception_3b_1x1 (in-place)
I1222 15:48:59.379950 21746 net.cpp:122] Setting up inception_3b_relu_1x1
I1222 15:48:59.379956 21746 net.cpp:129] Top shape: 1 64 4 13 (3328)
I1222 15:48:59.379957 21746 net.cpp:137] Memory required for data: 2164736
I1222 15:48:59.379959 21746 layer_factory.hpp:77] Creating layer inception_3b_3x3_reduce
I1222 15:48:59.379987 21746 net.cpp:84] Creating Layer inception_3b_3x3_reduce
I1222 15:48:59.379990 21746 net.cpp:406] inception_3b_3x3_reduce <- inception_3a_output_inception_3a_output_0_split_1
I1222 15:48:59.379994 21746 net.cpp:380] inception_3b_3x3_reduce -> inception_3b_3x3_reduce
I1222 15:48:59.381124 21746 net.cpp:122] Setting up inception_3b_3x3_reduce
I1222 15:48:59.381132 21746 net.cpp:129] Top shape: 1 96 4 13 (4992)
I1222 15:48:59.381134 21746 net.cpp:137] Memory required for data: 2184704
I1222 15:48:59.381139 21746 layer_factory.hpp:77] Creating layer inception_3b_3x3_reduce_bn
I1222 15:48:59.381142 21746 net.cpp:84] Creating Layer inception_3b_3x3_reduce_bn
I1222 15:48:59.381145 21746 net.cpp:406] inception_3b_3x3_reduce_bn <- inception_3b_3x3_reduce
I1222 15:48:59.381150 21746 net.cpp:367] inception_3b_3x3_reduce_bn -> inception_3b_3x3_reduce (in-place)
I1222 15:48:59.381353 21746 net.cpp:122] Setting up inception_3b_3x3_reduce_bn
I1222 15:48:59.381357 21746 net.cpp:129] Top shape: 1 96 4 13 (4992)
I1222 15:48:59.381359 21746 net.cpp:137] Memory required for data: 2204672
I1222 15:48:59.381381 21746 layer_factory.hpp:77] Creating layer inception_3b_relu_3x3_reduce
I1222 15:48:59.381384 21746 net.cpp:84] Creating Layer inception_3b_relu_3x3_reduce
I1222 15:48:59.381386 21746 net.cpp:406] inception_3b_relu_3x3_reduce <- inception_3b_3x3_reduce
I1222 15:48:59.381389 21746 net.cpp:367] inception_3b_relu_3x3_reduce -> inception_3b_3x3_reduce (in-place)
I1222 15:48:59.381875 21746 net.cpp:122] Setting up inception_3b_relu_3x3_reduce
I1222 15:48:59.381883 21746 net.cpp:129] Top shape: 1 96 4 13 (4992)
I1222 15:48:59.381904 21746 net.cpp:137] Memory required for data: 2224640
I1222 15:48:59.381906 21746 layer_factory.hpp:77] Creating layer inception_3b_3x3
I1222 15:48:59.381913 21746 net.cpp:84] Creating Layer inception_3b_3x3
I1222 15:48:59.381916 21746 net.cpp:406] inception_3b_3x3 <- inception_3b_3x3_reduce
I1222 15:48:59.381933 21746 net.cpp:380] inception_3b_3x3 -> inception_3b_3x3
I1222 15:48:59.383678 21746 net.cpp:122] Setting up inception_3b_3x3
I1222 15:48:59.383687 21746 net.cpp:129] Top shape: 1 160 4 13 (8320)
I1222 15:48:59.383689 21746 net.cpp:137] Memory required for data: 2257920
I1222 15:48:59.383694 21746 layer_factory.hpp:77] Creating layer inception_3b_3x3_bn
I1222 15:48:59.383700 21746 net.cpp:84] Creating Layer inception_3b_3x3_bn
I1222 15:48:59.383702 21746 net.cpp:406] inception_3b_3x3_bn <- inception_3b_3x3
I1222 15:48:59.383707 21746 net.cpp:367] inception_3b_3x3_bn -> inception_3b_3x3 (in-place)
I1222 15:48:59.383919 21746 net.cpp:122] Setting up inception_3b_3x3_bn
I1222 15:48:59.383924 21746 net.cpp:129] Top shape: 1 160 4 13 (8320)
I1222 15:48:59.383926 21746 net.cpp:137] Memory required for data: 2291200
I1222 15:48:59.383949 21746 layer_factory.hpp:77] Creating layer inception_3b_relu_3x3
I1222 15:48:59.383952 21746 net.cpp:84] Creating Layer inception_3b_relu_3x3
I1222 15:48:59.383955 21746 net.cpp:406] inception_3b_relu_3x3 <- inception_3b_3x3
I1222 15:48:59.383956 21746 net.cpp:367] inception_3b_relu_3x3 -> inception_3b_3x3 (in-place)
I1222 15:48:59.384114 21746 net.cpp:122] Setting up inception_3b_relu_3x3
I1222 15:48:59.384120 21746 net.cpp:129] Top shape: 1 160 4 13 (8320)
I1222 15:48:59.384122 21746 net.cpp:137] Memory required for data: 2324480
I1222 15:48:59.384142 21746 layer_factory.hpp:77] Creating layer inception_3b_pool
I1222 15:48:59.384146 21746 net.cpp:84] Creating Layer inception_3b_pool
I1222 15:48:59.384148 21746 net.cpp:406] inception_3b_pool <- inception_3a_output_inception_3a_output_0_split_2
I1222 15:48:59.384166 21746 net.cpp:380] inception_3b_pool -> inception_3b_pool
I1222 15:48:59.384210 21746 net.cpp:122] Setting up inception_3b_pool
I1222 15:48:59.384214 21746 net.cpp:129] Top shape: 1 384 4 13 (19968)
I1222 15:48:59.384217 21746 net.cpp:137] Memory required for data: 2404352
I1222 15:48:59.384217 21746 layer_factory.hpp:77] Creating layer inception_3b_pool_proj
I1222 15:48:59.384243 21746 net.cpp:84] Creating Layer inception_3b_pool_proj
I1222 15:48:59.384245 21746 net.cpp:406] inception_3b_pool_proj <- inception_3b_pool
I1222 15:48:59.384249 21746 net.cpp:380] inception_3b_pool_proj -> inception_3b_pool_proj
I1222 15:48:59.385239 21746 net.cpp:122] Setting up inception_3b_pool_proj
I1222 15:48:59.385247 21746 net.cpp:129] Top shape: 1 32 4 13 (1664)
I1222 15:48:59.385249 21746 net.cpp:137] Memory required for data: 2411008
I1222 15:48:59.385253 21746 layer_factory.hpp:77] Creating layer inception_3b_pool_proj_bn
I1222 15:48:59.385258 21746 net.cpp:84] Creating Layer inception_3b_pool_proj_bn
I1222 15:48:59.385260 21746 net.cpp:406] inception_3b_pool_proj_bn <- inception_3b_pool_proj
I1222 15:48:59.385264 21746 net.cpp:367] inception_3b_pool_proj_bn -> inception_3b_pool_proj (in-place)
I1222 15:48:59.385462 21746 net.cpp:122] Setting up inception_3b_pool_proj_bn
I1222 15:48:59.385466 21746 net.cpp:129] Top shape: 1 32 4 13 (1664)
I1222 15:48:59.385468 21746 net.cpp:137] Memory required for data: 2417664
I1222 15:48:59.385490 21746 layer_factory.hpp:77] Creating layer inception_3b_relu_pool_proj
I1222 15:48:59.385494 21746 net.cpp:84] Creating Layer inception_3b_relu_pool_proj
I1222 15:48:59.385496 21746 net.cpp:406] inception_3b_relu_pool_proj <- inception_3b_pool_proj
I1222 15:48:59.385499 21746 net.cpp:367] inception_3b_relu_pool_proj -> inception_3b_pool_proj (in-place)
I1222 15:48:59.385679 21746 net.cpp:122] Setting up inception_3b_relu_pool_proj
I1222 15:48:59.385684 21746 net.cpp:129] Top shape: 1 32 4 13 (1664)
I1222 15:48:59.385686 21746 net.cpp:137] Memory required for data: 2424320
I1222 15:48:59.385706 21746 layer_factory.hpp:77] Creating layer inception_3b_output
I1222 15:48:59.385710 21746 net.cpp:84] Creating Layer inception_3b_output
I1222 15:48:59.385713 21746 net.cpp:406] inception_3b_output <- inception_3b_1x1
I1222 15:48:59.385715 21746 net.cpp:406] inception_3b_output <- inception_3b_3x3
I1222 15:48:59.385717 21746 net.cpp:406] inception_3b_output <- inception_3b_pool_proj
I1222 15:48:59.385740 21746 net.cpp:380] inception_3b_output -> inception_3b_output
I1222 15:48:59.385758 21746 net.cpp:122] Setting up inception_3b_output
I1222 15:48:59.385762 21746 net.cpp:129] Top shape: 1 256 4 13 (13312)
I1222 15:48:59.385764 21746 net.cpp:137] Memory required for data: 2477568
I1222 15:48:59.385766 21746 layer_factory.hpp:77] Creating layer inception_3b_output_proj
I1222 15:48:59.385784 21746 net.cpp:84] Creating Layer inception_3b_output_proj
I1222 15:48:59.385787 21746 net.cpp:406] inception_3b_output_proj <- inception_3b_output
I1222 15:48:59.385790 21746 net.cpp:380] inception_3b_output_proj -> inception_3b_output_proj
I1222 15:48:59.387130 21746 net.cpp:122] Setting up inception_3b_output_proj
I1222 15:48:59.387140 21746 net.cpp:129] Top shape: 1 384 4 13 (19968)
I1222 15:48:59.387159 21746 net.cpp:137] Memory required for data: 2557440
I1222 15:48:59.387164 21746 layer_factory.hpp:77] Creating layer inception_3b_output_sum
I1222 15:48:59.387171 21746 net.cpp:84] Creating Layer inception_3b_output_sum
I1222 15:48:59.387187 21746 net.cpp:406] inception_3b_output_sum <- inception_3b_output_proj
I1222 15:48:59.387189 21746 net.cpp:406] inception_3b_output_sum <- inception_3a_output_inception_3a_output_0_split_3
I1222 15:48:59.387194 21746 net.cpp:380] inception_3b_output_sum -> inception_3b_output_sum
I1222 15:48:59.387218 21746 net.cpp:122] Setting up inception_3b_output_sum
I1222 15:48:59.387221 21746 net.cpp:129] Top shape: 1 384 4 13 (19968)
I1222 15:48:59.387223 21746 net.cpp:137] Memory required for data: 2637312
I1222 15:48:59.387225 21746 layer_factory.hpp:77] Creating layer inception_3b_output_sum_inception_3b_output_sum_0_split
I1222 15:48:59.387230 21746 net.cpp:84] Creating Layer inception_3b_output_sum_inception_3b_output_sum_0_split
I1222 15:48:59.387233 21746 net.cpp:406] inception_3b_output_sum_inception_3b_output_sum_0_split <- inception_3b_output_sum
I1222 15:48:59.387236 21746 net.cpp:380] inception_3b_output_sum_inception_3b_output_sum_0_split -> inception_3b_output_sum_inception_3b_output_sum_0_split_0
I1222 15:48:59.387240 21746 net.cpp:380] inception_3b_output_sum_inception_3b_output_sum_0_split -> inception_3b_output_sum_inception_3b_output_sum_0_split_1
I1222 15:48:59.387244 21746 net.cpp:380] inception_3b_output_sum_inception_3b_output_sum_0_split -> inception_3b_output_sum_inception_3b_output_sum_0_split_2
I1222 15:48:59.387250 21746 net.cpp:380] inception_3b_output_sum_inception_3b_output_sum_0_split -> inception_3b_output_sum_inception_3b_output_sum_0_split_3
I1222 15:48:59.387295 21746 net.cpp:122] Setting up inception_3b_output_sum_inception_3b_output_sum_0_split
I1222 15:48:59.387300 21746 net.cpp:129] Top shape: 1 384 4 13 (19968)
I1222 15:48:59.387302 21746 net.cpp:129] Top shape: 1 384 4 13 (19968)
I1222 15:48:59.387305 21746 net.cpp:129] Top shape: 1 384 4 13 (19968)
I1222 15:48:59.387306 21746 net.cpp:129] Top shape: 1 384 4 13 (19968)
I1222 15:48:59.387308 21746 net.cpp:137] Memory required for data: 2956800
I1222 15:48:59.387310 21746 layer_factory.hpp:77] Creating layer inception_3c_1x1
I1222 15:48:59.387316 21746 net.cpp:84] Creating Layer inception_3c_1x1
I1222 15:48:59.387318 21746 net.cpp:406] inception_3c_1x1 <- inception_3b_output_sum_inception_3b_output_sum_0_split_0
I1222 15:48:59.387323 21746 net.cpp:380] inception_3c_1x1 -> inception_3c_1x1
I1222 15:48:59.388361 21746 net.cpp:122] Setting up inception_3c_1x1
I1222 15:48:59.388370 21746 net.cpp:129] Top shape: 1 64 4 13 (3328)
I1222 15:48:59.388372 21746 net.cpp:137] Memory required for data: 2970112
I1222 15:48:59.388396 21746 layer_factory.hpp:77] Creating layer inception_3c_1x1_bn
I1222 15:48:59.388402 21746 net.cpp:84] Creating Layer inception_3c_1x1_bn
I1222 15:48:59.388424 21746 net.cpp:406] inception_3c_1x1_bn <- inception_3c_1x1
I1222 15:48:59.388429 21746 net.cpp:367] inception_3c_1x1_bn -> inception_3c_1x1 (in-place)
I1222 15:48:59.388584 21746 net.cpp:122] Setting up inception_3c_1x1_bn
I1222 15:48:59.388589 21746 net.cpp:129] Top shape: 1 64 4 13 (3328)
I1222 15:48:59.388592 21746 net.cpp:137] Memory required for data: 2983424
I1222 15:48:59.388594 21746 layer_factory.hpp:77] Creating layer inception_3c_relu_1x1
I1222 15:48:59.388617 21746 net.cpp:84] Creating Layer inception_3c_relu_1x1
I1222 15:48:59.388620 21746 net.cpp:406] inception_3c_relu_1x1 <- inception_3c_1x1
I1222 15:48:59.388622 21746 net.cpp:367] inception_3c_relu_1x1 -> inception_3c_1x1 (in-place)
I1222 15:48:59.388798 21746 net.cpp:122] Setting up inception_3c_relu_1x1
I1222 15:48:59.388803 21746 net.cpp:129] Top shape: 1 64 4 13 (3328)
I1222 15:48:59.388805 21746 net.cpp:137] Memory required for data: 2996736
I1222 15:48:59.388808 21746 layer_factory.hpp:77] Creating layer inception_3c_3x3_reduce
I1222 15:48:59.388833 21746 net.cpp:84] Creating Layer inception_3c_3x3_reduce
I1222 15:48:59.388837 21746 net.cpp:406] inception_3c_3x3_reduce <- inception_3b_output_sum_inception_3b_output_sum_0_split_1
I1222 15:48:59.388844 21746 net.cpp:380] inception_3c_3x3_reduce -> inception_3c_3x3_reduce
I1222 15:48:59.390025 21746 net.cpp:122] Setting up inception_3c_3x3_reduce
I1222 15:48:59.390034 21746 net.cpp:129] Top shape: 1 96 4 13 (4992)
I1222 15:48:59.390036 21746 net.cpp:137] Memory required for data: 3016704
I1222 15:48:59.390060 21746 layer_factory.hpp:77] Creating layer inception_3c_3x3_reduce_bn
I1222 15:48:59.390082 21746 net.cpp:84] Creating Layer inception_3c_3x3_reduce_bn
I1222 15:48:59.390086 21746 net.cpp:406] inception_3c_3x3_reduce_bn <- inception_3c_3x3_reduce
I1222 15:48:59.390089 21746 net.cpp:367] inception_3c_3x3_reduce_bn -> inception_3c_3x3_reduce (in-place)
I1222 15:48:59.390251 21746 net.cpp:122] Setting up inception_3c_3x3_reduce_bn
I1222 15:48:59.390255 21746 net.cpp:129] Top shape: 1 96 4 13 (4992)
I1222 15:48:59.390257 21746 net.cpp:137] Memory required for data: 3036672
I1222 15:48:59.390280 21746 layer_factory.hpp:77] Creating layer inception_3c_relu_3x3_reduce
I1222 15:48:59.390285 21746 net.cpp:84] Creating Layer inception_3c_relu_3x3_reduce
I1222 15:48:59.390287 21746 net.cpp:406] inception_3c_relu_3x3_reduce <- inception_3c_3x3_reduce
I1222 15:48:59.390290 21746 net.cpp:367] inception_3c_relu_3x3_reduce -> inception_3c_3x3_reduce (in-place)
I1222 15:48:59.390501 21746 net.cpp:122] Setting up inception_3c_relu_3x3_reduce
I1222 15:48:59.390507 21746 net.cpp:129] Top shape: 1 96 4 13 (4992)
I1222 15:48:59.390508 21746 net.cpp:137] Memory required for data: 3056640
I1222 15:48:59.390523 21746 layer_factory.hpp:77] Creating layer inception_3c_3x3
I1222 15:48:59.390543 21746 net.cpp:84] Creating Layer inception_3c_3x3
I1222 15:48:59.390547 21746 net.cpp:406] inception_3c_3x3 <- inception_3c_3x3_reduce
I1222 15:48:59.390550 21746 net.cpp:380] inception_3c_3x3 -> inception_3c_3x3
I1222 15:48:59.394151 21746 net.cpp:122] Setting up inception_3c_3x3
I1222 15:48:59.394168 21746 net.cpp:129] Top shape: 1 160 4 13 (8320)
I1222 15:48:59.394170 21746 net.cpp:137] Memory required for data: 3089920
I1222 15:48:59.394177 21746 layer_factory.hpp:77] Creating layer inception_3c_3x3_bn
I1222 15:48:59.394183 21746 net.cpp:84] Creating Layer inception_3c_3x3_bn
I1222 15:48:59.394186 21746 net.cpp:406] inception_3c_3x3_bn <- inception_3c_3x3
I1222 15:48:59.394191 21746 net.cpp:367] inception_3c_3x3_bn -> inception_3c_3x3 (in-place)
I1222 15:48:59.394459 21746 net.cpp:122] Setting up inception_3c_3x3_bn
I1222 15:48:59.394481 21746 net.cpp:129] Top shape: 1 160 4 13 (8320)
I1222 15:48:59.394484 21746 net.cpp:137] Memory required for data: 3123200
I1222 15:48:59.394490 21746 layer_factory.hpp:77] Creating layer inception_3c_relu_3x3
I1222 15:48:59.394495 21746 net.cpp:84] Creating Layer inception_3c_relu_3x3
I1222 15:48:59.394497 21746 net.cpp:406] inception_3c_relu_3x3 <- inception_3c_3x3
I1222 15:48:59.394500 21746 net.cpp:367] inception_3c_relu_3x3 -> inception_3c_3x3 (in-place)
I1222 15:48:59.394654 21746 net.cpp:122] Setting up inception_3c_relu_3x3
I1222 15:48:59.394659 21746 net.cpp:129] Top shape: 1 160 4 13 (8320)
I1222 15:48:59.394660 21746 net.cpp:137] Memory required for data: 3156480
I1222 15:48:59.394675 21746 layer_factory.hpp:77] Creating layer inception_3c_pool
I1222 15:48:59.394680 21746 net.cpp:84] Creating Layer inception_3c_pool
I1222 15:48:59.394683 21746 net.cpp:406] inception_3c_pool <- inception_3b_output_sum_inception_3b_output_sum_0_split_2
I1222 15:48:59.394687 21746 net.cpp:380] inception_3c_pool -> inception_3c_pool
I1222 15:48:59.394734 21746 net.cpp:122] Setting up inception_3c_pool
I1222 15:48:59.394737 21746 net.cpp:129] Top shape: 1 384 4 13 (19968)
I1222 15:48:59.394739 21746 net.cpp:137] Memory required for data: 3236352
I1222 15:48:59.394754 21746 layer_factory.hpp:77] Creating layer inception_3c_pool_proj
I1222 15:48:59.394763 21746 net.cpp:84] Creating Layer inception_3c_pool_proj
I1222 15:48:59.394767 21746 net.cpp:406] inception_3c_pool_proj <- inception_3c_pool
I1222 15:48:59.394770 21746 net.cpp:380] inception_3c_pool_proj -> inception_3c_pool_proj
I1222 15:48:59.396368 21746 net.cpp:122] Setting up inception_3c_pool_proj
I1222 15:48:59.396378 21746 net.cpp:129] Top shape: 1 32 4 13 (1664)
I1222 15:48:59.396380 21746 net.cpp:137] Memory required for data: 3243008
I1222 15:48:59.396385 21746 layer_factory.hpp:77] Creating layer inception_3c_pool_proj_bn
I1222 15:48:59.396389 21746 net.cpp:84] Creating Layer inception_3c_pool_proj_bn
I1222 15:48:59.396392 21746 net.cpp:406] inception_3c_pool_proj_bn <- inception_3c_pool_proj
I1222 15:48:59.396396 21746 net.cpp:367] inception_3c_pool_proj_bn -> inception_3c_pool_proj (in-place)
I1222 15:48:59.396550 21746 net.cpp:122] Setting up inception_3c_pool_proj_bn
I1222 15:48:59.396555 21746 net.cpp:129] Top shape: 1 32 4 13 (1664)
I1222 15:48:59.396558 21746 net.cpp:137] Memory required for data: 3249664
I1222 15:48:59.396561 21746 layer_factory.hpp:77] Creating layer inception_3c_relu_pool_proj
I1222 15:48:59.396564 21746 net.cpp:84] Creating Layer inception_3c_relu_pool_proj
I1222 15:48:59.396566 21746 net.cpp:406] inception_3c_relu_pool_proj <- inception_3c_pool_proj
I1222 15:48:59.396570 21746 net.cpp:367] inception_3c_relu_pool_proj -> inception_3c_pool_proj (in-place)
I1222 15:48:59.397224 21746 net.cpp:122] Setting up inception_3c_relu_pool_proj
I1222 15:48:59.397238 21746 net.cpp:129] Top shape: 1 32 4 13 (1664)
I1222 15:48:59.397240 21746 net.cpp:137] Memory required for data: 3256320
I1222 15:48:59.397243 21746 layer_factory.hpp:77] Creating layer inception_3c_output
I1222 15:48:59.397249 21746 net.cpp:84] Creating Layer inception_3c_output
I1222 15:48:59.397253 21746 net.cpp:406] inception_3c_output <- inception_3c_1x1
I1222 15:48:59.397256 21746 net.cpp:406] inception_3c_output <- inception_3c_3x3
I1222 15:48:59.397279 21746 net.cpp:406] inception_3c_output <- inception_3c_pool_proj
I1222 15:48:59.397296 21746 net.cpp:380] inception_3c_output -> inception_3c_output
I1222 15:48:59.397346 21746 net.cpp:122] Setting up inception_3c_output
I1222 15:48:59.397362 21746 net.cpp:129] Top shape: 1 256 4 13 (13312)
I1222 15:48:59.397364 21746 net.cpp:137] Memory required for data: 3309568
I1222 15:48:59.397367 21746 layer_factory.hpp:77] Creating layer inception_3c_output_proj
I1222 15:48:59.397392 21746 net.cpp:84] Creating Layer inception_3c_output_proj
I1222 15:48:59.397394 21746 net.cpp:406] inception_3c_output_proj <- inception_3c_output
I1222 15:48:59.397399 21746 net.cpp:380] inception_3c_output_proj -> inception_3c_output_proj
I1222 15:48:59.398638 21746 net.cpp:122] Setting up inception_3c_output_proj
I1222 15:48:59.398649 21746 net.cpp:129] Top shape: 1 384 4 13 (19968)
I1222 15:48:59.398651 21746 net.cpp:137] Memory required for data: 3389440
I1222 15:48:59.398670 21746 layer_factory.hpp:77] Creating layer inception_3c_output_sum
I1222 15:48:59.398677 21746 net.cpp:84] Creating Layer inception_3c_output_sum
I1222 15:48:59.398681 21746 net.cpp:406] inception_3c_output_sum <- inception_3c_output_proj
I1222 15:48:59.398684 21746 net.cpp:406] inception_3c_output_sum <- inception_3b_output_sum_inception_3b_output_sum_0_split_3
I1222 15:48:59.398689 21746 net.cpp:380] inception_3c_output_sum -> inception_3c_output_sum
I1222 15:48:59.398715 21746 net.cpp:122] Setting up inception_3c_output_sum
I1222 15:48:59.398731 21746 net.cpp:129] Top shape: 1 384 4 13 (19968)
I1222 15:48:59.398732 21746 net.cpp:137] Memory required for data: 3469312
I1222 15:48:59.398735 21746 layer_factory.hpp:77] Creating layer pool5_ave
I1222 15:48:59.398738 21746 net.cpp:84] Creating Layer pool5_ave
I1222 15:48:59.398741 21746 net.cpp:406] pool5_ave <- inception_3c_output_sum
I1222 15:48:59.398744 21746 net.cpp:380] pool5_ave -> pool5_ave
I1222 15:48:59.399251 21746 net.cpp:122] Setting up pool5_ave
I1222 15:48:59.399260 21746 net.cpp:129] Top shape: 1 384 1 13 (4992)
I1222 15:48:59.399262 21746 net.cpp:137] Memory required for data: 3489280
I1222 15:48:59.399264 21746 layer_factory.hpp:77] Creating layer pool5_ave_transpose
I1222 15:48:59.399273 21746 net.cpp:84] Creating Layer pool5_ave_transpose
I1222 15:48:59.399276 21746 net.cpp:406] pool5_ave_transpose <- pool5_ave
I1222 15:48:59.399279 21746 net.cpp:380] pool5_ave_transpose -> pool5_ave_transpose
I1222 15:48:59.399422 21746 net.cpp:122] Setting up pool5_ave_transpose
I1222 15:48:59.399428 21746 net.cpp:129] Top shape: 13 1 1 384 (4992)
I1222 15:48:59.399432 21746 net.cpp:137] Memory required for data: 3509248
I1222 15:48:59.399435 21746 layer_factory.hpp:77] Creating layer blstm_input
I1222 15:48:59.399454 21746 net.cpp:84] Creating Layer blstm_input
I1222 15:48:59.399457 21746 net.cpp:406] blstm_input <- pool5_ave_transpose
I1222 15:48:59.399462 21746 net.cpp:380] blstm_input -> blstm_input
I1222 15:48:59.399487 21746 net.cpp:122] Setting up blstm_input
I1222 15:48:59.399504 21746 net.cpp:129] Top shape: 13 1 384 (4992)
I1222 15:48:59.399507 21746 net.cpp:137] Memory required for data: 3529216
I1222 15:48:59.399509 21746 layer_factory.hpp:77] Creating layer blstm_input_blstm_input_0_split
I1222 15:48:59.399528 21746 net.cpp:84] Creating Layer blstm_input_blstm_input_0_split
I1222 15:48:59.399530 21746 net.cpp:406] blstm_input_blstm_input_0_split <- blstm_input
I1222 15:48:59.399533 21746 net.cpp:380] blstm_input_blstm_input_0_split -> blstm_input_blstm_input_0_split_0
I1222 15:48:59.399539 21746 net.cpp:380] blstm_input_blstm_input_0_split -> blstm_input_blstm_input_0_split_1
I1222 15:48:59.399571 21746 net.cpp:122] Setting up blstm_input_blstm_input_0_split
I1222 15:48:59.399575 21746 net.cpp:129] Top shape: 13 1 384 (4992)
I1222 15:48:59.399579 21746 net.cpp:129] Top shape: 13 1 384 (4992)
I1222 15:48:59.399619 21746 net.cpp:137] Memory required for data: 3569152
I1222 15:48:59.399622 21746 layer_factory.hpp:77] Creating layer lstm1
I1222 15:48:59.399629 21746 net.cpp:84] Creating Layer lstm1
I1222 15:48:59.399632 21746 net.cpp:406] lstm1 <- blstm_input_blstm_input_0_split_0
I1222 15:48:59.399637 21746 net.cpp:380] lstm1 -> lstm1
I1222 15:48:59.407799 21746 net.cpp:122] Setting up lstm1
I1222 15:48:59.407820 21746 net.cpp:129] Top shape: 13 1 256 (3328)
I1222 15:48:59.407822 21746 net.cpp:137] Memory required for data: 3582464
I1222 15:48:59.407835 21746 layer_factory.hpp:77] Creating layer lstm1-reverse1
I1222 15:48:59.407851 21746 net.cpp:84] Creating Layer lstm1-reverse1
I1222 15:48:59.407855 21746 net.cpp:406] lstm1-reverse1 <- blstm_input_blstm_input_0_split_1
I1222 15:48:59.407863 21746 net.cpp:380] lstm1-reverse1 -> rlstm1_input
I1222 15:48:59.407960 21746 net.cpp:122] Setting up lstm1-reverse1
I1222 15:48:59.407964 21746 net.cpp:129] Top shape: 13 1 384 (4992)
I1222 15:48:59.407968 21746 net.cpp:137] Memory required for data: 3602432
I1222 15:48:59.407969 21746 layer_factory.hpp:77] Creating layer rlstm1
I1222 15:48:59.407980 21746 net.cpp:84] Creating Layer rlstm1
I1222 15:48:59.407984 21746 net.cpp:406] rlstm1 <- rlstm1_input
I1222 15:48:59.407986 21746 net.cpp:380] rlstm1 -> rlstm1-output
I1222 15:48:59.414285 21746 net.cpp:122] Setting up rlstm1
I1222 15:48:59.414301 21746 net.cpp:129] Top shape: 13 1 256 (3328)
I1222 15:48:59.414304 21746 net.cpp:137] Memory required for data: 3615744
I1222 15:48:59.414310 21746 layer_factory.hpp:77] Creating layer lstm1-reverse2
I1222 15:48:59.414319 21746 net.cpp:84] Creating Layer lstm1-reverse2
I1222 15:48:59.414321 21746 net.cpp:406] lstm1-reverse2 <- rlstm1-output
I1222 15:48:59.414326 21746 net.cpp:380] lstm1-reverse2 -> rlstm1
I1222 15:48:59.414376 21746 net.cpp:122] Setting up lstm1-reverse2
I1222 15:48:59.414396 21746 net.cpp:129] Top shape: 13 1 256 (3328)
I1222 15:48:59.414398 21746 net.cpp:137] Memory required for data: 3629056
I1222 15:48:59.414402 21746 layer_factory.hpp:77] Creating layer blstm1
I1222 15:48:59.414427 21746 net.cpp:84] Creating Layer blstm1
I1222 15:48:59.414429 21746 net.cpp:406] blstm1 <- lstm1
I1222 15:48:59.414433 21746 net.cpp:406] blstm1 <- rlstm1
I1222 15:48:59.414435 21746 net.cpp:380] blstm1 -> blstm1
I1222 15:48:59.414477 21746 net.cpp:122] Setting up blstm1
I1222 15:48:59.414481 21746 net.cpp:129] Top shape: 13 1 512 (6656)
I1222 15:48:59.414482 21746 net.cpp:137] Memory required for data: 3655680
I1222 15:48:59.414484 21746 layer_factory.hpp:77] Creating layer blstm1_blstm1_0_split
I1222 15:48:59.414487 21746 net.cpp:84] Creating Layer blstm1_blstm1_0_split
I1222 15:48:59.414489 21746 net.cpp:406] blstm1_blstm1_0_split <- blstm1
I1222 15:48:59.414494 21746 net.cpp:380] blstm1_blstm1_0_split -> blstm1_blstm1_0_split_0
I1222 15:48:59.414497 21746 net.cpp:380] blstm1_blstm1_0_split -> blstm1_blstm1_0_split_1
I1222 15:48:59.414501 21746 net.cpp:380] blstm1_blstm1_0_split -> blstm1_blstm1_0_split_2
I1222 15:48:59.414559 21746 net.cpp:122] Setting up blstm1_blstm1_0_split
I1222 15:48:59.414577 21746 net.cpp:129] Top shape: 13 1 512 (6656)
I1222 15:48:59.414578 21746 net.cpp:129] Top shape: 13 1 512 (6656)
I1222 15:48:59.414580 21746 net.cpp:129] Top shape: 13 1 512 (6656)
I1222 15:48:59.414582 21746 net.cpp:137] Memory required for data: 3735552
I1222 15:48:59.414582 21746 layer_factory.hpp:77] Creating layer lstm2
I1222 15:48:59.414610 21746 net.cpp:84] Creating Layer lstm2
I1222 15:48:59.414625 21746 net.cpp:406] lstm2 <- blstm1_blstm1_0_split_0
I1222 15:48:59.414630 21746 net.cpp:380] lstm2 -> lstm2
I1222 15:48:59.421258 21746 net.cpp:122] Setting up lstm2
I1222 15:48:59.421272 21746 net.cpp:129] Top shape: 13 1 256 (3328)
I1222 15:48:59.421274 21746 net.cpp:137] Memory required for data: 3748864
I1222 15:48:59.421280 21746 layer_factory.hpp:77] Creating layer lstm2-reverse1
I1222 15:48:59.421288 21746 net.cpp:84] Creating Layer lstm2-reverse1
I1222 15:48:59.421291 21746 net.cpp:406] lstm2-reverse1 <- blstm1_blstm1_0_split_1
I1222 15:48:59.421295 21746 net.cpp:380] lstm2-reverse1 -> rlstm2_input
I1222 15:48:59.421322 21746 net.cpp:122] Setting up lstm2-reverse1
I1222 15:48:59.421326 21746 net.cpp:129] Top shape: 13 1 512 (6656)
I1222 15:48:59.421329 21746 net.cpp:137] Memory required for data: 3775488
I1222 15:48:59.421330 21746 layer_factory.hpp:77] Creating layer rlstm2
I1222 15:48:59.421339 21746 net.cpp:84] Creating Layer rlstm2
I1222 15:48:59.421341 21746 net.cpp:406] rlstm2 <- rlstm2_input
I1222 15:48:59.421371 21746 net.cpp:380] rlstm2 -> rlstm2-output
I1222 15:48:59.428874 21746 net.cpp:122] Setting up rlstm2
I1222 15:48:59.428892 21746 net.cpp:129] Top shape: 13 1 256 (3328)
I1222 15:48:59.428894 21746 net.cpp:137] Memory required for data: 3788800
I1222 15:48:59.428901 21746 layer_factory.hpp:77] Creating layer lstm2-reverse2
I1222 15:48:59.428910 21746 net.cpp:84] Creating Layer lstm2-reverse2
I1222 15:48:59.428912 21746 net.cpp:406] lstm2-reverse2 <- rlstm2-output
I1222 15:48:59.428916 21746 net.cpp:380] lstm2-reverse2 -> rlstm2
I1222 15:48:59.428943 21746 net.cpp:122] Setting up lstm2-reverse2
I1222 15:48:59.428946 21746 net.cpp:129] Top shape: 13 1 256 (3328)
I1222 15:48:59.428948 21746 net.cpp:137] Memory required for data: 3802112
I1222 15:48:59.428949 21746 layer_factory.hpp:77] Creating layer blstm2
I1222 15:48:59.428954 21746 net.cpp:84] Creating Layer blstm2
I1222 15:48:59.428956 21746 net.cpp:406] blstm2 <- lstm2
I1222 15:48:59.428959 21746 net.cpp:406] blstm2 <- rlstm2
I1222 15:48:59.428963 21746 net.cpp:380] blstm2 -> blstm2
I1222 15:48:59.429002 21746 net.cpp:122] Setting up blstm2
I1222 15:48:59.429004 21746 net.cpp:129] Top shape: 13 1 512 (6656)
I1222 15:48:59.429006 21746 net.cpp:137] Memory required for data: 3828736
I1222 15:48:59.429008 21746 layer_factory.hpp:77] Creating layer blstm_sum
I1222 15:48:59.429025 21746 net.cpp:84] Creating Layer blstm_sum
I1222 15:48:59.429028 21746 net.cpp:406] blstm_sum <- blstm1_blstm1_0_split_2
I1222 15:48:59.429029 21746 net.cpp:406] blstm_sum <- blstm2
I1222 15:48:59.429052 21746 net.cpp:380] blstm_sum -> blstm_sum
I1222 15:48:59.429071 21746 net.cpp:122] Setting up blstm_sum
I1222 15:48:59.429075 21746 net.cpp:129] Top shape: 13 1 512 (6656)
I1222 15:48:59.429077 21746 net.cpp:137] Memory required for data: 3855360
I1222 15:48:59.429080 21746 layer_factory.hpp:77] Creating layer fc1x5990
I1222 15:48:59.429087 21746 net.cpp:84] Creating Layer fc1x5990
I1222 15:48:59.429091 21746 net.cpp:406] fc1x5990 <- blstm_sum
I1222 15:48:59.429095 21746 net.cpp:380] fc1x5990 -> fc1x5990
I1222 15:48:59.429297 21746 net.cpp:122] Setting up fc1x5990
I1222 15:48:59.429301 21746 net.cpp:129] Top shape: 13 1 37 (481)
I1222 15:48:59.429303 21746 net.cpp:137] Memory required for data: 3857284
I1222 15:48:59.429325 21746 layer_factory.hpp:77] Creating layer result
I1222 15:48:59.429332 21746 net.cpp:84] Creating Layer result
I1222 15:48:59.429333 21746 net.cpp:406] result <- fc1x5990
I1222 15:48:59.429338 21746 net.cpp:380] result -> result
I1222 15:48:59.429360 21746 net.cpp:122] Setting up result
I1222 15:48:59.429378 21746 net.cpp:129] Top shape: 1 13 1 1 (13)
I1222 15:48:59.429378 21746 net.cpp:137] Memory required for data: 3857336
I1222 15:48:59.429380 21746 net.cpp:200] result does not need backward computation.
I1222 15:48:59.429383 21746 net.cpp:200] fc1x5990 does not need backward computation.
I1222 15:48:59.429384 21746 net.cpp:200] blstm_sum does not need backward computation.
I1222 15:48:59.429404 21746 net.cpp:200] blstm2 does not need backward computation.
…
