…
I1222 11:49:28.206863  9024 upgrade_proto.cpp:67] Attempting to upgrade input file specified using deprecated input fields: /home/duan/caffe/caffe_ocr_for_linux-v2/examples/ocr-duan/inception-bn/pla-1/modules/deploy.prototxt
I1222 11:49:28.206974  9024 upgrade_proto.cpp:70] Successfully upgraded file specified using deprecated input fields.
W1222 11:49:28.206979  9024 upgrade_proto.cpp:72] Note that future Caffe releases will only support input layers and not input fields.
I1222 11:49:28.207507  9024 net.cpp:51] Initializing net from parameters: 
name: "inception_bn"
state {
  phase: TEST
  level: 0
}
layer {
  name: "input"
  type: "Input"
  top: "data"
  input_param {
    shape {
      dim: 1
      dim: 3
      dim: 32
      dim: 100
    }
  }
}
layer {
  name: "conv1_7x7_s2"
  type: "Convolution"
  bottom: "data"
  top: "conv1_7x7_s2"
  param {
    lr_mult: 10
    decay_mult: 1
  }
  param {
    lr_mult: 20
    decay_mult: 0
  }
  convolution_param {
    num_output: 32
    pad: 3
    kernel_size: 7
    stride: 2
    weight_filler {
      type: "xavier"
      std: 1
    }
    bias_filler {
      type: "constant"
      value: 0.2
    }
  }
}
layer {
  name: "conv1_7x7_s2_bn"
  type: "BatchNorm"
  bottom: "conv1_7x7_s2"
  top: "conv1_7x7_s2"
}
layer {
  name: "conv1_7x7_relu"
  type: "ReLU"
  bottom: "conv1_7x7_s2"
  top: "conv1_7x7_s2"
}
layer {
  name: "conv1_9x9_s2"
  type: "Convolution"
  bottom: "data"
  top: "conv1_9x9_s2"
  param {
    lr_mult: 10
    decay_mult: 1
  }
  param {
    lr_mult: 20
    decay_mult: 0
  }
  convolution_param {
    num_output: 32
    pad: 4
    kernel_size: 9
    stride: 2
    weight_filler {
      type: "xavier"
      std: 1
    }
    bias_filler {
      type: "constant"
      value: 0.2
    }
  }
}
layer {
  name: "conv1_9x9_s2_bn"
  type: "BatchNorm"
  bottom: "conv1_9x9_s2"
  top: "conv1_9x9_s2"
}
layer {
  name: "conv1_9x9_relu"
  type: "ReLU"
  bottom: "conv1_9x9_s2"
  top: "conv1_9x9_s2"
}
layer {
  name: "conv1_concat"
  type: "Concat"
  bottom: "conv1_7x7_s2"
  bottom: "conv1_9x9_s2"
  top: "conv1_concat"
}
layer {
  name: "pool1_3x3_s2"
  type: "Pooling"
  bottom: "conv1_concat"
  top: "pool1_3x3_s2"
  pooling_param {
    pool: MAX
    kernel_size: 2
    stride_h: 2
    stride_w: 2
  }
}
layer {
  name: "conv2_3x3"
  type: "Convolution"
  bottom: "pool1_3x3_s2"
  top: "conv2_3x3"
  param {
    lr_mult: 10
    decay_mult: 1
  }
  param {
    lr_mult: 20
    decay_mult: 0
  }
  convolution_param {
    num_output: 128
    pad: 1
    kernel_size: 3
    stride: 1
    weight_filler {
      type: "xavier"
      std: 1
    }
    bias_filler {
      type: "constant"
      value: 0.2
    }
  }
}
layer {
  name: "conv2_3x3_bn"
  type: "BatchNorm"
  bottom: "conv2_3x3"
  top: "conv2_3x3"
}
layer {
  name: "conv2_3x3_relu"
  type: "ReLU"
  bottom: "conv2_3x3"
  top: "conv2_3x3"
}
layer {
  name: "pool2_3x3_s2"
  type: "Pooling"
  bottom: "conv2_3x3"
  top: "pool2_3x3_s2"
  pooling_param {
    pool: MAX
    kernel_h: 2
    kernel_w: 2
    stride_h: 2
    stride_w: 2
  }
}
layer {
  name: "inception_3a_1x1"
  type: "Convolution"
  bottom: "pool2_3x3_s2"
  top: "inception_3a_1x1"
  param {
    lr_mult: 10
    decay_mult: 1
  }
  param {
    lr_mult: 20
    decay_mult: 0
  }
  convolution_param {
    num_output: 96
    pad: 0
    kernel_size: 1
    stride: 1
    weight_filler {
      type: "xavier"
      std: 1
    }
    bias_filler {
      type: "constant"
      value: 0.2
    }
  }
}
layer {
  name: "inception_3a_1x1_bn"
  type: "BatchNorm"
  bottom: "inception_3a_1x1"
  top: "inception_3a_1x1"
}
layer {
  name: "inception_3a_relu_1x1"
  type: "ReLU"
  bottom: "inception_3a_1x1"
  top: "inception_3a_1x1"
}
layer {
  name: "inception_3a_3x3_reduce"
  type: "Convolution"
  bottom: "pool2_3x3_s2"
  top: "inception_3a_3x3_reduce"
  param {
    lr_mult: 10
    decay_mult: 1
  }
  param {
    lr_mult: 20
    decay_mult: 0
  }
  convolution_param {
    num_output: 96
    pad: 0
    kernel_size: 1
    stride: 1
    weight_filler {
      type: "xavier"
      std: 1
    }
    bias_filler {
      type: "constant"
      value: 0.2
    }
  }
}
layer {
  name: "inception_3a_3x3_reduce_bn"
  type: "BatchNorm"
  bottom: "inception_3a_3x3_reduce"
  top: "inception_3a_3x3_reduce"
}
layer {
  name: "inception_3a_relu_3x3_reduce"
  type: "ReLU"
  bottom: "inception_3a_3x3_reduce"
  top: "inception_3a_3x3_reduce"
}
layer {
  name: "inception_3a_3x3"
  type: "Convolution"
  bottom: "inception_3a_3x3_reduce"
  top: "inception_3a_3x3"
  param {
    lr_mult: 10
    decay_mult: 1
  }
  param {
    lr_mult: 20
    decay_mult: 0
  }
  convolution_param {
    num_output: 224
    pad: 1
    kernel_size: 3
    stride: 1
    weight_filler {
      type: "xavier"
      std: 1
    }
    bias_filler {
      type: "constant"
      value: 0.2
    }
  }
}
layer {
  name: "inception_3a_3x3_bn"
  type: "BatchNorm"
  bottom: "inception_3a_3x3"
  top: "inception_3a_3x3"
}
layer {
  name: "inception_3a_relu_3x3"
  type: "ReLU"
  bottom: "inception_3a_3x3"
  top: "inception_3a_3x3"
}
layer {
  name: "inception_3a_pool"
  type: "Pooling"
  bottom: "pool2_3x3_s2"
  top: "inception_3a_pool"
  pooling_param {
    pool: MAX
    kernel_size: 3
    stride: 1
    pad: 1
  }
}
layer {
  name: "inception_3a_pool_proj"
  type: "Convolution"
  bottom: "inception_3a_pool"
  top: "inception_3a_pool_proj"
  param {
    lr_mult: 10
    decay_mult: 1
  }
  param {
    lr_mult: 20
    decay_mult: 0
  }
  convolution_param {
    num_output: 64
    pad: 0
    kernel_size: 1
    stride: 1
    weight_filler {
      type: "xavier"
      std: 1
    }
    bias_filler {
      type: "constant"
      value: 0.2
    }
  }
}
layer {
  name: "inception_3a_pool_proj_bn"
  type: "BatchNorm"
  bottom: "inception_3a_pool_proj"
  top: "inception_3a_pool_proj"
}
layer {
  name: "inception_3a_relu_pool_proj"
  type: "ReLU"
  bottom: "inception_3a_pool_proj"
  top: "inception_3a_pool_proj"
}
layer {
  name: "inception_3a_output"
  type: "Concat"
  bottom: "inception_3a_1x1"
  bottom: "inception_3a_3x3"
  bottom: "inception_3a_pool_proj"
  top: "inception_3a_output"
}
layer {
  name: "inception_3b_1x1"
  type: "Convolution"
  bottom: "inception_3a_output"
  top: "inception_3b_1x1"
  param {
    lr_mult: 10
    decay_mult: 1
  }
  param {
    lr_mult: 20
    decay_mult: 0
  }
  convolution_param {
    num_output: 64
    pad: 0
    kernel_size: 1
    stride: 1
    weight_filler {
      type: "xavier"
      std: 1
    }
    bias_filler {
      type: "constant"
      value: 0.2
    }
  }
}
layer {
  name: "inception_3b_1x1_bn"
  type: "BatchNorm"
  bottom: "inception_3b_1x1"
  top: "inception_3b_1x1"
}
layer {
  name: "inception_3b_relu_1x1"
  type: "ReLU"
  bottom: "inception_3b_1x1"
  top: "inception_3b_1x1"
}
layer {
  name: "inception_3b_3x3_reduce"
  type: "Convolution"
  bottom: "inception_3a_output"
  top: "inception_3b_3x3_reduce"
  param {
    lr_mult: 10
    decay_mult: 1
  }
  param {
    lr_mult: 20
    decay_mult: 0
  }
  convolution_param {
    num_output: 96
    pad: 0
    kernel_size: 1
    stride: 1
    weight_filler {
      type: "xavier"
      std: 1
    }
    bias_filler {
      type: "constant"
      value: 0.2
    }
  }
}
layer {
  name: "inception_3b_3x3_reduce_bn"
  type: "BatchNorm"
  bottom: "inception_3b_3x3_reduce"
  top: "inception_3b_3x3_reduce"
}
layer {
  name: "inception_3b_relu_3x3_reduce"
  type: "ReLU"
  bottom: "inception_3b_3x3_reduce"
  top: "inception_3b_3x3_reduce"
}
layer {
  name: "inception_3b_3x3"
  type: "Convolution"
  bottom: "inception_3b_3x3_reduce"
  top: "inception_3b_3x3"
  param {
    lr_mult: 10
    decay_mult: 1
  }
  param {
    lr_mult: 20
    decay_mult: 0
  }
  convolution_param {
    num_output: 160
    pad: 1
    kernel_size: 3
    stride: 1
    weight_filler {
      type: "xavier"
      std: 1
    }
    bias_filler {
      type: "constant"
      value: 0.2
    }
  }
}
layer {
  name: "inception_3b_3x3_bn"
  type: "BatchNorm"
  bottom: "inception_3b_3x3"
  top: "inception_3b_3x3"
}
layer {
  name: "inception_3b_relu_3x3"
  type: "ReLU"
  bottom: "inception_3b_3x3"
  top: "inception_3b_3x3"
}
layer {
  name: "inception_3b_pool"
  type: "Pooling"
  bottom: "inception_3a_output"
  top: "inception_3b_pool"
  pooling_param {
    pool: MAX
    kernel_size: 3
    stride: 1
    pad: 1
  }
}
layer {
  name: "inception_3b_pool_proj"
  type: "Convolution"
  bottom: "inception_3b_pool"
  top: "inception_3b_pool_proj"
  param {
    lr_mult: 10
    decay_mult: 1
  }
  param {
    lr_mult: 20
    decay_mult: 0
  }
  convolution_param {
    num_output: 32
    pad: 0
    kernel_size: 1
    stride: 1
    weight_filler {
      type: "xavier"
      std: 1
    }
    bias_filler {
      type: "constant"
      value: 0.2
    }
  }
}
layer {
  name: "inception_3b_pool_proj_bn"
  type: "BatchNorm"
  bottom: "inception_3b_pool_proj"
  top: "inception_3b_pool_proj"
}
layer {
  name: "inception_3b_relu_pool_proj"
  type: "ReLU"
  bottom: "inception_3b_pool_proj"
  top: "inception_3b_pool_proj"
}
layer {
  name: "inception_3b_output"
  type: "Concat"
  bottom: "inception_3b_1x1"
  bottom: "inception_3b_3x3"
  bottom: "inception_3b_pool_proj"
  top: "inception_3b_output"
}
layer {
  name: "inception_3b_output_proj"
  type: "Convolution"
  bottom: "inception_3b_output"
  top: "inception_3b_output_proj"
  param {
    lr_mult: 10
    decay_mult: 1
  }
  param {
    lr_mult: 20
    decay_mult: 0
  }
  convolution_param {
    num_output: 384
    pad: 0
    kernel_size: 1
    stride: 1
    weight_filler {
      type: "xavier"
      std: 1
    }
    bias_filler {
      type: "constant"
      value: 0.2
    }
  }
}
layer {
  name: "inception_3b_output_sum"
  type: "Eltwise"
  bottom: "inception_3b_output_proj"
  bottom: "inception_3a_output"
  top: "inception_3b_output_sum"
  eltwise_param {
    operation: SUM
  }
}
layer {
  name: "inception_3c_1x1"
  type: "Convolution"
  bottom: "inception_3b_output_sum"
  top: "inception_3c_1x1"
  param {
    lr_mult: 10
    decay_mult: 1
  }
  param {
    lr_mult: 20
    decay_mult: 0
  }
  convolution_param {
    num_output: 64
    pad: 0
    kernel_size: 1
    stride: 1
    weight_filler {
      type: "xavier"
      std: 1
    }
    bias_filler {
      type: "constant"
      value: 0.2
    }
  }
}
layer {
  name: "inception_3c_1x1_bn"
  type: "BatchNorm"
  bottom: "inception_3c_1x1"
  top: "inception_3c_1x1"
}
layer {
  name: "inception_3c_relu_1x1"
  type: "ReLU"
  bottom: "inception_3c_1x1"
  top: "inception_3c_1x1"
}
layer {
  name: "inception_3c_3x3_reduce"
  type: "Convolution"
  bottom: "inception_3b_output_sum"
  top: "inception_3c_3x3_reduce"
  param {
    lr_mult: 10
    decay_mult: 1
  }
  param {
    lr_mult: 20
    decay_mult: 0
  }
  convolution_param {
    num_output: 96
    pad: 0
    kernel_size: 1
    stride: 1
    weight_filler {
      type: "xavier"
      std: 1
    }
    bias_filler {
      type: "constant"
      value: 0.2
    }
  }
}
layer {
  name: "inception_3c_3x3_reduce_bn"
  type: "BatchNorm"
  bottom: "inception_3c_3x3_reduce"
  top: "inception_3c_3x3_reduce"
}
layer {
  name: "inception_3c_relu_3x3_reduce"
  type: "ReLU"
  bottom: "inception_3c_3x3_reduce"
  top: "inception_3c_3x3_reduce"
}
layer {
  name: "inception_3c_3x3"
  type: "Convolution"
  bottom: "inception_3c_3x3_reduce"
  top: "inception_3c_3x3"
  param {
    lr_mult: 10
    decay_mult: 1
  }
  param {
    lr_mult: 20
    decay_mult: 0
  }
  convolution_param {
    num_output: 160
    pad: 1
    kernel_size: 3
    stride: 1
    weight_filler {
      type: "xavier"
      std: 1
    }
    bias_filler {
      type: "constant"
      value: 0.2
    }
  }
}
layer {
  name: "inception_3c_3x3_bn"
  type: "BatchNorm"
  bottom: "inception_3c_3x3"
  top: "inception_3c_3x3"
}
layer {
  name: "inception_3c_relu_3x3"
  type: "ReLU"
  bottom: "inception_3c_3x3"
  top: "inception_3c_3x3"
}
layer {
  name: "inception_3c_pool"
  type: "Pooling"
  bottom: "inception_3b_output_sum"
  top: "inception_3c_pool"
  pooling_param {
    pool: MAX
    kernel_size: 3
    stride: 1
    pad: 1
  }
}
layer {
  name: "inception_3c_pool_proj"
  type: "Convolution"
  bottom: "inception_3c_pool"
  top: "inception_3c_pool_proj"
  param {
    lr_mult: 10
    decay_mult: 1
  }
  param {
    lr_mult: 20
    decay_mult: 0
  }
  convolution_param {
    num_output: 32
    pad: 0
    kernel_size: 1
    stride: 1
    weight_filler {
      type: "xavier"
      std: 1
    }
    bias_filler {
      type: "constant"
      value: 0.2
    }
  }
}
layer {
  name: "inception_3c_pool_proj_bn"
  type: "BatchNorm"
  bottom: "inception_3c_pool_proj"
  top: "inception_3c_pool_proj"
}
layer {
  name: "inception_3c_relu_pool_proj"
  type: "ReLU"
  bottom: "inception_3c_pool_proj"
  top: "inception_3c_pool_proj"
}
layer {
  name: "inception_3c_output"
  type: "Concat"
  bottom: "inception_3c_1x1"
  bottom: "inception_3c_3x3"
  bottom: "inception_3c_pool_proj"
  top: "inception_3c_output"
}
layer {
  name: "inception_3c_output_proj"
  type: "Convolution"
  bottom: "inception_3c_output"
  top: "inception_3c_output_proj"
  param {
    lr_mult: 10
    decay_mult: 1
  }
  param {
    lr_mult: 20
    decay_mult: 0
  }
  convolution_param {
    num_output: 384
    pad: 0
    kernel_size: 1
    stride: 1
    weight_filler {
      type: "xavier"
      std: 1
    }
    bias_filler {
      type: "constant"
      value: 0.2
    }
  }
}
layer {
  name: "inception_3c_output_sum"
  type: "Eltwise"
  bottom: "inception_3c_output_proj"
  bottom: "inception_3b_output_sum"
  top: "inception_3c_output_sum"
  eltwise_param {
    operation: SUM
  }
}
layer {
  name: "pool5_ave"
  type: "Pooling"
  bottom: "inception_3c_output_sum"
  top: "pool5_ave"
  pooling_param {
    pool: AVE
    kernel_h: 4
    kernel_w: 1
    stride_h: 1
    stride_w: 1
  }
}
layer {
  name: "pool5_ave_transpose"
  type: "Transpose"
  bottom: "pool5_ave"
  top: "pool5_ave_transpose"
  transpose_param {
    dim: 3
    dim: 2
    dim: 0
    dim: 1
  }
}
layer {
  name: "blstm_input"
  type: "Reshape"
  bottom: "pool5_ave_transpose"
  top: "blstm_input"
  reshape_param {
    shape {
      dim: -1
    }
    axis: 1
    num_axes: 2
  }
}
layer {
  name: "lstm1"
  type: "Lstm"
  bottom: "blstm_input"
  top: "lstm1"
  lstm_param {
    num_output: 256
    weight_filler {
      type: "gaussian"
      std: 0.1
    }
    bias_filler {
      type: "constant"
    }
  }
}
layer {
  name: "lstm1-reverse1"
  type: "Reverse"
  bottom: "blstm_input"
  top: "rlstm1_input"
  reverse_param {
    axis: 0
  }
}
layer {
  name: "rlstm1"
  type: "Lstm"
  bottom: "rlstm1_input"
  top: "rlstm1-output"
  lstm_param {
    num_output: 256
    weight_filler {
      type: "gaussian"
      std: 0.1
    }
    bias_filler {
      type: "constant"
    }
  }
}
layer {
  name: "lstm1-reverse2"
  type: "Reverse"
  bottom: "rlstm1-output"
  top: "rlstm1"
  reverse_param {
    axis: 0
  }
}
layer {
  name: "blstm1"
  type: "Concat"
  bottom: "lstm1"
  bottom: "rlstm1"
  top: "blstm1"
  concat_param {
    axis: 2
  }
}
layer {
  name: "lstm2"
  type: "Lstm"
  bottom: "blstm1"
  top: "lstm2"
  lstm_param {
    num_output: 256
    weight_filler {
      type: "gaussian"
      std: 0.1
    }
    bias_filler {
      type: "constant"
    }
  }
}
layer {
  name: "lstm2-reverse1"
  type: "Reverse"
  bottom: "blstm1"
  top: "rlstm2_input"
  reverse_param {
    axis: 0
  }
}
layer {
  name: "rlstm2"
  type: "Lstm"
  bottom: "rlstm2_input"
  top: "rlstm2-output"
  lstm_param {
    num_output: 256
    weight_filler {
      type: "gaussian"
      std: 0.1
    }
    bias_filler {
      type: "constant"
    }
  }
}
layer {
  name: "lstm2-reverse2"
  type: "Reverse"
  bottom: "rlstm2-output"
  top: "rlstm2"
  reverse_param {
    axis: 0
  }
}
layer {
  name: "blstm2"
  type: "Concat"
  bottom: "lstm2"
  bottom: "rlstm2"
  top: "blstm2"
  concat_param {
    axis: 2
  }
}
layer {
  name: "blstm_sum"
  type: "Eltwise"
  bottom: "blstm1"
  bottom: "blstm2"
  top: "blstm_sum"
  eltwise_param {
    operation: SUM
  }
}
layer {
  name: "fc1x5990"
  type: "InnerProduct"
  bottom: "blstm_sum"
  top: "fc1x5990"
  param {
    lr_mult: 1
    decay_mult: 1
  }
  param {
    lr_mult: 2
    decay_mult: 0
  }
  inner_product_param {
    num_output: 37
    weight_filler {
      type: "xavier"
    }
    bias_filler {
      type: "constant"
      value: 0
    }
    axis: 2
  }
}
layer {
  name: "result"
  type: "CTCGreedyDecoder"
  bottom: "fc1x5990"
  top: "result"
}
I1222 11:49:28.207844  9024 layer_factory.hpp:77] Creating layer input
I1222 11:49:28.207857  9024 net.cpp:84] Creating Layer input
I1222 11:49:28.207862  9024 net.cpp:380] input -> data
I1222 11:49:28.222807  9024 net.cpp:122] Setting up input
I1222 11:49:28.222846  9024 net.cpp:129] Top shape: 1 3 32 100 (9600)
I1222 11:49:28.222849  9024 net.cpp:137] Memory required for data: 38400
I1222 11:49:28.222859  9024 layer_factory.hpp:77] Creating layer data_input_0_split
I1222 11:49:28.222898  9024 net.cpp:84] Creating Layer data_input_0_split
I1222 11:49:28.222903  9024 net.cpp:406] data_input_0_split <- data
I1222 11:49:28.222924  9024 net.cpp:380] data_input_0_split -> data_input_0_split_0
I1222 11:49:28.222954  9024 net.cpp:380] data_input_0_split -> data_input_0_split_1
I1222 11:49:28.223042  9024 net.cpp:122] Setting up data_input_0_split
I1222 11:49:28.223065  9024 net.cpp:129] Top shape: 1 3 32 100 (9600)
I1222 11:49:28.223068  9024 net.cpp:129] Top shape: 1 3 32 100 (9600)
I1222 11:49:28.223071  9024 net.cpp:137] Memory required for data: 115200
I1222 11:49:28.223073  9024 layer_factory.hpp:77] Creating layer conv1_7x7_s2
I1222 11:49:28.223088  9024 net.cpp:84] Creating Layer conv1_7x7_s2
I1222 11:49:28.223091  9024 net.cpp:406] conv1_7x7_s2 <- data_input_0_split_0
I1222 11:49:28.223115  9024 net.cpp:380] conv1_7x7_s2 -> conv1_7x7_s2
I1222 11:49:28.380416  9024 net.cpp:122] Setting up conv1_7x7_s2
I1222 11:49:28.380465  9024 net.cpp:129] Top shape: 1 32 16 50 (25600)
I1222 11:49:28.380468  9024 net.cpp:137] Memory required for data: 217600
I1222 11:49:28.380538  9024 layer_factory.hpp:77] Creating layer conv1_7x7_s2_bn
I1222 11:49:28.380551  9024 net.cpp:84] Creating Layer conv1_7x7_s2_bn
I1222 11:49:28.380571  9024 net.cpp:406] conv1_7x7_s2_bn <- conv1_7x7_s2
I1222 11:49:28.380596  9024 net.cpp:367] conv1_7x7_s2_bn -> conv1_7x7_s2 (in-place)
I1222 11:49:28.380797  9024 net.cpp:122] Setting up conv1_7x7_s2_bn
I1222 11:49:28.380805  9024 net.cpp:129] Top shape: 1 32 16 50 (25600)
I1222 11:49:28.380810  9024 net.cpp:137] Memory required for data: 320000
I1222 11:49:28.380838  9024 layer_factory.hpp:77] Creating layer conv1_7x7_relu
I1222 11:49:28.380847  9024 net.cpp:84] Creating Layer conv1_7x7_relu
I1222 11:49:28.380851  9024 net.cpp:406] conv1_7x7_relu <- conv1_7x7_s2
I1222 11:49:28.380856  9024 net.cpp:367] conv1_7x7_relu -> conv1_7x7_s2 (in-place)
I1222 11:49:28.381045  9024 net.cpp:122] Setting up conv1_7x7_relu
I1222 11:49:28.381052  9024 net.cpp:129] Top shape: 1 32 16 50 (25600)
I1222 11:49:28.381054  9024 net.cpp:137] Memory required for data: 422400
I1222 11:49:28.381058  9024 layer_factory.hpp:77] Creating layer conv1_9x9_s2
I1222 11:49:28.381105  9024 net.cpp:84] Creating Layer conv1_9x9_s2
I1222 11:49:28.381109  9024 net.cpp:406] conv1_9x9_s2 <- data_input_0_split_1
I1222 11:49:28.381114  9024 net.cpp:380] conv1_9x9_s2 -> conv1_9x9_s2
I1222 11:49:28.382089  9024 net.cpp:122] Setting up conv1_9x9_s2
I1222 11:49:28.382098  9024 net.cpp:129] Top shape: 1 32 16 50 (25600)
I1222 11:49:28.382102  9024 net.cpp:137] Memory required for data: 524800
I1222 11:49:28.382125  9024 layer_factory.hpp:77] Creating layer conv1_9x9_s2_bn
I1222 11:49:28.382131  9024 net.cpp:84] Creating Layer conv1_9x9_s2_bn
I1222 11:49:28.382153  9024 net.cpp:406] conv1_9x9_s2_bn <- conv1_9x9_s2
I1222 11:49:28.382158  9024 net.cpp:367] conv1_9x9_s2_bn -> conv1_9x9_s2 (in-place)
I1222 11:49:28.382340  9024 net.cpp:122] Setting up conv1_9x9_s2_bn
I1222 11:49:28.382346  9024 net.cpp:129] Top shape: 1 32 16 50 (25600)
I1222 11:49:28.382349  9024 net.cpp:137] Memory required for data: 627200
I1222 11:49:28.382376  9024 layer_factory.hpp:77] Creating layer conv1_9x9_relu
I1222 11:49:28.382400  9024 net.cpp:84] Creating Layer conv1_9x9_relu
I1222 11:49:28.382403  9024 net.cpp:406] conv1_9x9_relu <- conv1_9x9_s2
I1222 11:49:28.382408  9024 net.cpp:367] conv1_9x9_relu -> conv1_9x9_s2 (in-place)
I1222 11:49:28.382585  9024 net.cpp:122] Setting up conv1_9x9_relu
I1222 11:49:28.382591  9024 net.cpp:129] Top shape: 1 32 16 50 (25600)
I1222 11:49:28.382594  9024 net.cpp:137] Memory required for data: 729600
I1222 11:49:28.382597  9024 layer_factory.hpp:77] Creating layer conv1_concat
I1222 11:49:28.382616  9024 net.cpp:84] Creating Layer conv1_concat
I1222 11:49:28.382621  9024 net.cpp:406] conv1_concat <- conv1_7x7_s2
I1222 11:49:28.382624  9024 net.cpp:406] conv1_concat <- conv1_9x9_s2
I1222 11:49:28.382629  9024 net.cpp:380] conv1_concat -> conv1_concat
I1222 11:49:28.382652  9024 net.cpp:122] Setting up conv1_concat
I1222 11:49:28.382669  9024 net.cpp:129] Top shape: 1 64 16 50 (51200)
I1222 11:49:28.382673  9024 net.cpp:137] Memory required for data: 934400
I1222 11:49:28.382675  9024 layer_factory.hpp:77] Creating layer pool1_3x3_s2
I1222 11:49:28.382699  9024 net.cpp:84] Creating Layer pool1_3x3_s2
I1222 11:49:28.382704  9024 net.cpp:406] pool1_3x3_s2 <- conv1_concat
I1222 11:49:28.382709  9024 net.cpp:380] pool1_3x3_s2 -> pool1_3x3_s2
I1222 11:49:28.382747  9024 net.cpp:122] Setting up pool1_3x3_s2
I1222 11:49:28.382753  9024 net.cpp:129] Top shape: 1 64 8 25 (12800)
I1222 11:49:28.382756  9024 net.cpp:137] Memory required for data: 985600
I1222 11:49:28.382760  9024 layer_factory.hpp:77] Creating layer conv2_3x3
I1222 11:49:28.382767  9024 net.cpp:84] Creating Layer conv2_3x3
I1222 11:49:28.382771  9024 net.cpp:406] conv2_3x3 <- pool1_3x3_s2
I1222 11:49:28.382776  9024 net.cpp:380] conv2_3x3 -> conv2_3x3
I1222 11:49:28.384766  9024 net.cpp:122] Setting up conv2_3x3
I1222 11:49:28.384778  9024 net.cpp:129] Top shape: 1 128 8 25 (25600)
I1222 11:49:28.384781  9024 net.cpp:137] Memory required for data: 1088000
I1222 11:49:28.384807  9024 layer_factory.hpp:77] Creating layer conv2_3x3_bn
I1222 11:49:28.384835  9024 net.cpp:84] Creating Layer conv2_3x3_bn
I1222 11:49:28.384840  9024 net.cpp:406] conv2_3x3_bn <- conv2_3x3
I1222 11:49:28.384846  9024 net.cpp:367] conv2_3x3_bn -> conv2_3x3 (in-place)
I1222 11:49:28.385023  9024 net.cpp:122] Setting up conv2_3x3_bn
I1222 11:49:28.385030  9024 net.cpp:129] Top shape: 1 128 8 25 (25600)
I1222 11:49:28.385032  9024 net.cpp:137] Memory required for data: 1190400
I1222 11:49:28.385059  9024 layer_factory.hpp:77] Creating layer conv2_3x3_relu
I1222 11:49:28.385066  9024 net.cpp:84] Creating Layer conv2_3x3_relu
I1222 11:49:28.385069  9024 net.cpp:406] conv2_3x3_relu <- conv2_3x3
I1222 11:49:28.385074  9024 net.cpp:367] conv2_3x3_relu -> conv2_3x3 (in-place)
I1222 11:49:28.385519  9024 net.cpp:122] Setting up conv2_3x3_relu
I1222 11:49:28.385529  9024 net.cpp:129] Top shape: 1 128 8 25 (25600)
I1222 11:49:28.385531  9024 net.cpp:137] Memory required for data: 1292800
I1222 11:49:28.385535  9024 layer_factory.hpp:77] Creating layer pool2_3x3_s2
I1222 11:49:28.385560  9024 net.cpp:84] Creating Layer pool2_3x3_s2
I1222 11:49:28.385565  9024 net.cpp:406] pool2_3x3_s2 <- conv2_3x3
I1222 11:49:28.385570  9024 net.cpp:380] pool2_3x3_s2 -> pool2_3x3_s2
I1222 11:49:28.385617  9024 net.cpp:122] Setting up pool2_3x3_s2
I1222 11:49:28.385623  9024 net.cpp:129] Top shape: 1 128 4 13 (6656)
I1222 11:49:28.385627  9024 net.cpp:137] Memory required for data: 1319424
I1222 11:49:28.385629  9024 layer_factory.hpp:77] Creating layer pool2_3x3_s2_pool2_3x3_s2_0_split
I1222 11:49:28.385653  9024 net.cpp:84] Creating Layer pool2_3x3_s2_pool2_3x3_s2_0_split
I1222 11:49:28.385656  9024 net.cpp:406] pool2_3x3_s2_pool2_3x3_s2_0_split <- pool2_3x3_s2
I1222 11:49:28.385660  9024 net.cpp:380] pool2_3x3_s2_pool2_3x3_s2_0_split -> pool2_3x3_s2_pool2_3x3_s2_0_split_0
I1222 11:49:28.385668  9024 net.cpp:380] pool2_3x3_s2_pool2_3x3_s2_0_split -> pool2_3x3_s2_pool2_3x3_s2_0_split_1
I1222 11:49:28.385673  9024 net.cpp:380] pool2_3x3_s2_pool2_3x3_s2_0_split -> pool2_3x3_s2_pool2_3x3_s2_0_split_2
I1222 11:49:28.385721  9024 net.cpp:122] Setting up pool2_3x3_s2_pool2_3x3_s2_0_split
I1222 11:49:28.385726  9024 net.cpp:129] Top shape: 1 128 4 13 (6656)
I1222 11:49:28.385730  9024 net.cpp:129] Top shape: 1 128 4 13 (6656)
I1222 11:49:28.385752  9024 net.cpp:129] Top shape: 1 128 4 13 (6656)
I1222 11:49:28.385756  9024 net.cpp:137] Memory required for data: 1399296
I1222 11:49:28.385758  9024 layer_factory.hpp:77] Creating layer inception_3a_1x1
I1222 11:49:28.385767  9024 net.cpp:84] Creating Layer inception_3a_1x1
I1222 11:49:28.385772  9024 net.cpp:406] inception_3a_1x1 <- pool2_3x3_s2_pool2_3x3_s2_0_split_0
I1222 11:49:28.385778  9024 net.cpp:380] inception_3a_1x1 -> inception_3a_1x1
I1222 11:49:28.386970  9024 net.cpp:122] Setting up inception_3a_1x1
I1222 11:49:28.386987  9024 net.cpp:129] Top shape: 1 96 4 13 (4992)
I1222 11:49:28.386991  9024 net.cpp:137] Memory required for data: 1419264
I1222 11:49:28.387018  9024 layer_factory.hpp:77] Creating layer inception_3a_1x1_bn
I1222 11:49:28.387046  9024 net.cpp:84] Creating Layer inception_3a_1x1_bn
I1222 11:49:28.387051  9024 net.cpp:406] inception_3a_1x1_bn <- inception_3a_1x1
I1222 11:49:28.387058  9024 net.cpp:367] inception_3a_1x1_bn -> inception_3a_1x1 (in-place)
I1222 11:49:28.387198  9024 net.cpp:122] Setting up inception_3a_1x1_bn
I1222 11:49:28.387204  9024 net.cpp:129] Top shape: 1 96 4 13 (4992)
I1222 11:49:28.387207  9024 net.cpp:137] Memory required for data: 1439232
I1222 11:49:28.387214  9024 layer_factory.hpp:77] Creating layer inception_3a_relu_1x1
I1222 11:49:28.387220  9024 net.cpp:84] Creating Layer inception_3a_relu_1x1
I1222 11:49:28.387224  9024 net.cpp:406] inception_3a_relu_1x1 <- inception_3a_1x1
I1222 11:49:28.387228  9024 net.cpp:367] inception_3a_relu_1x1 -> inception_3a_1x1 (in-place)
I1222 11:49:28.387357  9024 net.cpp:122] Setting up inception_3a_relu_1x1
I1222 11:49:28.387364  9024 net.cpp:129] Top shape: 1 96 4 13 (4992)
I1222 11:49:28.387367  9024 net.cpp:137] Memory required for data: 1459200
I1222 11:49:28.387370  9024 layer_factory.hpp:77] Creating layer inception_3a_3x3_reduce
I1222 11:49:28.387379  9024 net.cpp:84] Creating Layer inception_3a_3x3_reduce
I1222 11:49:28.387384  9024 net.cpp:406] inception_3a_3x3_reduce <- pool2_3x3_s2_pool2_3x3_s2_0_split_1
I1222 11:49:28.387390  9024 net.cpp:380] inception_3a_3x3_reduce -> inception_3a_3x3_reduce
I1222 11:49:28.388301  9024 net.cpp:122] Setting up inception_3a_3x3_reduce
I1222 11:49:28.388314  9024 net.cpp:129] Top shape: 1 96 4 13 (4992)
I1222 11:49:28.388316  9024 net.cpp:137] Memory required for data: 1479168
I1222 11:49:28.388324  9024 layer_factory.hpp:77] Creating layer inception_3a_3x3_reduce_bn
I1222 11:49:28.388331  9024 net.cpp:84] Creating Layer inception_3a_3x3_reduce_bn
I1222 11:49:28.388337  9024 net.cpp:406] inception_3a_3x3_reduce_bn <- inception_3a_3x3_reduce
I1222 11:49:28.388344  9024 net.cpp:367] inception_3a_3x3_reduce_bn -> inception_3a_3x3_reduce (in-place)
I1222 11:49:28.388480  9024 net.cpp:122] Setting up inception_3a_3x3_reduce_bn
I1222 11:49:28.388486  9024 net.cpp:129] Top shape: 1 96 4 13 (4992)
I1222 11:49:28.388489  9024 net.cpp:137] Memory required for data: 1499136
I1222 11:49:28.388495  9024 layer_factory.hpp:77] Creating layer inception_3a_relu_3x3_reduce
I1222 11:49:28.388501  9024 net.cpp:84] Creating Layer inception_3a_relu_3x3_reduce
I1222 11:49:28.388505  9024 net.cpp:406] inception_3a_relu_3x3_reduce <- inception_3a_3x3_reduce
I1222 11:49:28.388510  9024 net.cpp:367] inception_3a_relu_3x3_reduce -> inception_3a_3x3_reduce (in-place)
I1222 11:49:28.388679  9024 net.cpp:122] Setting up inception_3a_relu_3x3_reduce
I1222 11:49:28.388684  9024 net.cpp:129] Top shape: 1 96 4 13 (4992)
I1222 11:49:28.388687  9024 net.cpp:137] Memory required for data: 1519104
I1222 11:49:28.388690  9024 layer_factory.hpp:77] Creating layer inception_3a_3x3
I1222 11:49:28.388718  9024 net.cpp:84] Creating Layer inception_3a_3x3
I1222 11:49:28.388721  9024 net.cpp:406] inception_3a_3x3 <- inception_3a_3x3_reduce
I1222 11:49:28.388728  9024 net.cpp:380] inception_3a_3x3 -> inception_3a_3x3
I1222 11:49:28.390647  9024 net.cpp:122] Setting up inception_3a_3x3
I1222 11:49:28.390657  9024 net.cpp:129] Top shape: 1 224 4 13 (11648)
I1222 11:49:28.390661  9024 net.cpp:137] Memory required for data: 1565696
I1222 11:49:28.390686  9024 layer_factory.hpp:77] Creating layer inception_3a_3x3_bn
I1222 11:49:28.390705  9024 net.cpp:84] Creating Layer inception_3a_3x3_bn
I1222 11:49:28.390709  9024 net.cpp:406] inception_3a_3x3_bn <- inception_3a_3x3
I1222 11:49:28.390715  9024 net.cpp:367] inception_3a_3x3_bn -> inception_3a_3x3 (in-place)
I1222 11:49:28.390928  9024 net.cpp:122] Setting up inception_3a_3x3_bn
I1222 11:49:28.390934  9024 net.cpp:129] Top shape: 1 224 4 13 (11648)
I1222 11:49:28.390938  9024 net.cpp:137] Memory required for data: 1612288
I1222 11:49:28.390962  9024 layer_factory.hpp:77] Creating layer inception_3a_relu_3x3
I1222 11:49:28.390969  9024 net.cpp:84] Creating Layer inception_3a_relu_3x3
I1222 11:49:28.390972  9024 net.cpp:406] inception_3a_relu_3x3 <- inception_3a_3x3
I1222 11:49:28.390976  9024 net.cpp:367] inception_3a_relu_3x3 -> inception_3a_3x3 (in-place)
I1222 11:49:28.391150  9024 net.cpp:122] Setting up inception_3a_relu_3x3
I1222 11:49:28.391157  9024 net.cpp:129] Top shape: 1 224 4 13 (11648)
I1222 11:49:28.391160  9024 net.cpp:137] Memory required for data: 1658880
I1222 11:49:28.391163  9024 layer_factory.hpp:77] Creating layer inception_3a_pool
I1222 11:49:28.391187  9024 net.cpp:84] Creating Layer inception_3a_pool
I1222 11:49:28.391191  9024 net.cpp:406] inception_3a_pool <- pool2_3x3_s2_pool2_3x3_s2_0_split_2
I1222 11:49:28.391196  9024 net.cpp:380] inception_3a_pool -> inception_3a_pool
I1222 11:49:28.391268  9024 net.cpp:122] Setting up inception_3a_pool
I1222 11:49:28.391273  9024 net.cpp:129] Top shape: 1 128 4 13 (6656)
I1222 11:49:28.391276  9024 net.cpp:137] Memory required for data: 1685504
I1222 11:49:28.391279  9024 layer_factory.hpp:77] Creating layer inception_3a_pool_proj
I1222 11:49:28.391288  9024 net.cpp:84] Creating Layer inception_3a_pool_proj
I1222 11:49:28.391293  9024 net.cpp:406] inception_3a_pool_proj <- inception_3a_pool
I1222 11:49:28.391299  9024 net.cpp:380] inception_3a_pool_proj -> inception_3a_pool_proj
I1222 11:49:28.392333  9024 net.cpp:122] Setting up inception_3a_pool_proj
I1222 11:49:28.392349  9024 net.cpp:129] Top shape: 1 64 4 13 (3328)
I1222 11:49:28.392351  9024 net.cpp:137] Memory required for data: 1698816
I1222 11:49:28.392372  9024 layer_factory.hpp:77] Creating layer inception_3a_pool_proj_bn
I1222 11:49:28.392381  9024 net.cpp:84] Creating Layer inception_3a_pool_proj_bn
I1222 11:49:28.392386  9024 net.cpp:406] inception_3a_pool_proj_bn <- inception_3a_pool_proj
I1222 11:49:28.392393  9024 net.cpp:367] inception_3a_pool_proj_bn -> inception_3a_pool_proj (in-place)
I1222 11:49:28.392541  9024 net.cpp:122] Setting up inception_3a_pool_proj_bn
I1222 11:49:28.392547  9024 net.cpp:129] Top shape: 1 64 4 13 (3328)
I1222 11:49:28.392550  9024 net.cpp:137] Memory required for data: 1712128
I1222 11:49:28.392578  9024 layer_factory.hpp:77] Creating layer inception_3a_relu_pool_proj
I1222 11:49:28.392585  9024 net.cpp:84] Creating Layer inception_3a_relu_pool_proj
I1222 11:49:28.392588  9024 net.cpp:406] inception_3a_relu_pool_proj <- inception_3a_pool_proj
I1222 11:49:28.392593  9024 net.cpp:367] inception_3a_relu_pool_proj -> inception_3a_pool_proj (in-place)
I1222 11:49:28.392765  9024 net.cpp:122] Setting up inception_3a_relu_pool_proj
I1222 11:49:28.392772  9024 net.cpp:129] Top shape: 1 64 4 13 (3328)
I1222 11:49:28.392776  9024 net.cpp:137] Memory required for data: 1725440
I1222 11:49:28.392778  9024 layer_factory.hpp:77] Creating layer inception_3a_output
I1222 11:49:28.392783  9024 net.cpp:84] Creating Layer inception_3a_output
I1222 11:49:28.392787  9024 net.cpp:406] inception_3a_output <- inception_3a_1x1
I1222 11:49:28.392791  9024 net.cpp:406] inception_3a_output <- inception_3a_3x3
I1222 11:49:28.392796  9024 net.cpp:406] inception_3a_output <- inception_3a_pool_proj
I1222 11:49:28.392801  9024 net.cpp:380] inception_3a_output -> inception_3a_output
I1222 11:49:28.392849  9024 net.cpp:122] Setting up inception_3a_output
I1222 11:49:28.392854  9024 net.cpp:129] Top shape: 1 384 4 13 (19968)
I1222 11:49:28.392858  9024 net.cpp:137] Memory required for data: 1805312
I1222 11:49:28.392874  9024 layer_factory.hpp:77] Creating layer inception_3a_output_inception_3a_output_0_split
I1222 11:49:28.392879  9024 net.cpp:84] Creating Layer inception_3a_output_inception_3a_output_0_split
I1222 11:49:28.392881  9024 net.cpp:406] inception_3a_output_inception_3a_output_0_split <- inception_3a_output
I1222 11:49:28.392910  9024 net.cpp:380] inception_3a_output_inception_3a_output_0_split -> inception_3a_output_inception_3a_output_0_split_0
I1222 11:49:28.392930  9024 net.cpp:380] inception_3a_output_inception_3a_output_0_split -> inception_3a_output_inception_3a_output_0_split_1
I1222 11:49:28.392937  9024 net.cpp:380] inception_3a_output_inception_3a_output_0_split -> inception_3a_output_inception_3a_output_0_split_2
I1222 11:49:28.392956  9024 net.cpp:380] inception_3a_output_inception_3a_output_0_split -> inception_3a_output_inception_3a_output_0_split_3
I1222 11:49:28.393002  9024 net.cpp:122] Setting up inception_3a_output_inception_3a_output_0_split
I1222 11:49:28.393007  9024 net.cpp:129] Top shape: 1 384 4 13 (19968)
I1222 11:49:28.393012  9024 net.cpp:129] Top shape: 1 384 4 13 (19968)
I1222 11:49:28.393015  9024 net.cpp:129] Top shape: 1 384 4 13 (19968)
I1222 11:49:28.393019  9024 net.cpp:129] Top shape: 1 384 4 13 (19968)
I1222 11:49:28.393023  9024 net.cpp:137] Memory required for data: 2124800
I1222 11:49:28.393025  9024 layer_factory.hpp:77] Creating layer inception_3b_1x1
I1222 11:49:28.393038  9024 net.cpp:84] Creating Layer inception_3b_1x1
I1222 11:49:28.393040  9024 net.cpp:406] inception_3b_1x1 <- inception_3a_output_inception_3a_output_0_split_0
I1222 11:49:28.393046  9024 net.cpp:380] inception_3b_1x1 -> inception_3b_1x1
I1222 11:49:28.394711  9024 net.cpp:122] Setting up inception_3b_1x1
I1222 11:49:28.394726  9024 net.cpp:129] Top shape: 1 64 4 13 (3328)
I1222 11:49:28.394729  9024 net.cpp:137] Memory required for data: 2138112
I1222 11:49:28.394739  9024 layer_factory.hpp:77] Creating layer inception_3b_1x1_bn
I1222 11:49:28.394748  9024 net.cpp:84] Creating Layer inception_3b_1x1_bn
I1222 11:49:28.394755  9024 net.cpp:406] inception_3b_1x1_bn <- inception_3b_1x1
I1222 11:49:28.394762  9024 net.cpp:367] inception_3b_1x1_bn -> inception_3b_1x1 (in-place)
I1222 11:49:28.394935  9024 net.cpp:122] Setting up inception_3b_1x1_bn
I1222 11:49:28.394942  9024 net.cpp:129] Top shape: 1 64 4 13 (3328)
I1222 11:49:28.394943  9024 net.cpp:137] Memory required for data: 2151424
I1222 11:49:28.394963  9024 layer_factory.hpp:77] Creating layer inception_3b_relu_1x1
I1222 11:49:28.394976  9024 net.cpp:84] Creating Layer inception_3b_relu_1x1
I1222 11:49:28.394979  9024 net.cpp:406] inception_3b_relu_1x1 <- inception_3b_1x1
I1222 11:49:28.394984  9024 net.cpp:367] inception_3b_relu_1x1 -> inception_3b_1x1 (in-place)
I1222 11:49:28.395153  9024 net.cpp:122] Setting up inception_3b_relu_1x1
I1222 11:49:28.395160  9024 net.cpp:129] Top shape: 1 64 4 13 (3328)
I1222 11:49:28.395164  9024 net.cpp:137] Memory required for data: 2164736
I1222 11:49:28.395180  9024 layer_factory.hpp:77] Creating layer inception_3b_3x3_reduce
I1222 11:49:28.395191  9024 net.cpp:84] Creating Layer inception_3b_3x3_reduce
I1222 11:49:28.395195  9024 net.cpp:406] inception_3b_3x3_reduce <- inception_3a_output_inception_3a_output_0_split_1
I1222 11:49:28.395205  9024 net.cpp:380] inception_3b_3x3_reduce -> inception_3b_3x3_reduce
I1222 11:49:28.396292  9024 net.cpp:122] Setting up inception_3b_3x3_reduce
I1222 11:49:28.396303  9024 net.cpp:129] Top shape: 1 96 4 13 (4992)
I1222 11:49:28.396307  9024 net.cpp:137] Memory required for data: 2184704
I1222 11:49:28.396313  9024 layer_factory.hpp:77] Creating layer inception_3b_3x3_reduce_bn
I1222 11:49:28.396322  9024 net.cpp:84] Creating Layer inception_3b_3x3_reduce_bn
I1222 11:49:28.396325  9024 net.cpp:406] inception_3b_3x3_reduce_bn <- inception_3b_3x3_reduce
I1222 11:49:28.396330  9024 net.cpp:367] inception_3b_3x3_reduce_bn -> inception_3b_3x3_reduce (in-place)
I1222 11:49:28.396486  9024 net.cpp:122] Setting up inception_3b_3x3_reduce_bn
I1222 11:49:28.396493  9024 net.cpp:129] Top shape: 1 96 4 13 (4992)
I1222 11:49:28.396497  9024 net.cpp:137] Memory required for data: 2204672
I1222 11:49:28.396503  9024 layer_factory.hpp:77] Creating layer inception_3b_relu_3x3_reduce
I1222 11:49:28.396508  9024 net.cpp:84] Creating Layer inception_3b_relu_3x3_reduce
I1222 11:49:28.396512  9024 net.cpp:406] inception_3b_relu_3x3_reduce <- inception_3b_3x3_reduce
I1222 11:49:28.396517  9024 net.cpp:367] inception_3b_relu_3x3_reduce -> inception_3b_3x3_reduce (in-place)
I1222 11:49:28.398000  9024 net.cpp:122] Setting up inception_3b_relu_3x3_reduce
I1222 11:49:28.398010  9024 net.cpp:129] Top shape: 1 96 4 13 (4992)
I1222 11:49:28.398012  9024 net.cpp:137] Memory required for data: 2224640
I1222 11:49:28.398016  9024 layer_factory.hpp:77] Creating layer inception_3b_3x3
I1222 11:49:28.398026  9024 net.cpp:84] Creating Layer inception_3b_3x3
I1222 11:49:28.398031  9024 net.cpp:406] inception_3b_3x3 <- inception_3b_3x3_reduce
I1222 11:49:28.398041  9024 net.cpp:380] inception_3b_3x3 -> inception_3b_3x3
I1222 11:49:28.399793  9024 net.cpp:122] Setting up inception_3b_3x3
I1222 11:49:28.399804  9024 net.cpp:129] Top shape: 1 160 4 13 (8320)
I1222 11:49:28.399807  9024 net.cpp:137] Memory required for data: 2257920
I1222 11:49:28.399814  9024 layer_factory.hpp:77] Creating layer inception_3b_3x3_bn
I1222 11:49:28.399839  9024 net.cpp:84] Creating Layer inception_3b_3x3_bn
I1222 11:49:28.399843  9024 net.cpp:406] inception_3b_3x3_bn <- inception_3b_3x3
I1222 11:49:28.399850  9024 net.cpp:367] inception_3b_3x3_bn -> inception_3b_3x3 (in-place)
I1222 11:49:28.400019  9024 net.cpp:122] Setting up inception_3b_3x3_bn
I1222 11:49:28.400025  9024 net.cpp:129] Top shape: 1 160 4 13 (8320)
I1222 11:49:28.400028  9024 net.cpp:137] Memory required for data: 2291200
I1222 11:49:28.400055  9024 layer_factory.hpp:77] Creating layer inception_3b_relu_3x3
I1222 11:49:28.400063  9024 net.cpp:84] Creating Layer inception_3b_relu_3x3
I1222 11:49:28.400068  9024 net.cpp:406] inception_3b_relu_3x3 <- inception_3b_3x3
I1222 11:49:28.400074  9024 net.cpp:367] inception_3b_relu_3x3 -> inception_3b_3x3 (in-place)
I1222 11:49:28.400229  9024 net.cpp:122] Setting up inception_3b_relu_3x3
I1222 11:49:28.400236  9024 net.cpp:129] Top shape: 1 160 4 13 (8320)
I1222 11:49:28.400239  9024 net.cpp:137] Memory required for data: 2324480
I1222 11:49:28.400243  9024 layer_factory.hpp:77] Creating layer inception_3b_pool
I1222 11:49:28.400267  9024 net.cpp:84] Creating Layer inception_3b_pool
I1222 11:49:28.400272  9024 net.cpp:406] inception_3b_pool <- inception_3a_output_inception_3a_output_0_split_2
I1222 11:49:28.400279  9024 net.cpp:380] inception_3b_pool -> inception_3b_pool
I1222 11:49:28.400327  9024 net.cpp:122] Setting up inception_3b_pool
I1222 11:49:28.400333  9024 net.cpp:129] Top shape: 1 384 4 13 (19968)
I1222 11:49:28.400336  9024 net.cpp:137] Memory required for data: 2404352
I1222 11:49:28.400339  9024 layer_factory.hpp:77] Creating layer inception_3b_pool_proj
I1222 11:49:28.400367  9024 net.cpp:84] Creating Layer inception_3b_pool_proj
I1222 11:49:28.400372  9024 net.cpp:406] inception_3b_pool_proj <- inception_3b_pool
I1222 11:49:28.400379  9024 net.cpp:380] inception_3b_pool_proj -> inception_3b_pool_proj
I1222 11:49:28.401335  9024 net.cpp:122] Setting up inception_3b_pool_proj
I1222 11:49:28.401345  9024 net.cpp:129] Top shape: 1 32 4 13 (1664)
I1222 11:49:28.401348  9024 net.cpp:137] Memory required for data: 2411008
I1222 11:49:28.401373  9024 layer_factory.hpp:77] Creating layer inception_3b_pool_proj_bn
I1222 11:49:28.401379  9024 net.cpp:84] Creating Layer inception_3b_pool_proj_bn
I1222 11:49:28.401383  9024 net.cpp:406] inception_3b_pool_proj_bn <- inception_3b_pool_proj
I1222 11:49:28.401408  9024 net.cpp:367] inception_3b_pool_proj_bn -> inception_3b_pool_proj (in-place)
I1222 11:49:28.401558  9024 net.cpp:122] Setting up inception_3b_pool_proj_bn
I1222 11:49:28.401564  9024 net.cpp:129] Top shape: 1 32 4 13 (1664)
I1222 11:49:28.401567  9024 net.cpp:137] Memory required for data: 2417664
I1222 11:49:28.401573  9024 layer_factory.hpp:77] Creating layer inception_3b_relu_pool_proj
I1222 11:49:28.401578  9024 net.cpp:84] Creating Layer inception_3b_relu_pool_proj
I1222 11:49:28.401582  9024 net.cpp:406] inception_3b_relu_pool_proj <- inception_3b_pool_proj
I1222 11:49:28.401588  9024 net.cpp:367] inception_3b_relu_pool_proj -> inception_3b_pool_proj (in-place)
I1222 11:49:28.401721  9024 net.cpp:122] Setting up inception_3b_relu_pool_proj
I1222 11:49:28.401728  9024 net.cpp:129] Top shape: 1 32 4 13 (1664)
I1222 11:49:28.401732  9024 net.cpp:137] Memory required for data: 2424320
I1222 11:49:28.401736  9024 layer_factory.hpp:77] Creating layer inception_3b_output
I1222 11:49:28.401742  9024 net.cpp:84] Creating Layer inception_3b_output
I1222 11:49:28.401746  9024 net.cpp:406] inception_3b_output <- inception_3b_1x1
I1222 11:49:28.401751  9024 net.cpp:406] inception_3b_output <- inception_3b_3x3
I1222 11:49:28.401754  9024 net.cpp:406] inception_3b_output <- inception_3b_pool_proj
I1222 11:49:28.401760  9024 net.cpp:380] inception_3b_output -> inception_3b_output
I1222 11:49:28.401783  9024 net.cpp:122] Setting up inception_3b_output
I1222 11:49:28.401789  9024 net.cpp:129] Top shape: 1 256 4 13 (13312)
I1222 11:49:28.401793  9024 net.cpp:137] Memory required for data: 2477568
I1222 11:49:28.401795  9024 layer_factory.hpp:77] Creating layer inception_3b_output_proj
I1222 11:49:28.401805  9024 net.cpp:84] Creating Layer inception_3b_output_proj
I1222 11:49:28.401809  9024 net.cpp:406] inception_3b_output_proj <- inception_3b_output
I1222 11:49:28.401816  9024 net.cpp:380] inception_3b_output_proj -> inception_3b_output_proj
I1222 11:49:28.403122  9024 net.cpp:122] Setting up inception_3b_output_proj
I1222 11:49:28.403132  9024 net.cpp:129] Top shape: 1 384 4 13 (19968)
I1222 11:49:28.403136  9024 net.cpp:137] Memory required for data: 2557440
I1222 11:49:28.403142  9024 layer_factory.hpp:77] Creating layer inception_3b_output_sum
I1222 11:49:28.403149  9024 net.cpp:84] Creating Layer inception_3b_output_sum
I1222 11:49:28.403153  9024 net.cpp:406] inception_3b_output_sum <- inception_3b_output_proj
I1222 11:49:28.403158  9024 net.cpp:406] inception_3b_output_sum <- inception_3a_output_inception_3a_output_0_split_3
I1222 11:49:28.403178  9024 net.cpp:380] inception_3b_output_sum -> inception_3b_output_sum
I1222 11:49:28.403208  9024 net.cpp:122] Setting up inception_3b_output_sum
I1222 11:49:28.403213  9024 net.cpp:129] Top shape: 1 384 4 13 (19968)
I1222 11:49:28.403216  9024 net.cpp:137] Memory required for data: 2637312
I1222 11:49:28.403219  9024 layer_factory.hpp:77] Creating layer inception_3b_output_sum_inception_3b_output_sum_0_split
I1222 11:49:28.403225  9024 net.cpp:84] Creating Layer inception_3b_output_sum_inception_3b_output_sum_0_split
I1222 11:49:28.403229  9024 net.cpp:406] inception_3b_output_sum_inception_3b_output_sum_0_split <- inception_3b_output_sum
I1222 11:49:28.403235  9024 net.cpp:380] inception_3b_output_sum_inception_3b_output_sum_0_split -> inception_3b_output_sum_inception_3b_output_sum_0_split_0
I1222 11:49:28.403242  9024 net.cpp:380] inception_3b_output_sum_inception_3b_output_sum_0_split -> inception_3b_output_sum_inception_3b_output_sum_0_split_1
I1222 11:49:28.403251  9024 net.cpp:380] inception_3b_output_sum_inception_3b_output_sum_0_split -> inception_3b_output_sum_inception_3b_output_sum_0_split_2
I1222 11:49:28.403261  9024 net.cpp:380] inception_3b_output_sum_inception_3b_output_sum_0_split -> inception_3b_output_sum_inception_3b_output_sum_0_split_3
I1222 11:49:28.403313  9024 net.cpp:122] Setting up inception_3b_output_sum_inception_3b_output_sum_0_split
I1222 11:49:28.403318  9024 net.cpp:129] Top shape: 1 384 4 13 (19968)
I1222 11:49:28.403323  9024 net.cpp:129] Top shape: 1 384 4 13 (19968)
I1222 11:49:28.403327  9024 net.cpp:129] Top shape: 1 384 4 13 (19968)
I1222 11:49:28.403331  9024 net.cpp:129] Top shape: 1 384 4 13 (19968)
I1222 11:49:28.403334  9024 net.cpp:137] Memory required for data: 2956800
I1222 11:49:28.403337  9024 layer_factory.hpp:77] Creating layer inception_3c_1x1
I1222 11:49:28.403347  9024 net.cpp:84] Creating Layer inception_3c_1x1
I1222 11:49:28.403352  9024 net.cpp:406] inception_3c_1x1 <- inception_3b_output_sum_inception_3b_output_sum_0_split_0
I1222 11:49:28.403358  9024 net.cpp:380] inception_3c_1x1 -> inception_3c_1x1
I1222 11:49:28.404450  9024 net.cpp:122] Setting up inception_3c_1x1
I1222 11:49:28.404461  9024 net.cpp:129] Top shape: 1 64 4 13 (3328)
I1222 11:49:28.404464  9024 net.cpp:137] Memory required for data: 2970112
I1222 11:49:28.404472  9024 layer_factory.hpp:77] Creating layer inception_3c_1x1_bn
I1222 11:49:28.404489  9024 net.cpp:84] Creating Layer inception_3c_1x1_bn
I1222 11:49:28.404495  9024 net.cpp:406] inception_3c_1x1_bn <- inception_3c_1x1
I1222 11:49:28.404500  9024 net.cpp:367] inception_3c_1x1_bn -> inception_3c_1x1 (in-place)
I1222 11:49:28.404664  9024 net.cpp:122] Setting up inception_3c_1x1_bn
I1222 11:49:28.404670  9024 net.cpp:129] Top shape: 1 64 4 13 (3328)
I1222 11:49:28.404673  9024 net.cpp:137] Memory required for data: 2983424
I1222 11:49:28.404692  9024 layer_factory.hpp:77] Creating layer inception_3c_relu_1x1
I1222 11:49:28.404700  9024 net.cpp:84] Creating Layer inception_3c_relu_1x1
I1222 11:49:28.404703  9024 net.cpp:406] inception_3c_relu_1x1 <- inception_3c_1x1
I1222 11:49:28.404708  9024 net.cpp:367] inception_3c_relu_1x1 -> inception_3c_1x1 (in-place)
I1222 11:49:28.404909  9024 net.cpp:122] Setting up inception_3c_relu_1x1
I1222 11:49:28.404917  9024 net.cpp:129] Top shape: 1 64 4 13 (3328)
I1222 11:49:28.404919  9024 net.cpp:137] Memory required for data: 2996736
I1222 11:49:28.404922  9024 layer_factory.hpp:77] Creating layer inception_3c_3x3_reduce
I1222 11:49:28.404945  9024 net.cpp:84] Creating Layer inception_3c_3x3_reduce
I1222 11:49:28.404950  9024 net.cpp:406] inception_3c_3x3_reduce <- inception_3b_output_sum_inception_3b_output_sum_0_split_1
I1222 11:49:28.404958  9024 net.cpp:380] inception_3c_3x3_reduce -> inception_3c_3x3_reduce
I1222 11:49:28.406069  9024 net.cpp:122] Setting up inception_3c_3x3_reduce
I1222 11:49:28.406077  9024 net.cpp:129] Top shape: 1 96 4 13 (4992)
I1222 11:49:28.406080  9024 net.cpp:137] Memory required for data: 3016704
I1222 11:49:28.406100  9024 layer_factory.hpp:77] Creating layer inception_3c_3x3_reduce_bn
I1222 11:49:28.406107  9024 net.cpp:84] Creating Layer inception_3c_3x3_reduce_bn
I1222 11:49:28.406133  9024 net.cpp:406] inception_3c_3x3_reduce_bn <- inception_3c_3x3_reduce
I1222 11:49:28.406141  9024 net.cpp:367] inception_3c_3x3_reduce_bn -> inception_3c_3x3_reduce (in-place)
I1222 11:49:28.406335  9024 net.cpp:122] Setting up inception_3c_3x3_reduce_bn
I1222 11:49:28.406340  9024 net.cpp:129] Top shape: 1 96 4 13 (4992)
I1222 11:49:28.406343  9024 net.cpp:137] Memory required for data: 3036672
I1222 11:49:28.406369  9024 layer_factory.hpp:77] Creating layer inception_3c_relu_3x3_reduce
I1222 11:49:28.406375  9024 net.cpp:84] Creating Layer inception_3c_relu_3x3_reduce
I1222 11:49:28.406392  9024 net.cpp:406] inception_3c_relu_3x3_reduce <- inception_3c_3x3_reduce
I1222 11:49:28.406396  9024 net.cpp:367] inception_3c_relu_3x3_reduce -> inception_3c_3x3_reduce (in-place)
I1222 11:49:28.406555  9024 net.cpp:122] Setting up inception_3c_relu_3x3_reduce
I1222 11:49:28.406563  9024 net.cpp:129] Top shape: 1 96 4 13 (4992)
I1222 11:49:28.406565  9024 net.cpp:137] Memory required for data: 3056640
I1222 11:49:28.406569  9024 layer_factory.hpp:77] Creating layer inception_3c_3x3
I1222 11:49:28.406591  9024 net.cpp:84] Creating Layer inception_3c_3x3
I1222 11:49:28.406595  9024 net.cpp:406] inception_3c_3x3 <- inception_3c_3x3_reduce
I1222 11:49:28.406603  9024 net.cpp:380] inception_3c_3x3 -> inception_3c_3x3
I1222 11:49:28.409220  9024 net.cpp:122] Setting up inception_3c_3x3
I1222 11:49:28.409236  9024 net.cpp:129] Top shape: 1 160 4 13 (8320)
I1222 11:49:28.409240  9024 net.cpp:137] Memory required for data: 3089920
I1222 11:49:28.409248  9024 layer_factory.hpp:77] Creating layer inception_3c_3x3_bn
I1222 11:49:28.409258  9024 net.cpp:84] Creating Layer inception_3c_3x3_bn
I1222 11:49:28.409263  9024 net.cpp:406] inception_3c_3x3_bn <- inception_3c_3x3
I1222 11:49:28.409270  9024 net.cpp:367] inception_3c_3x3_bn -> inception_3c_3x3 (in-place)
I1222 11:49:28.409445  9024 net.cpp:122] Setting up inception_3c_3x3_bn
I1222 11:49:28.409451  9024 net.cpp:129] Top shape: 1 160 4 13 (8320)
I1222 11:49:28.409454  9024 net.cpp:137] Memory required for data: 3123200
I1222 11:49:28.409461  9024 layer_factory.hpp:77] Creating layer inception_3c_relu_3x3
I1222 11:49:28.409489  9024 net.cpp:84] Creating Layer inception_3c_relu_3x3
I1222 11:49:28.409495  9024 net.cpp:406] inception_3c_relu_3x3 <- inception_3c_3x3
I1222 11:49:28.409499  9024 net.cpp:367] inception_3c_relu_3x3 -> inception_3c_3x3 (in-place)
I1222 11:49:28.409687  9024 net.cpp:122] Setting up inception_3c_relu_3x3
I1222 11:49:28.409700  9024 net.cpp:129] Top shape: 1 160 4 13 (8320)
I1222 11:49:28.409704  9024 net.cpp:137] Memory required for data: 3156480
I1222 11:49:28.409708  9024 layer_factory.hpp:77] Creating layer inception_3c_pool
I1222 11:49:28.409715  9024 net.cpp:84] Creating Layer inception_3c_pool
I1222 11:49:28.409720  9024 net.cpp:406] inception_3c_pool <- inception_3b_output_sum_inception_3b_output_sum_0_split_2
I1222 11:49:28.409726  9024 net.cpp:380] inception_3c_pool -> inception_3c_pool
I1222 11:49:28.409766  9024 net.cpp:122] Setting up inception_3c_pool
I1222 11:49:28.409771  9024 net.cpp:129] Top shape: 1 384 4 13 (19968)
I1222 11:49:28.409775  9024 net.cpp:137] Memory required for data: 3236352
I1222 11:49:28.409777  9024 layer_factory.hpp:77] Creating layer inception_3c_pool_proj
I1222 11:49:28.409788  9024 net.cpp:84] Creating Layer inception_3c_pool_proj
I1222 11:49:28.409793  9024 net.cpp:406] inception_3c_pool_proj <- inception_3c_pool
I1222 11:49:28.409801  9024 net.cpp:380] inception_3c_pool_proj -> inception_3c_pool_proj
I1222 11:49:28.411182  9024 net.cpp:122] Setting up inception_3c_pool_proj
I1222 11:49:28.411195  9024 net.cpp:129] Top shape: 1 32 4 13 (1664)
I1222 11:49:28.411197  9024 net.cpp:137] Memory required for data: 3243008
I1222 11:49:28.411206  9024 layer_factory.hpp:77] Creating layer inception_3c_pool_proj_bn
I1222 11:49:28.411214  9024 net.cpp:84] Creating Layer inception_3c_pool_proj_bn
I1222 11:49:28.411221  9024 net.cpp:406] inception_3c_pool_proj_bn <- inception_3c_pool_proj
I1222 11:49:28.411226  9024 net.cpp:367] inception_3c_pool_proj_bn -> inception_3c_pool_proj (in-place)
I1222 11:49:28.411388  9024 net.cpp:122] Setting up inception_3c_pool_proj_bn
I1222 11:49:28.411394  9024 net.cpp:129] Top shape: 1 32 4 13 (1664)
I1222 11:49:28.411397  9024 net.cpp:137] Memory required for data: 3249664
I1222 11:49:28.411403  9024 layer_factory.hpp:77] Creating layer inception_3c_relu_pool_proj
I1222 11:49:28.411411  9024 net.cpp:84] Creating Layer inception_3c_relu_pool_proj
I1222 11:49:28.411414  9024 net.cpp:406] inception_3c_relu_pool_proj <- inception_3c_pool_proj
I1222 11:49:28.411418  9024 net.cpp:367] inception_3c_relu_pool_proj -> inception_3c_pool_proj (in-place)
I1222 11:49:28.411871  9024 net.cpp:122] Setting up inception_3c_relu_pool_proj
I1222 11:49:28.411881  9024 net.cpp:129] Top shape: 1 32 4 13 (1664)
I1222 11:49:28.411885  9024 net.cpp:137] Memory required for data: 3256320
I1222 11:49:28.411888  9024 layer_factory.hpp:77] Creating layer inception_3c_output
I1222 11:49:28.411895  9024 net.cpp:84] Creating Layer inception_3c_output
I1222 11:49:28.411900  9024 net.cpp:406] inception_3c_output <- inception_3c_1x1
I1222 11:49:28.411906  9024 net.cpp:406] inception_3c_output <- inception_3c_3x3
I1222 11:49:28.411911  9024 net.cpp:406] inception_3c_output <- inception_3c_pool_proj
I1222 11:49:28.411916  9024 net.cpp:380] inception_3c_output -> inception_3c_output
I1222 11:49:28.411947  9024 net.cpp:122] Setting up inception_3c_output
I1222 11:49:28.411952  9024 net.cpp:129] Top shape: 1 256 4 13 (13312)
I1222 11:49:28.411955  9024 net.cpp:137] Memory required for data: 3309568
I1222 11:49:28.411958  9024 layer_factory.hpp:77] Creating layer inception_3c_output_proj
I1222 11:49:28.411969  9024 net.cpp:84] Creating Layer inception_3c_output_proj
I1222 11:49:28.411973  9024 net.cpp:406] inception_3c_output_proj <- inception_3c_output
I1222 11:49:28.411980  9024 net.cpp:380] inception_3c_output_proj -> inception_3c_output_proj
I1222 11:49:28.413022  9024 net.cpp:122] Setting up inception_3c_output_proj
I1222 11:49:28.413030  9024 net.cpp:129] Top shape: 1 384 4 13 (19968)
I1222 11:49:28.413033  9024 net.cpp:137] Memory required for data: 3389440
I1222 11:49:28.413040  9024 layer_factory.hpp:77] Creating layer inception_3c_output_sum
I1222 11:49:28.413048  9024 net.cpp:84] Creating Layer inception_3c_output_sum
I1222 11:49:28.413071  9024 net.cpp:406] inception_3c_output_sum <- inception_3c_output_proj
I1222 11:49:28.413076  9024 net.cpp:406] inception_3c_output_sum <- inception_3b_output_sum_inception_3b_output_sum_0_split_3
I1222 11:49:28.413081  9024 net.cpp:380] inception_3c_output_sum -> inception_3c_output_sum
I1222 11:49:28.413107  9024 net.cpp:122] Setting up inception_3c_output_sum
I1222 11:49:28.413113  9024 net.cpp:129] Top shape: 1 384 4 13 (19968)
I1222 11:49:28.413116  9024 net.cpp:137] Memory required for data: 3469312
I1222 11:49:28.413120  9024 layer_factory.hpp:77] Creating layer pool5_ave
I1222 11:49:28.413125  9024 net.cpp:84] Creating Layer pool5_ave
I1222 11:49:28.413128  9024 net.cpp:406] pool5_ave <- inception_3c_output_sum
I1222 11:49:28.413136  9024 net.cpp:380] pool5_ave -> pool5_ave
I1222 11:49:28.413645  9024 net.cpp:122] Setting up pool5_ave
I1222 11:49:28.413656  9024 net.cpp:129] Top shape: 1 384 1 13 (4992)
I1222 11:49:28.413660  9024 net.cpp:137] Memory required for data: 3489280
I1222 11:49:28.413663  9024 layer_factory.hpp:77] Creating layer pool5_ave_transpose
I1222 11:49:28.413674  9024 net.cpp:84] Creating Layer pool5_ave_transpose
I1222 11:49:28.413679  9024 net.cpp:406] pool5_ave_transpose <- pool5_ave
I1222 11:49:28.413686  9024 net.cpp:380] pool5_ave_transpose -> pool5_ave_transpose
I1222 11:49:28.413799  9024 net.cpp:122] Setting up pool5_ave_transpose
I1222 11:49:28.413805  9024 net.cpp:129] Top shape: 13 1 1 384 (4992)
I1222 11:49:28.413807  9024 net.cpp:137] Memory required for data: 3509248
I1222 11:49:28.413811  9024 layer_factory.hpp:77] Creating layer blstm_input
I1222 11:49:28.413820  9024 net.cpp:84] Creating Layer blstm_input
I1222 11:49:28.413822  9024 net.cpp:406] blstm_input <- pool5_ave_transpose
I1222 11:49:28.413830  9024 net.cpp:380] blstm_input -> blstm_input
I1222 11:49:28.413856  9024 net.cpp:122] Setting up blstm_input
I1222 11:49:28.413861  9024 net.cpp:129] Top shape: 13 1 384 (4992)
I1222 11:49:28.413863  9024 net.cpp:137] Memory required for data: 3529216
I1222 11:49:28.413866  9024 layer_factory.hpp:77] Creating layer blstm_input_blstm_input_0_split
I1222 11:49:28.413873  9024 net.cpp:84] Creating Layer blstm_input_blstm_input_0_split
I1222 11:49:28.413877  9024 net.cpp:406] blstm_input_blstm_input_0_split <- blstm_input
I1222 11:49:28.413882  9024 net.cpp:380] blstm_input_blstm_input_0_split -> blstm_input_blstm_input_0_split_0
I1222 11:49:28.413889  9024 net.cpp:380] blstm_input_blstm_input_0_split -> blstm_input_blstm_input_0_split_1
I1222 11:49:28.413923  9024 net.cpp:122] Setting up blstm_input_blstm_input_0_split
I1222 11:49:28.413928  9024 net.cpp:129] Top shape: 13 1 384 (4992)
I1222 11:49:28.413931  9024 net.cpp:129] Top shape: 13 1 384 (4992)
I1222 11:49:28.413933  9024 net.cpp:137] Memory required for data: 3569152
I1222 11:49:28.413936  9024 layer_factory.hpp:77] Creating layer lstm1
I1222 11:49:28.413944  9024 net.cpp:84] Creating Layer lstm1
I1222 11:49:28.413949  9024 net.cpp:406] lstm1 <- blstm_input_blstm_input_0_split_0
I1222 11:49:28.413955  9024 net.cpp:380] lstm1 -> lstm1
I1222 11:49:28.422108  9024 net.cpp:122] Setting up lstm1
I1222 11:49:28.422123  9024 net.cpp:129] Top shape: 13 1 256 (3328)
I1222 11:49:28.422127  9024 net.cpp:137] Memory required for data: 3582464
I1222 11:49:28.422137  9024 layer_factory.hpp:77] Creating layer lstm1-reverse1
I1222 11:49:28.422150  9024 net.cpp:84] Creating Layer lstm1-reverse1
I1222 11:49:28.422154  9024 net.cpp:406] lstm1-reverse1 <- blstm_input_blstm_input_0_split_1
I1222 11:49:28.422163  9024 net.cpp:380] lstm1-reverse1 -> rlstm1_input
I1222 11:49:28.422214  9024 net.cpp:122] Setting up lstm1-reverse1
I1222 11:49:28.422219  9024 net.cpp:129] Top shape: 13 1 384 (4992)
I1222 11:49:28.422221  9024 net.cpp:137] Memory required for data: 3602432
I1222 11:49:28.422224  9024 layer_factory.hpp:77] Creating layer rlstm1
I1222 11:49:28.422232  9024 net.cpp:84] Creating Layer rlstm1
I1222 11:49:28.422236  9024 net.cpp:406] rlstm1 <- rlstm1_input
I1222 11:49:28.422241  9024 net.cpp:380] rlstm1 -> rlstm1-output
I1222 11:49:28.428737  9024 net.cpp:122] Setting up rlstm1
I1222 11:49:28.428755  9024 net.cpp:129] Top shape: 13 1 256 (3328)
I1222 11:49:28.428757  9024 net.cpp:137] Memory required for data: 3615744
I1222 11:49:28.428767  9024 layer_factory.hpp:77] Creating layer lstm1-reverse2
I1222 11:49:28.428778  9024 net.cpp:84] Creating Layer lstm1-reverse2
I1222 11:49:28.428784  9024 net.cpp:406] lstm1-reverse2 <- rlstm1-output
I1222 11:49:28.428794  9024 net.cpp:380] lstm1-reverse2 -> rlstm1
I1222 11:49:28.428846  9024 net.cpp:122] Setting up lstm1-reverse2
I1222 11:49:28.428851  9024 net.cpp:129] Top shape: 13 1 256 (3328)
I1222 11:49:28.428867  9024 net.cpp:137] Memory required for data: 3629056
I1222 11:49:28.428870  9024 layer_factory.hpp:77] Creating layer blstm1
I1222 11:49:28.428891  9024 net.cpp:84] Creating Layer blstm1
I1222 11:49:28.428895  9024 net.cpp:406] blstm1 <- lstm1
I1222 11:49:28.428900  9024 net.cpp:406] blstm1 <- rlstm1
I1222 11:49:28.428905  9024 net.cpp:380] blstm1 -> blstm1
I1222 11:49:28.428966  9024 net.cpp:122] Setting up blstm1
I1222 11:49:28.428970  9024 net.cpp:129] Top shape: 13 1 512 (6656)
I1222 11:49:28.428973  9024 net.cpp:137] Memory required for data: 3655680
I1222 11:49:28.428977  9024 layer_factory.hpp:77] Creating layer blstm1_blstm1_0_split
I1222 11:49:28.428999  9024 net.cpp:84] Creating Layer blstm1_blstm1_0_split
I1222 11:49:28.429003  9024 net.cpp:406] blstm1_blstm1_0_split <- blstm1
I1222 11:49:28.429008  9024 net.cpp:380] blstm1_blstm1_0_split -> blstm1_blstm1_0_split_0
I1222 11:49:28.429014  9024 net.cpp:380] blstm1_blstm1_0_split -> blstm1_blstm1_0_split_1
I1222 11:49:28.429023  9024 net.cpp:380] blstm1_blstm1_0_split -> blstm1_blstm1_0_split_2
I1222 11:49:28.429066  9024 net.cpp:122] Setting up blstm1_blstm1_0_split
I1222 11:49:28.429071  9024 net.cpp:129] Top shape: 13 1 512 (6656)
I1222 11:49:28.429075  9024 net.cpp:129] Top shape: 13 1 512 (6656)
I1222 11:49:28.429078  9024 net.cpp:129] Top shape: 13 1 512 (6656)
I1222 11:49:28.429081  9024 net.cpp:137] Memory required for data: 3735552
I1222 11:49:28.429085  9024 layer_factory.hpp:77] Creating layer lstm2
I1222 11:49:28.429092  9024 net.cpp:84] Creating Layer lstm2
I1222 11:49:28.429096  9024 net.cpp:406] lstm2 <- blstm1_blstm1_0_split_0
I1222 11:49:28.429103  9024 net.cpp:380] lstm2 -> lstm2
I1222 11:49:28.436025  9024 net.cpp:122] Setting up lstm2
I1222 11:49:28.436069  9024 net.cpp:129] Top shape: 13 1 256 (3328)
I1222 11:49:28.436071  9024 net.cpp:137] Memory required for data: 3748864
I1222 11:49:28.436098  9024 layer_factory.hpp:77] Creating layer lstm2-reverse1
I1222 11:49:28.436110  9024 net.cpp:84] Creating Layer lstm2-reverse1
I1222 11:49:28.436136  9024 net.cpp:406] lstm2-reverse1 <- blstm1_blstm1_0_split_1
I1222 11:49:28.436146  9024 net.cpp:380] lstm2-reverse1 -> rlstm2_input
I1222 11:49:28.436202  9024 net.cpp:122] Setting up lstm2-reverse1
I1222 11:49:28.436206  9024 net.cpp:129] Top shape: 13 1 512 (6656)
I1222 11:49:28.436209  9024 net.cpp:137] Memory required for data: 3775488
I1222 11:49:28.436213  9024 layer_factory.hpp:77] Creating layer rlstm2
I1222 11:49:28.436239  9024 net.cpp:84] Creating Layer rlstm2
I1222 11:49:28.436281  9024 net.cpp:406] rlstm2 <- rlstm2_input
I1222 11:49:28.436288  9024 net.cpp:380] rlstm2 -> rlstm2-output
I1222 11:49:28.444257  9024 net.cpp:122] Setting up rlstm2
I1222 11:49:28.444279  9024 net.cpp:129] Top shape: 13 1 256 (3328)
I1222 11:49:28.444283  9024 net.cpp:137] Memory required for data: 3788800
I1222 11:49:28.444310  9024 layer_factory.hpp:77] Creating layer lstm2-reverse2
I1222 11:49:28.444349  9024 net.cpp:84] Creating Layer lstm2-reverse2
I1222 11:49:28.444366  9024 net.cpp:406] lstm2-reverse2 <- rlstm2-output
I1222 11:49:28.444375  9024 net.cpp:380] lstm2-reverse2 -> rlstm2
I1222 11:49:28.444456  9024 net.cpp:122] Setting up lstm2-reverse2
I1222 11:49:28.444474  9024 net.cpp:129] Top shape: 13 1 256 (3328)
I1222 11:49:28.444476  9024 net.cpp:137] Memory required for data: 3802112
I1222 11:49:28.444492  9024 layer_factory.hpp:77] Creating layer blstm2
I1222 11:49:28.444499  9024 net.cpp:84] Creating Layer blstm2
I1222 11:49:28.444525  9024 net.cpp:406] blstm2 <- lstm2
I1222 11:49:28.444530  9024 net.cpp:406] blstm2 <- rlstm2
I1222 11:49:28.444535  9024 net.cpp:380] blstm2 -> blstm2
I1222 11:49:28.444562  9024 net.cpp:122] Setting up blstm2
I1222 11:49:28.444567  9024 net.cpp:129] Top shape: 13 1 512 (6656)
I1222 11:49:28.444583  9024 net.cpp:137] Memory required for data: 3828736
I1222 11:49:28.444586  9024 layer_factory.hpp:77] Creating layer blstm_sum
I1222 11:49:28.444612  9024 net.cpp:84] Creating Layer blstm_sum
I1222 11:49:28.444614  9024 net.cpp:406] blstm_sum <- blstm1_blstm1_0_split_2
I1222 11:49:28.444618  9024 net.cpp:406] blstm_sum <- blstm2
I1222 11:49:28.444625  9024 net.cpp:380] blstm_sum -> blstm_sum
I1222 11:49:28.444648  9024 net.cpp:122] Setting up blstm_sum
I1222 11:49:28.444653  9024 net.cpp:129] Top shape: 13 1 512 (6656)
I1222 11:49:28.444656  9024 net.cpp:137] Memory required for data: 3855360
I1222 11:49:28.444659  9024 layer_factory.hpp:77] Creating layer fc1x5990
I1222 11:49:28.444679  9024 net.cpp:84] Creating Layer fc1x5990
I1222 11:49:28.444682  9024 net.cpp:406] fc1x5990 <- blstm_sum
I1222 11:49:28.444706  9024 net.cpp:380] fc1x5990 -> fc1x5990
I1222 11:49:28.444934  9024 net.cpp:122] Setting up fc1x5990
I1222 11:49:28.444941  9024 net.cpp:129] Top shape: 13 1 37 (481)
I1222 11:49:28.444942  9024 net.cpp:137] Memory required for data: 3857284
I1222 11:49:28.444948  9024 layer_factory.hpp:77] Creating layer result
I1222 11:49:28.444970  9024 net.cpp:84] Creating Layer result
I1222 11:49:28.444974  9024 net.cpp:406] result <- fc1x5990
I1222 11:49:28.444979  9024 net.cpp:380] result -> result
I1222 11:49:28.445004  9024 net.cpp:122] Setting up result
I1222 11:49:28.445009  9024 net.cpp:129] Top shape: 1 13 1 1 (13)
I1222 11:49:28.445024  9024 net.cpp:137] Memory required for data: 3857336
I1222 11:49:28.445029  9024 net.cpp:200] result does not need backward computation.
I1222 11:49:28.445044  9024 net.cpp:200] fc1x5990 does not need backward computation.
I1222 11:49:28.445047  9024 net.cpp:200] blstm_sum does not need backward computation.
I1222 11:49:28.445051  9024 net.cpp:200] blstm2 does not need backward computation.
…
