…
I1222 15:44:07.006722 20975 upgrade_proto.cpp:67] Attempting to upgrade input file specified using deprecated input fields: /home/duan/caffe/caffe_ocr_for_linux-v2/examples/ocr-duan/inception-bn/pla-1/modules/deploy.prototxt
I1222 15:44:07.006834 20975 upgrade_proto.cpp:70] Successfully upgraded file specified using deprecated input fields.
W1222 15:44:07.006839 20975 upgrade_proto.cpp:72] Note that future Caffe releases will only support input layers and not input fields.
I1222 15:44:07.007377 20975 net.cpp:51] Initializing net from parameters: 
name: "inception_bn"
state {
  phase: TEST
  level: 0
}
layer {
  name: "input"
  type: "Input"
  top: "data"
  input_param {
    shape {
      dim: 1
      dim: 3
      dim: 32
      dim: 100
    }
  }
}
layer {
  name: "conv1_7x7_s2"
  type: "Convolution"
  bottom: "data"
  top: "conv1_7x7_s2"
  param {
    lr_mult: 10
    decay_mult: 1
  }
  param {
    lr_mult: 20
    decay_mult: 0
  }
  convolution_param {
    num_output: 32
    pad: 3
    kernel_size: 7
    stride: 2
    weight_filler {
      type: "xavier"
      std: 1
    }
    bias_filler {
      type: "constant"
      value: 0.2
    }
  }
}
layer {
  name: "conv1_7x7_s2_bn"
  type: "BatchNorm"
  bottom: "conv1_7x7_s2"
  top: "conv1_7x7_s2"
}
layer {
  name: "conv1_7x7_relu"
  type: "ReLU"
  bottom: "conv1_7x7_s2"
  top: "conv1_7x7_s2"
}
layer {
  name: "conv1_9x9_s2"
  type: "Convolution"
  bottom: "data"
  top: "conv1_9x9_s2"
  param {
    lr_mult: 10
    decay_mult: 1
  }
  param {
    lr_mult: 20
    decay_mult: 0
  }
  convolution_param {
    num_output: 32
    pad: 4
    kernel_size: 9
    stride: 2
    weight_filler {
      type: "xavier"
      std: 1
    }
    bias_filler {
      type: "constant"
      value: 0.2
    }
  }
}
layer {
  name: "conv1_9x9_s2_bn"
  type: "BatchNorm"
  bottom: "conv1_9x9_s2"
  top: "conv1_9x9_s2"
}
layer {
  name: "conv1_9x9_relu"
  type: "ReLU"
  bottom: "conv1_9x9_s2"
  top: "conv1_9x9_s2"
}
layer {
  name: "conv1_concat"
  type: "Concat"
  bottom: "conv1_7x7_s2"
  bottom: "conv1_9x9_s2"
  top: "conv1_concat"
}
layer {
  name: "pool1_3x3_s2"
  type: "Pooling"
  bottom: "conv1_concat"
  top: "pool1_3x3_s2"
  pooling_param {
    pool: MAX
    kernel_size: 2
    stride_h: 2
    stride_w: 2
  }
}
layer {
  name: "conv2_3x3"
  type: "Convolution"
  bottom: "pool1_3x3_s2"
  top: "conv2_3x3"
  param {
    lr_mult: 10
    decay_mult: 1
  }
  param {
    lr_mult: 20
    decay_mult: 0
  }
  convolution_param {
    num_output: 128
    pad: 1
    kernel_size: 3
    stride: 1
    weight_filler {
      type: "xavier"
      std: 1
    }
    bias_filler {
      type: "constant"
      value: 0.2
    }
  }
}
layer {
  name: "conv2_3x3_bn"
  type: "BatchNorm"
  bottom: "conv2_3x3"
  top: "conv2_3x3"
}
layer {
  name: "conv2_3x3_relu"
  type: "ReLU"
  bottom: "conv2_3x3"
  top: "conv2_3x3"
}
layer {
  name: "pool2_3x3_s2"
  type: "Pooling"
  bottom: "conv2_3x3"
  top: "pool2_3x3_s2"
  pooling_param {
    pool: MAX
    kernel_h: 2
    kernel_w: 2
    stride_h: 2
    stride_w: 2
  }
}
layer {
  name: "inception_3a_1x1"
  type: "Convolution"
  bottom: "pool2_3x3_s2"
  top: "inception_3a_1x1"
  param {
    lr_mult: 10
    decay_mult: 1
  }
  param {
    lr_mult: 20
    decay_mult: 0
  }
  convolution_param {
    num_output: 96
    pad: 0
    kernel_size: 1
    stride: 1
    weight_filler {
      type: "xavier"
      std: 1
    }
    bias_filler {
      type: "constant"
      value: 0.2
    }
  }
}
layer {
  name: "inception_3a_1x1_bn"
  type: "BatchNorm"
  bottom: "inception_3a_1x1"
  top: "inception_3a_1x1"
}
layer {
  name: "inception_3a_relu_1x1"
  type: "ReLU"
  bottom: "inception_3a_1x1"
  top: "inception_3a_1x1"
}
layer {
  name: "inception_3a_3x3_reduce"
  type: "Convolution"
  bottom: "pool2_3x3_s2"
  top: "inception_3a_3x3_reduce"
  param {
    lr_mult: 10
    decay_mult: 1
  }
  param {
    lr_mult: 20
    decay_mult: 0
  }
  convolution_param {
    num_output: 96
    pad: 0
    kernel_size: 1
    stride: 1
    weight_filler {
      type: "xavier"
      std: 1
    }
    bias_filler {
      type: "constant"
      value: 0.2
    }
  }
}
layer {
  name: "inception_3a_3x3_reduce_bn"
  type: "BatchNorm"
  bottom: "inception_3a_3x3_reduce"
  top: "inception_3a_3x3_reduce"
}
layer {
  name: "inception_3a_relu_3x3_reduce"
  type: "ReLU"
  bottom: "inception_3a_3x3_reduce"
  top: "inception_3a_3x3_reduce"
}
layer {
  name: "inception_3a_3x3"
  type: "Convolution"
  bottom: "inception_3a_3x3_reduce"
  top: "inception_3a_3x3"
  param {
    lr_mult: 10
    decay_mult: 1
  }
  param {
    lr_mult: 20
    decay_mult: 0
  }
  convolution_param {
    num_output: 224
    pad: 1
    kernel_size: 3
    stride: 1
    weight_filler {
      type: "xavier"
      std: 1
    }
    bias_filler {
      type: "constant"
      value: 0.2
    }
  }
}
layer {
  name: "inception_3a_3x3_bn"
  type: "BatchNorm"
  bottom: "inception_3a_3x3"
  top: "inception_3a_3x3"
}
layer {
  name: "inception_3a_relu_3x3"
  type: "ReLU"
  bottom: "inception_3a_3x3"
  top: "inception_3a_3x3"
}
layer {
  name: "inception_3a_pool"
  type: "Pooling"
  bottom: "pool2_3x3_s2"
  top: "inception_3a_pool"
  pooling_param {
    pool: MAX
    kernel_size: 3
    stride: 1
    pad: 1
  }
}
layer {
  name: "inception_3a_pool_proj"
  type: "Convolution"
  bottom: "inception_3a_pool"
  top: "inception_3a_pool_proj"
  param {
    lr_mult: 10
    decay_mult: 1
  }
  param {
    lr_mult: 20
    decay_mult: 0
  }
  convolution_param {
    num_output: 64
    pad: 0
    kernel_size: 1
    stride: 1
    weight_filler {
      type: "xavier"
      std: 1
    }
    bias_filler {
      type: "constant"
      value: 0.2
    }
  }
}
layer {
  name: "inception_3a_pool_proj_bn"
  type: "BatchNorm"
  bottom: "inception_3a_pool_proj"
  top: "inception_3a_pool_proj"
}
layer {
  name: "inception_3a_relu_pool_proj"
  type: "ReLU"
  bottom: "inception_3a_pool_proj"
  top: "inception_3a_pool_proj"
}
layer {
  name: "inception_3a_output"
  type: "Concat"
  bottom: "inception_3a_1x1"
  bottom: "inception_3a_3x3"
  bottom: "inception_3a_pool_proj"
  top: "inception_3a_output"
}
layer {
  name: "inception_3b_1x1"
  type: "Convolution"
  bottom: "inception_3a_output"
  top: "inception_3b_1x1"
  param {
    lr_mult: 10
    decay_mult: 1
  }
  param {
    lr_mult: 20
    decay_mult: 0
  }
  convolution_param {
    num_output: 64
    pad: 0
    kernel_size: 1
    stride: 1
    weight_filler {
      type: "xavier"
      std: 1
    }
    bias_filler {
      type: "constant"
      value: 0.2
    }
  }
}
layer {
  name: "inception_3b_1x1_bn"
  type: "BatchNorm"
  bottom: "inception_3b_1x1"
  top: "inception_3b_1x1"
}
layer {
  name: "inception_3b_relu_1x1"
  type: "ReLU"
  bottom: "inception_3b_1x1"
  top: "inception_3b_1x1"
}
layer {
  name: "inception_3b_3x3_reduce"
  type: "Convolution"
  bottom: "inception_3a_output"
  top: "inception_3b_3x3_reduce"
  param {
    lr_mult: 10
    decay_mult: 1
  }
  param {
    lr_mult: 20
    decay_mult: 0
  }
  convolution_param {
    num_output: 96
    pad: 0
    kernel_size: 1
    stride: 1
    weight_filler {
      type: "xavier"
      std: 1
    }
    bias_filler {
      type: "constant"
      value: 0.2
    }
  }
}
layer {
  name: "inception_3b_3x3_reduce_bn"
  type: "BatchNorm"
  bottom: "inception_3b_3x3_reduce"
  top: "inception_3b_3x3_reduce"
}
layer {
  name: "inception_3b_relu_3x3_reduce"
  type: "ReLU"
  bottom: "inception_3b_3x3_reduce"
  top: "inception_3b_3x3_reduce"
}
layer {
  name: "inception_3b_3x3"
  type: "Convolution"
  bottom: "inception_3b_3x3_reduce"
  top: "inception_3b_3x3"
  param {
    lr_mult: 10
    decay_mult: 1
  }
  param {
    lr_mult: 20
    decay_mult: 0
  }
  convolution_param {
    num_output: 160
    pad: 1
    kernel_size: 3
    stride: 1
    weight_filler {
      type: "xavier"
      std: 1
    }
    bias_filler {
      type: "constant"
      value: 0.2
    }
  }
}
layer {
  name: "inception_3b_3x3_bn"
  type: "BatchNorm"
  bottom: "inception_3b_3x3"
  top: "inception_3b_3x3"
}
layer {
  name: "inception_3b_relu_3x3"
  type: "ReLU"
  bottom: "inception_3b_3x3"
  top: "inception_3b_3x3"
}
layer {
  name: "inception_3b_pool"
  type: "Pooling"
  bottom: "inception_3a_output"
  top: "inception_3b_pool"
  pooling_param {
    pool: MAX
    kernel_size: 3
    stride: 1
    pad: 1
  }
}
layer {
  name: "inception_3b_pool_proj"
  type: "Convolution"
  bottom: "inception_3b_pool"
  top: "inception_3b_pool_proj"
  param {
    lr_mult: 10
    decay_mult: 1
  }
  param {
    lr_mult: 20
    decay_mult: 0
  }
  convolution_param {
    num_output: 32
    pad: 0
    kernel_size: 1
    stride: 1
    weight_filler {
      type: "xavier"
      std: 1
    }
    bias_filler {
      type: "constant"
      value: 0.2
    }
  }
}
layer {
  name: "inception_3b_pool_proj_bn"
  type: "BatchNorm"
  bottom: "inception_3b_pool_proj"
  top: "inception_3b_pool_proj"
}
layer {
  name: "inception_3b_relu_pool_proj"
  type: "ReLU"
  bottom: "inception_3b_pool_proj"
  top: "inception_3b_pool_proj"
}
layer {
  name: "inception_3b_output"
  type: "Concat"
  bottom: "inception_3b_1x1"
  bottom: "inception_3b_3x3"
  bottom: "inception_3b_pool_proj"
  top: "inception_3b_output"
}
layer {
  name: "inception_3b_output_proj"
  type: "Convolution"
  bottom: "inception_3b_output"
  top: "inception_3b_output_proj"
  param {
    lr_mult: 10
    decay_mult: 1
  }
  param {
    lr_mult: 20
    decay_mult: 0
  }
  convolution_param {
    num_output: 384
    pad: 0
    kernel_size: 1
    stride: 1
    weight_filler {
      type: "xavier"
      std: 1
    }
    bias_filler {
      type: "constant"
      value: 0.2
    }
  }
}
layer {
  name: "inception_3b_output_sum"
  type: "Eltwise"
  bottom: "inception_3b_output_proj"
  bottom: "inception_3a_output"
  top: "inception_3b_output_sum"
  eltwise_param {
    operation: SUM
  }
}
layer {
  name: "inception_3c_1x1"
  type: "Convolution"
  bottom: "inception_3b_output_sum"
  top: "inception_3c_1x1"
  param {
    lr_mult: 10
    decay_mult: 1
  }
  param {
    lr_mult: 20
    decay_mult: 0
  }
  convolution_param {
    num_output: 64
    pad: 0
    kernel_size: 1
    stride: 1
    weight_filler {
      type: "xavier"
      std: 1
    }
    bias_filler {
      type: "constant"
      value: 0.2
    }
  }
}
layer {
  name: "inception_3c_1x1_bn"
  type: "BatchNorm"
  bottom: "inception_3c_1x1"
  top: "inception_3c_1x1"
}
layer {
  name: "inception_3c_relu_1x1"
  type: "ReLU"
  bottom: "inception_3c_1x1"
  top: "inception_3c_1x1"
}
layer {
  name: "inception_3c_3x3_reduce"
  type: "Convolution"
  bottom: "inception_3b_output_sum"
  top: "inception_3c_3x3_reduce"
  param {
    lr_mult: 10
    decay_mult: 1
  }
  param {
    lr_mult: 20
    decay_mult: 0
  }
  convolution_param {
    num_output: 96
    pad: 0
    kernel_size: 1
    stride: 1
    weight_filler {
      type: "xavier"
      std: 1
    }
    bias_filler {
      type: "constant"
      value: 0.2
    }
  }
}
layer {
  name: "inception_3c_3x3_reduce_bn"
  type: "BatchNorm"
  bottom: "inception_3c_3x3_reduce"
  top: "inception_3c_3x3_reduce"
}
layer {
  name: "inception_3c_relu_3x3_reduce"
  type: "ReLU"
  bottom: "inception_3c_3x3_reduce"
  top: "inception_3c_3x3_reduce"
}
layer {
  name: "inception_3c_3x3"
  type: "Convolution"
  bottom: "inception_3c_3x3_reduce"
  top: "inception_3c_3x3"
  param {
    lr_mult: 10
    decay_mult: 1
  }
  param {
    lr_mult: 20
    decay_mult: 0
  }
  convolution_param {
    num_output: 160
    pad: 1
    kernel_size: 3
    stride: 1
    weight_filler {
      type: "xavier"
      std: 1
    }
    bias_filler {
      type: "constant"
      value: 0.2
    }
  }
}
layer {
  name: "inception_3c_3x3_bn"
  type: "BatchNorm"
  bottom: "inception_3c_3x3"
  top: "inception_3c_3x3"
}
layer {
  name: "inception_3c_relu_3x3"
  type: "ReLU"
  bottom: "inception_3c_3x3"
  top: "inception_3c_3x3"
}
layer {
  name: "inception_3c_pool"
  type: "Pooling"
  bottom: "inception_3b_output_sum"
  top: "inception_3c_pool"
  pooling_param {
    pool: MAX
    kernel_size: 3
    stride: 1
    pad: 1
  }
}
layer {
  name: "inception_3c_pool_proj"
  type: "Convolution"
  bottom: "inception_3c_pool"
  top: "inception_3c_pool_proj"
  param {
    lr_mult: 10
    decay_mult: 1
  }
  param {
    lr_mult: 20
    decay_mult: 0
  }
  convolution_param {
    num_output: 32
    pad: 0
    kernel_size: 1
    stride: 1
    weight_filler {
      type: "xavier"
      std: 1
    }
    bias_filler {
      type: "constant"
      value: 0.2
    }
  }
}
layer {
  name: "inception_3c_pool_proj_bn"
  type: "BatchNorm"
  bottom: "inception_3c_pool_proj"
  top: "inception_3c_pool_proj"
}
layer {
  name: "inception_3c_relu_pool_proj"
  type: "ReLU"
  bottom: "inception_3c_pool_proj"
  top: "inception_3c_pool_proj"
}
layer {
  name: "inception_3c_output"
  type: "Concat"
  bottom: "inception_3c_1x1"
  bottom: "inception_3c_3x3"
  bottom: "inception_3c_pool_proj"
  top: "inception_3c_output"
}
layer {
  name: "inception_3c_output_proj"
  type: "Convolution"
  bottom: "inception_3c_output"
  top: "inception_3c_output_proj"
  param {
    lr_mult: 10
    decay_mult: 1
  }
  param {
    lr_mult: 20
    decay_mult: 0
  }
  convolution_param {
    num_output: 384
    pad: 0
    kernel_size: 1
    stride: 1
    weight_filler {
      type: "xavier"
      std: 1
    }
    bias_filler {
      type: "constant"
      value: 0.2
    }
  }
}
layer {
  name: "inception_3c_output_sum"
  type: "Eltwise"
  bottom: "inception_3c_output_proj"
  bottom: "inception_3b_output_sum"
  top: "inception_3c_output_sum"
  eltwise_param {
    operation: SUM
  }
}
layer {
  name: "pool5_ave"
  type: "Pooling"
  bottom: "inception_3c_output_sum"
  top: "pool5_ave"
  pooling_param {
    pool: AVE
    kernel_h: 4
    kernel_w: 1
    stride_h: 1
    stride_w: 1
  }
}
layer {
  name: "pool5_ave_transpose"
  type: "Transpose"
  bottom: "pool5_ave"
  top: "pool5_ave_transpose"
  transpose_param {
    dim: 3
    dim: 2
    dim: 0
    dim: 1
  }
}
layer {
  name: "blstm_input"
  type: "Reshape"
  bottom: "pool5_ave_transpose"
  top: "blstm_input"
  reshape_param {
    shape {
      dim: -1
    }
    axis: 1
    num_axes: 2
  }
}
layer {
  name: "lstm1"
  type: "Lstm"
  bottom: "blstm_input"
  top: "lstm1"
  lstm_param {
    num_output: 256
    weight_filler {
      type: "gaussian"
      std: 0.1
    }
    bias_filler {
      type: "constant"
    }
  }
}
layer {
  name: "lstm1-reverse1"
  type: "Reverse"
  bottom: "blstm_input"
  top: "rlstm1_input"
  reverse_param {
    axis: 0
  }
}
layer {
  name: "rlstm1"
  type: "Lstm"
  bottom: "rlstm1_input"
  top: "rlstm1-output"
  lstm_param {
    num_output: 256
    weight_filler {
      type: "gaussian"
      std: 0.1
    }
    bias_filler {
      type: "constant"
    }
  }
}
layer {
  name: "lstm1-reverse2"
  type: "Reverse"
  bottom: "rlstm1-output"
  top: "rlstm1"
  reverse_param {
    axis: 0
  }
}
layer {
  name: "blstm1"
  type: "Concat"
  bottom: "lstm1"
  bottom: "rlstm1"
  top: "blstm1"
  concat_param {
    axis: 2
  }
}
layer {
  name: "lstm2"
  type: "Lstm"
  bottom: "blstm1"
  top: "lstm2"
  lstm_param {
    num_output: 256
    weight_filler {
      type: "gaussian"
      std: 0.1
    }
    bias_filler {
      type: "constant"
    }
  }
}
layer {
  name: "lstm2-reverse1"
  type: "Reverse"
  bottom: "blstm1"
  top: "rlstm2_input"
  reverse_param {
    axis: 0
  }
}
layer {
  name: "rlstm2"
  type: "Lstm"
  bottom: "rlstm2_input"
  top: "rlstm2-output"
  lstm_param {
    num_output: 256
    weight_filler {
      type: "gaussian"
      std: 0.1
    }
    bias_filler {
      type: "constant"
    }
  }
}
layer {
  name: "lstm2-reverse2"
  type: "Reverse"
  bottom: "rlstm2-output"
  top: "rlstm2"
  reverse_param {
    axis: 0
  }
}
layer {
  name: "blstm2"
  type: "Concat"
  bottom: "lstm2"
  bottom: "rlstm2"
  top: "blstm2"
  concat_param {
    axis: 2
  }
}
layer {
  name: "blstm_sum"
  type: "Eltwise"
  bottom: "blstm1"
  bottom: "blstm2"
  top: "blstm_sum"
  eltwise_param {
    operation: SUM
  }
}
layer {
  name: "fc1x5990"
  type: "InnerProduct"
  bottom: "blstm_sum"
  top: "fc1x5990"
  param {
    lr_mult: 1
    decay_mult: 1
  }
  param {
    lr_mult: 2
    decay_mult: 0
  }
  inner_product_param {
    num_output: 37
    weight_filler {
      type: "xavier"
    }
    bias_filler {
      type: "constant"
      value: 0
    }
    axis: 2
  }
}
layer {
  name: "result"
  type: "CTCGreedyDecoder"
  bottom: "fc1x5990"
  top: "result"
}
I1222 15:44:07.007668 20975 layer_factory.hpp:77] Creating layer input
I1222 15:44:07.007680 20975 net.cpp:84] Creating Layer input
I1222 15:44:07.007685 20975 net.cpp:380] input -> data
I1222 15:44:07.022761 20975 net.cpp:122] Setting up input
I1222 15:44:07.022797 20975 net.cpp:129] Top shape: 1 3 32 100 (9600)
I1222 15:44:07.022800 20975 net.cpp:137] Memory required for data: 38400
I1222 15:44:07.022830 20975 layer_factory.hpp:77] Creating layer data_input_0_split
I1222 15:44:07.022857 20975 net.cpp:84] Creating Layer data_input_0_split
I1222 15:44:07.022888 20975 net.cpp:406] data_input_0_split <- data
I1222 15:44:07.022902 20975 net.cpp:380] data_input_0_split -> data_input_0_split_0
I1222 15:44:07.022913 20975 net.cpp:380] data_input_0_split -> data_input_0_split_1
I1222 15:44:07.022966 20975 net.cpp:122] Setting up data_input_0_split
I1222 15:44:07.022971 20975 net.cpp:129] Top shape: 1 3 32 100 (9600)
I1222 15:44:07.022974 20975 net.cpp:129] Top shape: 1 3 32 100 (9600)
I1222 15:44:07.022989 20975 net.cpp:137] Memory required for data: 115200
I1222 15:44:07.022990 20975 layer_factory.hpp:77] Creating layer conv1_7x7_s2
I1222 15:44:07.023051 20975 net.cpp:84] Creating Layer conv1_7x7_s2
I1222 15:44:07.023052 20975 net.cpp:406] conv1_7x7_s2 <- data_input_0_split_0
I1222 15:44:07.023066 20975 net.cpp:380] conv1_7x7_s2 -> conv1_7x7_s2
I1222 15:44:07.182468 20975 net.cpp:122] Setting up conv1_7x7_s2
I1222 15:44:07.182510 20975 net.cpp:129] Top shape: 1 32 16 50 (25600)
I1222 15:44:07.182512 20975 net.cpp:137] Memory required for data: 217600
I1222 15:44:07.182564 20975 layer_factory.hpp:77] Creating layer conv1_7x7_s2_bn
I1222 15:44:07.182576 20975 net.cpp:84] Creating Layer conv1_7x7_s2_bn
I1222 15:44:07.182600 20975 net.cpp:406] conv1_7x7_s2_bn <- conv1_7x7_s2
I1222 15:44:07.182607 20975 net.cpp:367] conv1_7x7_s2_bn -> conv1_7x7_s2 (in-place)
I1222 15:44:07.182822 20975 net.cpp:122] Setting up conv1_7x7_s2_bn
I1222 15:44:07.182827 20975 net.cpp:129] Top shape: 1 32 16 50 (25600)
I1222 15:44:07.182828 20975 net.cpp:137] Memory required for data: 320000
I1222 15:44:07.182860 20975 layer_factory.hpp:77] Creating layer conv1_7x7_relu
I1222 15:44:07.182865 20975 net.cpp:84] Creating Layer conv1_7x7_relu
I1222 15:44:07.182868 20975 net.cpp:406] conv1_7x7_relu <- conv1_7x7_s2
I1222 15:44:07.182888 20975 net.cpp:367] conv1_7x7_relu -> conv1_7x7_s2 (in-place)
I1222 15:44:07.183058 20975 net.cpp:122] Setting up conv1_7x7_relu
I1222 15:44:07.183063 20975 net.cpp:129] Top shape: 1 32 16 50 (25600)
I1222 15:44:07.183065 20975 net.cpp:137] Memory required for data: 422400
I1222 15:44:07.183086 20975 layer_factory.hpp:77] Creating layer conv1_9x9_s2
I1222 15:44:07.183095 20975 net.cpp:84] Creating Layer conv1_9x9_s2
I1222 15:44:07.183097 20975 net.cpp:406] conv1_9x9_s2 <- data_input_0_split_1
I1222 15:44:07.183100 20975 net.cpp:380] conv1_9x9_s2 -> conv1_9x9_s2
I1222 15:44:07.184084 20975 net.cpp:122] Setting up conv1_9x9_s2
I1222 15:44:07.184094 20975 net.cpp:129] Top shape: 1 32 16 50 (25600)
I1222 15:44:07.184098 20975 net.cpp:137] Memory required for data: 524800
I1222 15:44:07.184103 20975 layer_factory.hpp:77] Creating layer conv1_9x9_s2_bn
I1222 15:44:07.184108 20975 net.cpp:84] Creating Layer conv1_9x9_s2_bn
I1222 15:44:07.184109 20975 net.cpp:406] conv1_9x9_s2_bn <- conv1_9x9_s2
I1222 15:44:07.184131 20975 net.cpp:367] conv1_9x9_s2_bn -> conv1_9x9_s2 (in-place)
I1222 15:44:07.184314 20975 net.cpp:122] Setting up conv1_9x9_s2_bn
I1222 15:44:07.184320 20975 net.cpp:129] Top shape: 1 32 16 50 (25600)
I1222 15:44:07.184322 20975 net.cpp:137] Memory required for data: 627200
I1222 15:44:07.184346 20975 layer_factory.hpp:77] Creating layer conv1_9x9_relu
I1222 15:44:07.184350 20975 net.cpp:84] Creating Layer conv1_9x9_relu
I1222 15:44:07.184351 20975 net.cpp:406] conv1_9x9_relu <- conv1_9x9_s2
I1222 15:44:07.184355 20975 net.cpp:367] conv1_9x9_relu -> conv1_9x9_s2 (in-place)
I1222 15:44:07.184516 20975 net.cpp:122] Setting up conv1_9x9_relu
I1222 15:44:07.184521 20975 net.cpp:129] Top shape: 1 32 16 50 (25600)
I1222 15:44:07.184523 20975 net.cpp:137] Memory required for data: 729600
I1222 15:44:07.184543 20975 layer_factory.hpp:77] Creating layer conv1_concat
I1222 15:44:07.184547 20975 net.cpp:84] Creating Layer conv1_concat
I1222 15:44:07.184550 20975 net.cpp:406] conv1_concat <- conv1_7x7_s2
I1222 15:44:07.184551 20975 net.cpp:406] conv1_concat <- conv1_9x9_s2
I1222 15:44:07.184554 20975 net.cpp:380] conv1_concat -> conv1_concat
I1222 15:44:07.184589 20975 net.cpp:122] Setting up conv1_concat
I1222 15:44:07.184593 20975 net.cpp:129] Top shape: 1 64 16 50 (51200)
I1222 15:44:07.184595 20975 net.cpp:137] Memory required for data: 934400
I1222 15:44:07.184597 20975 layer_factory.hpp:77] Creating layer pool1_3x3_s2
I1222 15:44:07.184613 20975 net.cpp:84] Creating Layer pool1_3x3_s2
I1222 15:44:07.184615 20975 net.cpp:406] pool1_3x3_s2 <- conv1_concat
I1222 15:44:07.184618 20975 net.cpp:380] pool1_3x3_s2 -> pool1_3x3_s2
I1222 15:44:07.184701 20975 net.cpp:122] Setting up pool1_3x3_s2
I1222 15:44:07.184705 20975 net.cpp:129] Top shape: 1 64 8 25 (12800)
I1222 15:44:07.184707 20975 net.cpp:137] Memory required for data: 985600
I1222 15:44:07.184710 20975 layer_factory.hpp:77] Creating layer conv2_3x3
I1222 15:44:07.184727 20975 net.cpp:84] Creating Layer conv2_3x3
I1222 15:44:07.184729 20975 net.cpp:406] conv2_3x3 <- pool1_3x3_s2
I1222 15:44:07.184732 20975 net.cpp:380] conv2_3x3 -> conv2_3x3
I1222 15:44:07.186784 20975 net.cpp:122] Setting up conv2_3x3
I1222 15:44:07.186818 20975 net.cpp:129] Top shape: 1 128 8 25 (25600)
I1222 15:44:07.186821 20975 net.cpp:137] Memory required for data: 1088000
I1222 15:44:07.186826 20975 layer_factory.hpp:77] Creating layer conv2_3x3_bn
I1222 15:44:07.186851 20975 net.cpp:84] Creating Layer conv2_3x3_bn
I1222 15:44:07.186853 20975 net.cpp:406] conv2_3x3_bn <- conv2_3x3
I1222 15:44:07.186859 20975 net.cpp:367] conv2_3x3_bn -> conv2_3x3 (in-place)
I1222 15:44:07.187034 20975 net.cpp:122] Setting up conv2_3x3_bn
I1222 15:44:07.187039 20975 net.cpp:129] Top shape: 1 128 8 25 (25600)
I1222 15:44:07.187041 20975 net.cpp:137] Memory required for data: 1190400
I1222 15:44:07.187064 20975 layer_factory.hpp:77] Creating layer conv2_3x3_relu
I1222 15:44:07.187068 20975 net.cpp:84] Creating Layer conv2_3x3_relu
I1222 15:44:07.187070 20975 net.cpp:406] conv2_3x3_relu <- conv2_3x3
I1222 15:44:07.187072 20975 net.cpp:367] conv2_3x3_relu -> conv2_3x3 (in-place)
I1222 15:44:07.187533 20975 net.cpp:122] Setting up conv2_3x3_relu
I1222 15:44:07.187541 20975 net.cpp:129] Top shape: 1 128 8 25 (25600)
I1222 15:44:07.187562 20975 net.cpp:137] Memory required for data: 1292800
I1222 15:44:07.187564 20975 layer_factory.hpp:77] Creating layer pool2_3x3_s2
I1222 15:44:07.187569 20975 net.cpp:84] Creating Layer pool2_3x3_s2
I1222 15:44:07.187572 20975 net.cpp:406] pool2_3x3_s2 <- conv2_3x3
I1222 15:44:07.187574 20975 net.cpp:380] pool2_3x3_s2 -> pool2_3x3_s2
I1222 15:44:07.187636 20975 net.cpp:122] Setting up pool2_3x3_s2
I1222 15:44:07.187641 20975 net.cpp:129] Top shape: 1 128 4 13 (6656)
I1222 15:44:07.187644 20975 net.cpp:137] Memory required for data: 1319424
I1222 15:44:07.187645 20975 layer_factory.hpp:77] Creating layer pool2_3x3_s2_pool2_3x3_s2_0_split
I1222 15:44:07.187649 20975 net.cpp:84] Creating Layer pool2_3x3_s2_pool2_3x3_s2_0_split
I1222 15:44:07.187651 20975 net.cpp:406] pool2_3x3_s2_pool2_3x3_s2_0_split <- pool2_3x3_s2
I1222 15:44:07.187654 20975 net.cpp:380] pool2_3x3_s2_pool2_3x3_s2_0_split -> pool2_3x3_s2_pool2_3x3_s2_0_split_0
I1222 15:44:07.187670 20975 net.cpp:380] pool2_3x3_s2_pool2_3x3_s2_0_split -> pool2_3x3_s2_pool2_3x3_s2_0_split_1
I1222 15:44:07.187674 20975 net.cpp:380] pool2_3x3_s2_pool2_3x3_s2_0_split -> pool2_3x3_s2_pool2_3x3_s2_0_split_2
I1222 15:44:07.187739 20975 net.cpp:122] Setting up pool2_3x3_s2_pool2_3x3_s2_0_split
I1222 15:44:07.187742 20975 net.cpp:129] Top shape: 1 128 4 13 (6656)
I1222 15:44:07.187746 20975 net.cpp:129] Top shape: 1 128 4 13 (6656)
I1222 15:44:07.187747 20975 net.cpp:129] Top shape: 1 128 4 13 (6656)
I1222 15:44:07.187749 20975 net.cpp:137] Memory required for data: 1399296
I1222 15:44:07.187750 20975 layer_factory.hpp:77] Creating layer inception_3a_1x1
I1222 15:44:07.187769 20975 net.cpp:84] Creating Layer inception_3a_1x1
I1222 15:44:07.187772 20975 net.cpp:406] inception_3a_1x1 <- pool2_3x3_s2_pool2_3x3_s2_0_split_0
I1222 15:44:07.187793 20975 net.cpp:380] inception_3a_1x1 -> inception_3a_1x1
I1222 15:44:07.189005 20975 net.cpp:122] Setting up inception_3a_1x1
I1222 15:44:07.189014 20975 net.cpp:129] Top shape: 1 96 4 13 (4992)
I1222 15:44:07.189035 20975 net.cpp:137] Memory required for data: 1419264
I1222 15:44:07.189043 20975 layer_factory.hpp:77] Creating layer inception_3a_1x1_bn
I1222 15:44:07.189047 20975 net.cpp:84] Creating Layer inception_3a_1x1_bn
I1222 15:44:07.189050 20975 net.cpp:406] inception_3a_1x1_bn <- inception_3a_1x1
I1222 15:44:07.189074 20975 net.cpp:367] inception_3a_1x1_bn -> inception_3a_1x1 (in-place)
I1222 15:44:07.189237 20975 net.cpp:122] Setting up inception_3a_1x1_bn
I1222 15:44:07.189242 20975 net.cpp:129] Top shape: 1 96 4 13 (4992)
I1222 15:44:07.189244 20975 net.cpp:137] Memory required for data: 1439232
I1222 15:44:07.189266 20975 layer_factory.hpp:77] Creating layer inception_3a_relu_1x1
I1222 15:44:07.189270 20975 net.cpp:84] Creating Layer inception_3a_relu_1x1
I1222 15:44:07.189272 20975 net.cpp:406] inception_3a_relu_1x1 <- inception_3a_1x1
I1222 15:44:07.189275 20975 net.cpp:367] inception_3a_relu_1x1 -> inception_3a_1x1 (in-place)
I1222 15:44:07.189445 20975 net.cpp:122] Setting up inception_3a_relu_1x1
I1222 15:44:07.189451 20975 net.cpp:129] Top shape: 1 96 4 13 (4992)
I1222 15:44:07.189472 20975 net.cpp:137] Memory required for data: 1459200
I1222 15:44:07.189474 20975 layer_factory.hpp:77] Creating layer inception_3a_3x3_reduce
I1222 15:44:07.189481 20975 net.cpp:84] Creating Layer inception_3a_3x3_reduce
I1222 15:44:07.189482 20975 net.cpp:406] inception_3a_3x3_reduce <- pool2_3x3_s2_pool2_3x3_s2_0_split_1
I1222 15:44:07.189504 20975 net.cpp:380] inception_3a_3x3_reduce -> inception_3a_3x3_reduce
I1222 15:44:07.190383 20975 net.cpp:122] Setting up inception_3a_3x3_reduce
I1222 15:44:07.190392 20975 net.cpp:129] Top shape: 1 96 4 13 (4992)
I1222 15:44:07.190412 20975 net.cpp:137] Memory required for data: 1479168
I1222 15:44:07.190416 20975 layer_factory.hpp:77] Creating layer inception_3a_3x3_reduce_bn
I1222 15:44:07.190420 20975 net.cpp:84] Creating Layer inception_3a_3x3_reduce_bn
I1222 15:44:07.190423 20975 net.cpp:406] inception_3a_3x3_reduce_bn <- inception_3a_3x3_reduce
I1222 15:44:07.190426 20975 net.cpp:367] inception_3a_3x3_reduce_bn -> inception_3a_3x3_reduce (in-place)
I1222 15:44:07.190601 20975 net.cpp:122] Setting up inception_3a_3x3_reduce_bn
I1222 15:44:07.190606 20975 net.cpp:129] Top shape: 1 96 4 13 (4992)
I1222 15:44:07.190608 20975 net.cpp:137] Memory required for data: 1499136
I1222 15:44:07.190630 20975 layer_factory.hpp:77] Creating layer inception_3a_relu_3x3_reduce
I1222 15:44:07.190634 20975 net.cpp:84] Creating Layer inception_3a_relu_3x3_reduce
I1222 15:44:07.190636 20975 net.cpp:406] inception_3a_relu_3x3_reduce <- inception_3a_3x3_reduce
I1222 15:44:07.190639 20975 net.cpp:367] inception_3a_relu_3x3_reduce -> inception_3a_3x3_reduce (in-place)
I1222 15:44:07.190798 20975 net.cpp:122] Setting up inception_3a_relu_3x3_reduce
I1222 15:44:07.190802 20975 net.cpp:129] Top shape: 1 96 4 13 (4992)
I1222 15:44:07.190804 20975 net.cpp:137] Memory required for data: 1519104
I1222 15:44:07.190824 20975 layer_factory.hpp:77] Creating layer inception_3a_3x3
I1222 15:44:07.190830 20975 net.cpp:84] Creating Layer inception_3a_3x3
I1222 15:44:07.190832 20975 net.cpp:406] inception_3a_3x3 <- inception_3a_3x3_reduce
I1222 15:44:07.190855 20975 net.cpp:380] inception_3a_3x3 -> inception_3a_3x3
I1222 15:44:07.192790 20975 net.cpp:122] Setting up inception_3a_3x3
I1222 15:44:07.192819 20975 net.cpp:129] Top shape: 1 224 4 13 (11648)
I1222 15:44:07.192821 20975 net.cpp:137] Memory required for data: 1565696
I1222 15:44:07.192827 20975 layer_factory.hpp:77] Creating layer inception_3a_3x3_bn
I1222 15:44:07.192832 20975 net.cpp:84] Creating Layer inception_3a_3x3_bn
I1222 15:44:07.192853 20975 net.cpp:406] inception_3a_3x3_bn <- inception_3a_3x3
I1222 15:44:07.192857 20975 net.cpp:367] inception_3a_3x3_bn -> inception_3a_3x3 (in-place)
I1222 15:44:07.193037 20975 net.cpp:122] Setting up inception_3a_3x3_bn
I1222 15:44:07.193042 20975 net.cpp:129] Top shape: 1 224 4 13 (11648)
I1222 15:44:07.193044 20975 net.cpp:137] Memory required for data: 1612288
I1222 15:44:07.193066 20975 layer_factory.hpp:77] Creating layer inception_3a_relu_3x3
I1222 15:44:07.193071 20975 net.cpp:84] Creating Layer inception_3a_relu_3x3
I1222 15:44:07.193073 20975 net.cpp:406] inception_3a_relu_3x3 <- inception_3a_3x3
I1222 15:44:07.193075 20975 net.cpp:367] inception_3a_relu_3x3 -> inception_3a_3x3 (in-place)
I1222 15:44:07.193212 20975 net.cpp:122] Setting up inception_3a_relu_3x3
I1222 15:44:07.193217 20975 net.cpp:129] Top shape: 1 224 4 13 (11648)
I1222 15:44:07.193218 20975 net.cpp:137] Memory required for data: 1658880
I1222 15:44:07.193238 20975 layer_factory.hpp:77] Creating layer inception_3a_pool
I1222 15:44:07.193243 20975 net.cpp:84] Creating Layer inception_3a_pool
I1222 15:44:07.193245 20975 net.cpp:406] inception_3a_pool <- pool2_3x3_s2_pool2_3x3_s2_0_split_2
I1222 15:44:07.193248 20975 net.cpp:380] inception_3a_pool -> inception_3a_pool
I1222 15:44:07.193276 20975 net.cpp:122] Setting up inception_3a_pool
I1222 15:44:07.193280 20975 net.cpp:129] Top shape: 1 128 4 13 (6656)
I1222 15:44:07.193282 20975 net.cpp:137] Memory required for data: 1685504
I1222 15:44:07.193284 20975 layer_factory.hpp:77] Creating layer inception_3a_pool_proj
I1222 15:44:07.193290 20975 net.cpp:84] Creating Layer inception_3a_pool_proj
I1222 15:44:07.193294 20975 net.cpp:406] inception_3a_pool_proj <- inception_3a_pool
I1222 15:44:07.193296 20975 net.cpp:380] inception_3a_pool_proj -> inception_3a_pool_proj
I1222 15:44:07.194273 20975 net.cpp:122] Setting up inception_3a_pool_proj
I1222 15:44:07.194286 20975 net.cpp:129] Top shape: 1 64 4 13 (3328)
I1222 15:44:07.194301 20975 net.cpp:137] Memory required for data: 1698816
I1222 15:44:07.194308 20975 layer_factory.hpp:77] Creating layer inception_3a_pool_proj_bn
I1222 15:44:07.194315 20975 net.cpp:84] Creating Layer inception_3a_pool_proj_bn
I1222 15:44:07.194319 20975 net.cpp:406] inception_3a_pool_proj_bn <- inception_3a_pool_proj
I1222 15:44:07.194324 20975 net.cpp:367] inception_3a_pool_proj_bn -> inception_3a_pool_proj (in-place)
I1222 15:44:07.194579 20975 net.cpp:122] Setting up inception_3a_pool_proj_bn
I1222 15:44:07.194591 20975 net.cpp:129] Top shape: 1 64 4 13 (3328)
I1222 15:44:07.194593 20975 net.cpp:137] Memory required for data: 1712128
I1222 15:44:07.194605 20975 layer_factory.hpp:77] Creating layer inception_3a_relu_pool_proj
I1222 15:44:07.194614 20975 net.cpp:84] Creating Layer inception_3a_relu_pool_proj
I1222 15:44:07.194618 20975 net.cpp:406] inception_3a_relu_pool_proj <- inception_3a_pool_proj
I1222 15:44:07.194623 20975 net.cpp:367] inception_3a_relu_pool_proj -> inception_3a_pool_proj (in-place)
I1222 15:44:07.194828 20975 net.cpp:122] Setting up inception_3a_relu_pool_proj
I1222 15:44:07.194838 20975 net.cpp:129] Top shape: 1 64 4 13 (3328)
I1222 15:44:07.194841 20975 net.cpp:137] Memory required for data: 1725440
I1222 15:44:07.194844 20975 layer_factory.hpp:77] Creating layer inception_3a_output
I1222 15:44:07.194851 20975 net.cpp:84] Creating Layer inception_3a_output
I1222 15:44:07.194854 20975 net.cpp:406] inception_3a_output <- inception_3a_1x1
I1222 15:44:07.194859 20975 net.cpp:406] inception_3a_output <- inception_3a_3x3
I1222 15:44:07.194864 20975 net.cpp:406] inception_3a_output <- inception_3a_pool_proj
I1222 15:44:07.194870 20975 net.cpp:380] inception_3a_output -> inception_3a_output
I1222 15:44:07.194896 20975 net.cpp:122] Setting up inception_3a_output
I1222 15:44:07.194902 20975 net.cpp:129] Top shape: 1 384 4 13 (19968)
I1222 15:44:07.194905 20975 net.cpp:137] Memory required for data: 1805312
I1222 15:44:07.194908 20975 layer_factory.hpp:77] Creating layer inception_3a_output_inception_3a_output_0_split
I1222 15:44:07.194913 20975 net.cpp:84] Creating Layer inception_3a_output_inception_3a_output_0_split
I1222 15:44:07.194917 20975 net.cpp:406] inception_3a_output_inception_3a_output_0_split <- inception_3a_output
I1222 15:44:07.194922 20975 net.cpp:380] inception_3a_output_inception_3a_output_0_split -> inception_3a_output_inception_3a_output_0_split_0
I1222 15:44:07.194929 20975 net.cpp:380] inception_3a_output_inception_3a_output_0_split -> inception_3a_output_inception_3a_output_0_split_1
I1222 15:44:07.194936 20975 net.cpp:380] inception_3a_output_inception_3a_output_0_split -> inception_3a_output_inception_3a_output_0_split_2
I1222 15:44:07.194942 20975 net.cpp:380] inception_3a_output_inception_3a_output_0_split -> inception_3a_output_inception_3a_output_0_split_3
I1222 15:44:07.194991 20975 net.cpp:122] Setting up inception_3a_output_inception_3a_output_0_split
I1222 15:44:07.194996 20975 net.cpp:129] Top shape: 1 384 4 13 (19968)
I1222 15:44:07.195001 20975 net.cpp:129] Top shape: 1 384 4 13 (19968)
I1222 15:44:07.195005 20975 net.cpp:129] Top shape: 1 384 4 13 (19968)
I1222 15:44:07.195009 20975 net.cpp:129] Top shape: 1 384 4 13 (19968)
I1222 15:44:07.195013 20975 net.cpp:137] Memory required for data: 2124800
I1222 15:44:07.195015 20975 layer_factory.hpp:77] Creating layer inception_3b_1x1
I1222 15:44:07.195025 20975 net.cpp:84] Creating Layer inception_3b_1x1
I1222 15:44:07.195030 20975 net.cpp:406] inception_3b_1x1 <- inception_3a_output_inception_3a_output_0_split_0
I1222 15:44:07.195036 20975 net.cpp:380] inception_3b_1x1 -> inception_3b_1x1
I1222 15:44:07.196862 20975 net.cpp:122] Setting up inception_3b_1x1
I1222 15:44:07.196878 20975 net.cpp:129] Top shape: 1 64 4 13 (3328)
I1222 15:44:07.196882 20975 net.cpp:137] Memory required for data: 2138112
I1222 15:44:07.196890 20975 layer_factory.hpp:77] Creating layer inception_3b_1x1_bn
I1222 15:44:07.196900 20975 net.cpp:84] Creating Layer inception_3b_1x1_bn
I1222 15:44:07.196908 20975 net.cpp:406] inception_3b_1x1_bn <- inception_3b_1x1
I1222 15:44:07.196914 20975 net.cpp:367] inception_3b_1x1_bn -> inception_3b_1x1 (in-place)
I1222 15:44:07.197111 20975 net.cpp:122] Setting up inception_3b_1x1_bn
I1222 15:44:07.197118 20975 net.cpp:129] Top shape: 1 64 4 13 (3328)
I1222 15:44:07.197120 20975 net.cpp:137] Memory required for data: 2151424
I1222 15:44:07.197146 20975 layer_factory.hpp:77] Creating layer inception_3b_relu_1x1
I1222 15:44:07.197167 20975 net.cpp:84] Creating Layer inception_3b_relu_1x1
I1222 15:44:07.197185 20975 net.cpp:406] inception_3b_relu_1x1 <- inception_3b_1x1
I1222 15:44:07.197190 20975 net.cpp:367] inception_3b_relu_1x1 -> inception_3b_1x1 (in-place)
I1222 15:44:07.197361 20975 net.cpp:122] Setting up inception_3b_relu_1x1
I1222 15:44:07.197367 20975 net.cpp:129] Top shape: 1 64 4 13 (3328)
I1222 15:44:07.197371 20975 net.cpp:137] Memory required for data: 2164736
I1222 15:44:07.197373 20975 layer_factory.hpp:77] Creating layer inception_3b_3x3_reduce
I1222 15:44:07.197420 20975 net.cpp:84] Creating Layer inception_3b_3x3_reduce
I1222 15:44:07.197424 20975 net.cpp:406] inception_3b_3x3_reduce <- inception_3a_output_inception_3a_output_0_split_1
I1222 15:44:07.197429 20975 net.cpp:380] inception_3b_3x3_reduce -> inception_3b_3x3_reduce
I1222 15:44:07.198576 20975 net.cpp:122] Setting up inception_3b_3x3_reduce
I1222 15:44:07.198586 20975 net.cpp:129] Top shape: 1 96 4 13 (4992)
I1222 15:44:07.198590 20975 net.cpp:137] Memory required for data: 2184704
I1222 15:44:07.198596 20975 layer_factory.hpp:77] Creating layer inception_3b_3x3_reduce_bn
I1222 15:44:07.198616 20975 net.cpp:84] Creating Layer inception_3b_3x3_reduce_bn
I1222 15:44:07.198619 20975 net.cpp:406] inception_3b_3x3_reduce_bn <- inception_3b_3x3_reduce
I1222 15:44:07.198626 20975 net.cpp:367] inception_3b_3x3_reduce_bn -> inception_3b_3x3_reduce (in-place)
I1222 15:44:07.198827 20975 net.cpp:122] Setting up inception_3b_3x3_reduce_bn
I1222 15:44:07.198833 20975 net.cpp:129] Top shape: 1 96 4 13 (4992)
I1222 15:44:07.198835 20975 net.cpp:137] Memory required for data: 2204672
I1222 15:44:07.198842 20975 layer_factory.hpp:77] Creating layer inception_3b_relu_3x3_reduce
I1222 15:44:07.198860 20975 net.cpp:84] Creating Layer inception_3b_relu_3x3_reduce
I1222 15:44:07.198878 20975 net.cpp:406] inception_3b_relu_3x3_reduce <- inception_3b_3x3_reduce
I1222 15:44:07.198884 20975 net.cpp:367] inception_3b_relu_3x3_reduce -> inception_3b_3x3_reduce (in-place)
I1222 15:44:07.199306 20975 net.cpp:122] Setting up inception_3b_relu_3x3_reduce
I1222 15:44:07.199316 20975 net.cpp:129] Top shape: 1 96 4 13 (4992)
I1222 15:44:07.199319 20975 net.cpp:137] Memory required for data: 2224640
I1222 15:44:07.199322 20975 layer_factory.hpp:77] Creating layer inception_3b_3x3
I1222 15:44:07.199333 20975 net.cpp:84] Creating Layer inception_3b_3x3
I1222 15:44:07.199338 20975 net.cpp:406] inception_3b_3x3 <- inception_3b_3x3_reduce
I1222 15:44:07.199347 20975 net.cpp:380] inception_3b_3x3 -> inception_3b_3x3
I1222 15:44:07.201153 20975 net.cpp:122] Setting up inception_3b_3x3
I1222 15:44:07.201164 20975 net.cpp:129] Top shape: 1 160 4 13 (8320)
I1222 15:44:07.201167 20975 net.cpp:137] Memory required for data: 2257920
I1222 15:44:07.201174 20975 layer_factory.hpp:77] Creating layer inception_3b_3x3_bn
I1222 15:44:07.201201 20975 net.cpp:84] Creating Layer inception_3b_3x3_bn
I1222 15:44:07.201206 20975 net.cpp:406] inception_3b_3x3_bn <- inception_3b_3x3
I1222 15:44:07.201213 20975 net.cpp:367] inception_3b_3x3_bn -> inception_3b_3x3 (in-place)
I1222 15:44:07.201396 20975 net.cpp:122] Setting up inception_3b_3x3_bn
I1222 15:44:07.201402 20975 net.cpp:129] Top shape: 1 160 4 13 (8320)
I1222 15:44:07.201406 20975 net.cpp:137] Memory required for data: 2291200
I1222 15:44:07.201412 20975 layer_factory.hpp:77] Creating layer inception_3b_relu_3x3
I1222 15:44:07.201418 20975 net.cpp:84] Creating Layer inception_3b_relu_3x3
I1222 15:44:07.201422 20975 net.cpp:406] inception_3b_relu_3x3 <- inception_3b_3x3
I1222 15:44:07.201427 20975 net.cpp:367] inception_3b_relu_3x3 -> inception_3b_3x3 (in-place)
I1222 15:44:07.201586 20975 net.cpp:122] Setting up inception_3b_relu_3x3
I1222 15:44:07.201593 20975 net.cpp:129] Top shape: 1 160 4 13 (8320)
I1222 15:44:07.201596 20975 net.cpp:137] Memory required for data: 2324480
I1222 15:44:07.201598 20975 layer_factory.hpp:77] Creating layer inception_3b_pool
I1222 15:44:07.201618 20975 net.cpp:84] Creating Layer inception_3b_pool
I1222 15:44:07.201622 20975 net.cpp:406] inception_3b_pool <- inception_3a_output_inception_3a_output_0_split_2
I1222 15:44:07.201642 20975 net.cpp:380] inception_3b_pool -> inception_3b_pool
I1222 15:44:07.201689 20975 net.cpp:122] Setting up inception_3b_pool
I1222 15:44:07.201695 20975 net.cpp:129] Top shape: 1 384 4 13 (19968)
I1222 15:44:07.201699 20975 net.cpp:137] Memory required for data: 2404352
I1222 15:44:07.201701 20975 layer_factory.hpp:77] Creating layer inception_3b_pool_proj
I1222 15:44:07.201726 20975 net.cpp:84] Creating Layer inception_3b_pool_proj
I1222 15:44:07.201730 20975 net.cpp:406] inception_3b_pool_proj <- inception_3b_pool
I1222 15:44:07.201736 20975 net.cpp:380] inception_3b_pool_proj -> inception_3b_pool_proj
I1222 15:44:07.202684 20975 net.cpp:122] Setting up inception_3b_pool_proj
I1222 15:44:07.202694 20975 net.cpp:129] Top shape: 1 32 4 13 (1664)
I1222 15:44:07.202697 20975 net.cpp:137] Memory required for data: 2411008
I1222 15:44:07.202704 20975 layer_factory.hpp:77] Creating layer inception_3b_pool_proj_bn
I1222 15:44:07.202713 20975 net.cpp:84] Creating Layer inception_3b_pool_proj_bn
I1222 15:44:07.202716 20975 net.cpp:406] inception_3b_pool_proj_bn <- inception_3b_pool_proj
I1222 15:44:07.202723 20975 net.cpp:367] inception_3b_pool_proj_bn -> inception_3b_pool_proj (in-place)
I1222 15:44:07.202877 20975 net.cpp:122] Setting up inception_3b_pool_proj_bn
I1222 15:44:07.202883 20975 net.cpp:129] Top shape: 1 32 4 13 (1664)
I1222 15:44:07.202885 20975 net.cpp:137] Memory required for data: 2417664
I1222 15:44:07.202891 20975 layer_factory.hpp:77] Creating layer inception_3b_relu_pool_proj
I1222 15:44:07.202898 20975 net.cpp:84] Creating Layer inception_3b_relu_pool_proj
I1222 15:44:07.202903 20975 net.cpp:406] inception_3b_relu_pool_proj <- inception_3b_pool_proj
I1222 15:44:07.202908 20975 net.cpp:367] inception_3b_relu_pool_proj -> inception_3b_pool_proj (in-place)
I1222 15:44:07.203040 20975 net.cpp:122] Setting up inception_3b_relu_pool_proj
I1222 15:44:07.203047 20975 net.cpp:129] Top shape: 1 32 4 13 (1664)
I1222 15:44:07.203049 20975 net.cpp:137] Memory required for data: 2424320
I1222 15:44:07.203052 20975 layer_factory.hpp:77] Creating layer inception_3b_output
I1222 15:44:07.203059 20975 net.cpp:84] Creating Layer inception_3b_output
I1222 15:44:07.203063 20975 net.cpp:406] inception_3b_output <- inception_3b_1x1
I1222 15:44:07.203068 20975 net.cpp:406] inception_3b_output <- inception_3b_3x3
I1222 15:44:07.203071 20975 net.cpp:406] inception_3b_output <- inception_3b_pool_proj
I1222 15:44:07.203076 20975 net.cpp:380] inception_3b_output -> inception_3b_output
I1222 15:44:07.203099 20975 net.cpp:122] Setting up inception_3b_output
I1222 15:44:07.203105 20975 net.cpp:129] Top shape: 1 256 4 13 (13312)
I1222 15:44:07.203109 20975 net.cpp:137] Memory required for data: 2477568
I1222 15:44:07.203111 20975 layer_factory.hpp:77] Creating layer inception_3b_output_proj
I1222 15:44:07.203120 20975 net.cpp:84] Creating Layer inception_3b_output_proj
I1222 15:44:07.203125 20975 net.cpp:406] inception_3b_output_proj <- inception_3b_output
I1222 15:44:07.203131 20975 net.cpp:380] inception_3b_output_proj -> inception_3b_output_proj
I1222 15:44:07.204488 20975 net.cpp:122] Setting up inception_3b_output_proj
I1222 15:44:07.204499 20975 net.cpp:129] Top shape: 1 384 4 13 (19968)
I1222 15:44:07.204501 20975 net.cpp:137] Memory required for data: 2557440
I1222 15:44:07.204509 20975 layer_factory.hpp:77] Creating layer inception_3b_output_sum
I1222 15:44:07.204519 20975 net.cpp:84] Creating Layer inception_3b_output_sum
I1222 15:44:07.204522 20975 net.cpp:406] inception_3b_output_sum <- inception_3b_output_proj
I1222 15:44:07.204529 20975 net.cpp:406] inception_3b_output_sum <- inception_3a_output_inception_3a_output_0_split_3
I1222 15:44:07.204535 20975 net.cpp:380] inception_3b_output_sum -> inception_3b_output_sum
I1222 15:44:07.204576 20975 net.cpp:122] Setting up inception_3b_output_sum
I1222 15:44:07.204599 20975 net.cpp:129] Top shape: 1 384 4 13 (19968)
I1222 15:44:07.204602 20975 net.cpp:137] Memory required for data: 2637312
I1222 15:44:07.204605 20975 layer_factory.hpp:77] Creating layer inception_3b_output_sum_inception_3b_output_sum_0_split
I1222 15:44:07.204612 20975 net.cpp:84] Creating Layer inception_3b_output_sum_inception_3b_output_sum_0_split
I1222 15:44:07.204617 20975 net.cpp:406] inception_3b_output_sum_inception_3b_output_sum_0_split <- inception_3b_output_sum
I1222 15:44:07.204622 20975 net.cpp:380] inception_3b_output_sum_inception_3b_output_sum_0_split -> inception_3b_output_sum_inception_3b_output_sum_0_split_0
I1222 15:44:07.204630 20975 net.cpp:380] inception_3b_output_sum_inception_3b_output_sum_0_split -> inception_3b_output_sum_inception_3b_output_sum_0_split_1
I1222 15:44:07.204637 20975 net.cpp:380] inception_3b_output_sum_inception_3b_output_sum_0_split -> inception_3b_output_sum_inception_3b_output_sum_0_split_2
I1222 15:44:07.204649 20975 net.cpp:380] inception_3b_output_sum_inception_3b_output_sum_0_split -> inception_3b_output_sum_inception_3b_output_sum_0_split_3
I1222 15:44:07.204701 20975 net.cpp:122] Setting up inception_3b_output_sum_inception_3b_output_sum_0_split
I1222 15:44:07.204707 20975 net.cpp:129] Top shape: 1 384 4 13 (19968)
I1222 15:44:07.204711 20975 net.cpp:129] Top shape: 1 384 4 13 (19968)
I1222 15:44:07.204715 20975 net.cpp:129] Top shape: 1 384 4 13 (19968)
I1222 15:44:07.204720 20975 net.cpp:129] Top shape: 1 384 4 13 (19968)
I1222 15:44:07.204722 20975 net.cpp:137] Memory required for data: 2956800
I1222 15:44:07.204725 20975 layer_factory.hpp:77] Creating layer inception_3c_1x1
I1222 15:44:07.204735 20975 net.cpp:84] Creating Layer inception_3c_1x1
I1222 15:44:07.204740 20975 net.cpp:406] inception_3c_1x1 <- inception_3b_output_sum_inception_3b_output_sum_0_split_0
I1222 15:44:07.204746 20975 net.cpp:380] inception_3c_1x1 -> inception_3c_1x1
I1222 15:44:07.205737 20975 net.cpp:122] Setting up inception_3c_1x1
I1222 15:44:07.205746 20975 net.cpp:129] Top shape: 1 64 4 13 (3328)
I1222 15:44:07.205750 20975 net.cpp:137] Memory required for data: 2970112
I1222 15:44:07.205757 20975 layer_factory.hpp:77] Creating layer inception_3c_1x1_bn
I1222 15:44:07.205766 20975 net.cpp:84] Creating Layer inception_3c_1x1_bn
I1222 15:44:07.205771 20975 net.cpp:406] inception_3c_1x1_bn <- inception_3c_1x1
I1222 15:44:07.205778 20975 net.cpp:367] inception_3c_1x1_bn -> inception_3c_1x1 (in-place)
I1222 15:44:07.205929 20975 net.cpp:122] Setting up inception_3c_1x1_bn
I1222 15:44:07.205935 20975 net.cpp:129] Top shape: 1 64 4 13 (3328)
I1222 15:44:07.205937 20975 net.cpp:137] Memory required for data: 2983424
I1222 15:44:07.205945 20975 layer_factory.hpp:77] Creating layer inception_3c_relu_1x1
I1222 15:44:07.205950 20975 net.cpp:84] Creating Layer inception_3c_relu_1x1
I1222 15:44:07.205953 20975 net.cpp:406] inception_3c_relu_1x1 <- inception_3c_1x1
I1222 15:44:07.205958 20975 net.cpp:367] inception_3c_relu_1x1 -> inception_3c_1x1 (in-place)
I1222 15:44:07.206095 20975 net.cpp:122] Setting up inception_3c_relu_1x1
I1222 15:44:07.206102 20975 net.cpp:129] Top shape: 1 64 4 13 (3328)
I1222 15:44:07.206105 20975 net.cpp:137] Memory required for data: 2996736
I1222 15:44:07.206110 20975 layer_factory.hpp:77] Creating layer inception_3c_3x3_reduce
I1222 15:44:07.206122 20975 net.cpp:84] Creating Layer inception_3c_3x3_reduce
I1222 15:44:07.206126 20975 net.cpp:406] inception_3c_3x3_reduce <- inception_3b_output_sum_inception_3b_output_sum_0_split_1
I1222 15:44:07.206133 20975 net.cpp:380] inception_3c_3x3_reduce -> inception_3c_3x3_reduce
I1222 15:44:07.207175 20975 net.cpp:122] Setting up inception_3c_3x3_reduce
I1222 15:44:07.207185 20975 net.cpp:129] Top shape: 1 96 4 13 (4992)
I1222 15:44:07.207188 20975 net.cpp:137] Memory required for data: 3016704
I1222 15:44:07.207195 20975 layer_factory.hpp:77] Creating layer inception_3c_3x3_reduce_bn
I1222 15:44:07.207201 20975 net.cpp:84] Creating Layer inception_3c_3x3_reduce_bn
I1222 15:44:07.207206 20975 net.cpp:406] inception_3c_3x3_reduce_bn <- inception_3c_3x3_reduce
I1222 15:44:07.207211 20975 net.cpp:367] inception_3c_3x3_reduce_bn -> inception_3c_3x3_reduce (in-place)
I1222 15:44:07.207368 20975 net.cpp:122] Setting up inception_3c_3x3_reduce_bn
I1222 15:44:07.207375 20975 net.cpp:129] Top shape: 1 96 4 13 (4992)
I1222 15:44:07.207377 20975 net.cpp:137] Memory required for data: 3036672
I1222 15:44:07.207391 20975 layer_factory.hpp:77] Creating layer inception_3c_relu_3x3_reduce
I1222 15:44:07.207397 20975 net.cpp:84] Creating Layer inception_3c_relu_3x3_reduce
I1222 15:44:07.207401 20975 net.cpp:406] inception_3c_relu_3x3_reduce <- inception_3c_3x3_reduce
I1222 15:44:07.207406 20975 net.cpp:367] inception_3c_relu_3x3_reduce -> inception_3c_3x3_reduce (in-place)
I1222 15:44:07.207543 20975 net.cpp:122] Setting up inception_3c_relu_3x3_reduce
I1222 15:44:07.207551 20975 net.cpp:129] Top shape: 1 96 4 13 (4992)
I1222 15:44:07.207553 20975 net.cpp:137] Memory required for data: 3056640
I1222 15:44:07.207556 20975 layer_factory.hpp:77] Creating layer inception_3c_3x3
I1222 15:44:07.207566 20975 net.cpp:84] Creating Layer inception_3c_3x3
I1222 15:44:07.207571 20975 net.cpp:406] inception_3c_3x3 <- inception_3c_3x3_reduce
I1222 15:44:07.207577 20975 net.cpp:380] inception_3c_3x3 -> inception_3c_3x3
I1222 15:44:07.211213 20975 net.cpp:122] Setting up inception_3c_3x3
I1222 15:44:07.211230 20975 net.cpp:129] Top shape: 1 160 4 13 (8320)
I1222 15:44:07.211233 20975 net.cpp:137] Memory required for data: 3089920
I1222 15:44:07.211242 20975 layer_factory.hpp:77] Creating layer inception_3c_3x3_bn
I1222 15:44:07.211252 20975 net.cpp:84] Creating Layer inception_3c_3x3_bn
I1222 15:44:07.211257 20975 net.cpp:406] inception_3c_3x3_bn <- inception_3c_3x3
I1222 15:44:07.211283 20975 net.cpp:367] inception_3c_3x3_bn -> inception_3c_3x3 (in-place)
I1222 15:44:07.211463 20975 net.cpp:122] Setting up inception_3c_3x3_bn
I1222 15:44:07.211470 20975 net.cpp:129] Top shape: 1 160 4 13 (8320)
I1222 15:44:07.211473 20975 net.cpp:137] Memory required for data: 3123200
I1222 15:44:07.211480 20975 layer_factory.hpp:77] Creating layer inception_3c_relu_3x3
I1222 15:44:07.211486 20975 net.cpp:84] Creating Layer inception_3c_relu_3x3
I1222 15:44:07.211490 20975 net.cpp:406] inception_3c_relu_3x3 <- inception_3c_3x3
I1222 15:44:07.211495 20975 net.cpp:367] inception_3c_relu_3x3 -> inception_3c_3x3 (in-place)
I1222 15:44:07.211689 20975 net.cpp:122] Setting up inception_3c_relu_3x3
I1222 15:44:07.211697 20975 net.cpp:129] Top shape: 1 160 4 13 (8320)
I1222 15:44:07.211700 20975 net.cpp:137] Memory required for data: 3156480
I1222 15:44:07.211704 20975 layer_factory.hpp:77] Creating layer inception_3c_pool
I1222 15:44:07.211710 20975 net.cpp:84] Creating Layer inception_3c_pool
I1222 15:44:07.211714 20975 net.cpp:406] inception_3c_pool <- inception_3b_output_sum_inception_3b_output_sum_0_split_2
I1222 15:44:07.211720 20975 net.cpp:380] inception_3c_pool -> inception_3c_pool
I1222 15:44:07.211758 20975 net.cpp:122] Setting up inception_3c_pool
I1222 15:44:07.211764 20975 net.cpp:129] Top shape: 1 384 4 13 (19968)
I1222 15:44:07.211766 20975 net.cpp:137] Memory required for data: 3236352
I1222 15:44:07.211769 20975 layer_factory.hpp:77] Creating layer inception_3c_pool_proj
I1222 15:44:07.211781 20975 net.cpp:84] Creating Layer inception_3c_pool_proj
I1222 15:44:07.211784 20975 net.cpp:406] inception_3c_pool_proj <- inception_3c_pool
I1222 15:44:07.211791 20975 net.cpp:380] inception_3c_pool_proj -> inception_3c_pool_proj
I1222 15:44:07.213829 20975 net.cpp:122] Setting up inception_3c_pool_proj
I1222 15:44:07.213840 20975 net.cpp:129] Top shape: 1 32 4 13 (1664)
I1222 15:44:07.213842 20975 net.cpp:137] Memory required for data: 3243008
I1222 15:44:07.213867 20975 layer_factory.hpp:77] Creating layer inception_3c_pool_proj_bn
I1222 15:44:07.213874 20975 net.cpp:84] Creating Layer inception_3c_pool_proj_bn
I1222 15:44:07.213881 20975 net.cpp:406] inception_3c_pool_proj_bn <- inception_3c_pool_proj
I1222 15:44:07.213887 20975 net.cpp:367] inception_3c_pool_proj_bn -> inception_3c_pool_proj (in-place)
I1222 15:44:07.214076 20975 net.cpp:122] Setting up inception_3c_pool_proj_bn
I1222 15:44:07.214097 20975 net.cpp:129] Top shape: 1 32 4 13 (1664)
I1222 15:44:07.214098 20975 net.cpp:137] Memory required for data: 3249664
I1222 15:44:07.214105 20975 layer_factory.hpp:77] Creating layer inception_3c_relu_pool_proj
I1222 15:44:07.214115 20975 net.cpp:84] Creating Layer inception_3c_relu_pool_proj
I1222 15:44:07.214119 20975 net.cpp:406] inception_3c_relu_pool_proj <- inception_3c_pool_proj
I1222 15:44:07.214123 20975 net.cpp:367] inception_3c_relu_pool_proj -> inception_3c_pool_proj (in-place)
I1222 15:44:07.214583 20975 net.cpp:122] Setting up inception_3c_relu_pool_proj
I1222 15:44:07.214594 20975 net.cpp:129] Top shape: 1 32 4 13 (1664)
I1222 15:44:07.214598 20975 net.cpp:137] Memory required for data: 3256320
I1222 15:44:07.214602 20975 layer_factory.hpp:77] Creating layer inception_3c_output
I1222 15:44:07.214610 20975 net.cpp:84] Creating Layer inception_3c_output
I1222 15:44:07.214614 20975 net.cpp:406] inception_3c_output <- inception_3c_1x1
I1222 15:44:07.214620 20975 net.cpp:406] inception_3c_output <- inception_3c_3x3
I1222 15:44:07.214625 20975 net.cpp:406] inception_3c_output <- inception_3c_pool_proj
I1222 15:44:07.214632 20975 net.cpp:380] inception_3c_output -> inception_3c_output
I1222 15:44:07.214668 20975 net.cpp:122] Setting up inception_3c_output
I1222 15:44:07.214673 20975 net.cpp:129] Top shape: 1 256 4 13 (13312)
I1222 15:44:07.214676 20975 net.cpp:137] Memory required for data: 3309568
I1222 15:44:07.214679 20975 layer_factory.hpp:77] Creating layer inception_3c_output_proj
I1222 15:44:07.214692 20975 net.cpp:84] Creating Layer inception_3c_output_proj
I1222 15:44:07.214696 20975 net.cpp:406] inception_3c_output_proj <- inception_3c_output
I1222 15:44:07.214704 20975 net.cpp:380] inception_3c_output_proj -> inception_3c_output_proj
I1222 15:44:07.215824 20975 net.cpp:122] Setting up inception_3c_output_proj
I1222 15:44:07.215837 20975 net.cpp:129] Top shape: 1 384 4 13 (19968)
I1222 15:44:07.215839 20975 net.cpp:137] Memory required for data: 3389440
I1222 15:44:07.215847 20975 layer_factory.hpp:77] Creating layer inception_3c_output_sum
I1222 15:44:07.215857 20975 net.cpp:84] Creating Layer inception_3c_output_sum
I1222 15:44:07.215862 20975 net.cpp:406] inception_3c_output_sum <- inception_3c_output_proj
I1222 15:44:07.215867 20975 net.cpp:406] inception_3c_output_sum <- inception_3b_output_sum_inception_3b_output_sum_0_split_3
I1222 15:44:07.215874 20975 net.cpp:380] inception_3c_output_sum -> inception_3c_output_sum
I1222 15:44:07.215904 20975 net.cpp:122] Setting up inception_3c_output_sum
I1222 15:44:07.215909 20975 net.cpp:129] Top shape: 1 384 4 13 (19968)
I1222 15:44:07.215912 20975 net.cpp:137] Memory required for data: 3469312
I1222 15:44:07.215915 20975 layer_factory.hpp:77] Creating layer pool5_ave
I1222 15:44:07.215922 20975 net.cpp:84] Creating Layer pool5_ave
I1222 15:44:07.215925 20975 net.cpp:406] pool5_ave <- inception_3c_output_sum
I1222 15:44:07.215932 20975 net.cpp:380] pool5_ave -> pool5_ave
I1222 15:44:07.216425 20975 net.cpp:122] Setting up pool5_ave
I1222 15:44:07.216434 20975 net.cpp:129] Top shape: 1 384 1 13 (4992)
I1222 15:44:07.216439 20975 net.cpp:137] Memory required for data: 3489280
I1222 15:44:07.216441 20975 layer_factory.hpp:77] Creating layer pool5_ave_transpose
I1222 15:44:07.216454 20975 net.cpp:84] Creating Layer pool5_ave_transpose
I1222 15:44:07.216459 20975 net.cpp:406] pool5_ave_transpose <- pool5_ave
I1222 15:44:07.216464 20975 net.cpp:380] pool5_ave_transpose -> pool5_ave_transpose
I1222 15:44:07.216595 20975 net.cpp:122] Setting up pool5_ave_transpose
I1222 15:44:07.216603 20975 net.cpp:129] Top shape: 13 1 1 384 (4992)
I1222 15:44:07.216608 20975 net.cpp:137] Memory required for data: 3509248
I1222 15:44:07.216610 20975 layer_factory.hpp:77] Creating layer blstm_input
I1222 15:44:07.216617 20975 net.cpp:84] Creating Layer blstm_input
I1222 15:44:07.216622 20975 net.cpp:406] blstm_input <- pool5_ave_transpose
I1222 15:44:07.216629 20975 net.cpp:380] blstm_input -> blstm_input
I1222 15:44:07.216656 20975 net.cpp:122] Setting up blstm_input
I1222 15:44:07.216661 20975 net.cpp:129] Top shape: 13 1 384 (4992)
I1222 15:44:07.216665 20975 net.cpp:137] Memory required for data: 3529216
I1222 15:44:07.216667 20975 layer_factory.hpp:77] Creating layer blstm_input_blstm_input_0_split
I1222 15:44:07.216672 20975 net.cpp:84] Creating Layer blstm_input_blstm_input_0_split
I1222 15:44:07.216676 20975 net.cpp:406] blstm_input_blstm_input_0_split <- blstm_input
I1222 15:44:07.216681 20975 net.cpp:380] blstm_input_blstm_input_0_split -> blstm_input_blstm_input_0_split_0
I1222 15:44:07.216688 20975 net.cpp:380] blstm_input_blstm_input_0_split -> blstm_input_blstm_input_0_split_1
I1222 15:44:07.216723 20975 net.cpp:122] Setting up blstm_input_blstm_input_0_split
I1222 15:44:07.216728 20975 net.cpp:129] Top shape: 13 1 384 (4992)
I1222 15:44:07.216732 20975 net.cpp:129] Top shape: 13 1 384 (4992)
I1222 15:44:07.216734 20975 net.cpp:137] Memory required for data: 3569152
I1222 15:44:07.216737 20975 layer_factory.hpp:77] Creating layer lstm1
I1222 15:44:07.216745 20975 net.cpp:84] Creating Layer lstm1
I1222 15:44:07.216749 20975 net.cpp:406] lstm1 <- blstm_input_blstm_input_0_split_0
I1222 15:44:07.216755 20975 net.cpp:380] lstm1 -> lstm1
I1222 15:44:07.225090 20975 net.cpp:122] Setting up lstm1
I1222 15:44:07.225111 20975 net.cpp:129] Top shape: 13 1 256 (3328)
I1222 15:44:07.225114 20975 net.cpp:137] Memory required for data: 3582464
I1222 15:44:07.225126 20975 layer_factory.hpp:77] Creating layer lstm1-reverse1
I1222 15:44:07.225142 20975 net.cpp:84] Creating Layer lstm1-reverse1
I1222 15:44:07.225147 20975 net.cpp:406] lstm1-reverse1 <- blstm_input_blstm_input_0_split_1
I1222 15:44:07.225184 20975 net.cpp:380] lstm1-reverse1 -> rlstm1_input
I1222 15:44:07.225239 20975 net.cpp:122] Setting up lstm1-reverse1
I1222 15:44:07.225244 20975 net.cpp:129] Top shape: 13 1 384 (4992)
I1222 15:44:07.225246 20975 net.cpp:137] Memory required for data: 3602432
I1222 15:44:07.225248 20975 layer_factory.hpp:77] Creating layer rlstm1
I1222 15:44:07.225261 20975 net.cpp:84] Creating Layer rlstm1
I1222 15:44:07.225277 20975 net.cpp:406] rlstm1 <- rlstm1_input
I1222 15:44:07.225282 20975 net.cpp:380] rlstm1 -> rlstm1-output
I1222 15:44:07.231645 20975 net.cpp:122] Setting up rlstm1
I1222 15:44:07.231678 20975 net.cpp:129] Top shape: 13 1 256 (3328)
I1222 15:44:07.231680 20975 net.cpp:137] Memory required for data: 3615744
I1222 15:44:07.231704 20975 layer_factory.hpp:77] Creating layer lstm1-reverse2
I1222 15:44:07.231714 20975 net.cpp:84] Creating Layer lstm1-reverse2
I1222 15:44:07.231747 20975 net.cpp:406] lstm1-reverse2 <- rlstm1-output
I1222 15:44:07.231757 20975 net.cpp:380] lstm1-reverse2 -> rlstm1
I1222 15:44:07.231806 20975 net.cpp:122] Setting up lstm1-reverse2
I1222 15:44:07.231812 20975 net.cpp:129] Top shape: 13 1 256 (3328)
I1222 15:44:07.231813 20975 net.cpp:137] Memory required for data: 3629056
I1222 15:44:07.231817 20975 layer_factory.hpp:77] Creating layer blstm1
I1222 15:44:07.231842 20975 net.cpp:84] Creating Layer blstm1
I1222 15:44:07.231848 20975 net.cpp:406] blstm1 <- lstm1
I1222 15:44:07.231851 20975 net.cpp:406] blstm1 <- rlstm1
I1222 15:44:07.231856 20975 net.cpp:380] blstm1 -> blstm1
I1222 15:44:07.231885 20975 net.cpp:122] Setting up blstm1
I1222 15:44:07.231904 20975 net.cpp:129] Top shape: 13 1 512 (6656)
I1222 15:44:07.231905 20975 net.cpp:137] Memory required for data: 3655680
I1222 15:44:07.231909 20975 layer_factory.hpp:77] Creating layer blstm1_blstm1_0_split
I1222 15:44:07.231933 20975 net.cpp:84] Creating Layer blstm1_blstm1_0_split
I1222 15:44:07.231936 20975 net.cpp:406] blstm1_blstm1_0_split <- blstm1
I1222 15:44:07.231943 20975 net.cpp:380] blstm1_blstm1_0_split -> blstm1_blstm1_0_split_0
I1222 15:44:07.231950 20975 net.cpp:380] blstm1_blstm1_0_split -> blstm1_blstm1_0_split_1
I1222 15:44:07.231958 20975 net.cpp:380] blstm1_blstm1_0_split -> blstm1_blstm1_0_split_2
I1222 15:44:07.232002 20975 net.cpp:122] Setting up blstm1_blstm1_0_split
I1222 15:44:07.232007 20975 net.cpp:129] Top shape: 13 1 512 (6656)
I1222 15:44:07.232010 20975 net.cpp:129] Top shape: 13 1 512 (6656)
I1222 15:44:07.232014 20975 net.cpp:129] Top shape: 13 1 512 (6656)
I1222 15:44:07.232017 20975 net.cpp:137] Memory required for data: 3735552
I1222 15:44:07.232019 20975 layer_factory.hpp:77] Creating layer lstm2
I1222 15:44:07.232033 20975 net.cpp:84] Creating Layer lstm2
I1222 15:44:07.232036 20975 net.cpp:406] lstm2 <- blstm1_blstm1_0_split_0
I1222 15:44:07.232043 20975 net.cpp:380] lstm2 -> lstm2
I1222 15:44:07.238680 20975 net.cpp:122] Setting up lstm2
I1222 15:44:07.238696 20975 net.cpp:129] Top shape: 13 1 256 (3328)
I1222 15:44:07.238699 20975 net.cpp:137] Memory required for data: 3748864
I1222 15:44:07.238708 20975 layer_factory.hpp:77] Creating layer lstm2-reverse1
I1222 15:44:07.238718 20975 net.cpp:84] Creating Layer lstm2-reverse1
I1222 15:44:07.238741 20975 net.cpp:406] lstm2-reverse1 <- blstm1_blstm1_0_split_1
I1222 15:44:07.238749 20975 net.cpp:380] lstm2-reverse1 -> rlstm2_input
I1222 15:44:07.238781 20975 net.cpp:122] Setting up lstm2-reverse1
I1222 15:44:07.238800 20975 net.cpp:129] Top shape: 13 1 512 (6656)
I1222 15:44:07.238802 20975 net.cpp:137] Memory required for data: 3775488
I1222 15:44:07.238806 20975 layer_factory.hpp:77] Creating layer rlstm2
I1222 15:44:07.238832 20975 net.cpp:84] Creating Layer rlstm2
I1222 15:44:07.238837 20975 net.cpp:406] rlstm2 <- rlstm2_input
I1222 15:44:07.238843 20975 net.cpp:380] rlstm2 -> rlstm2-output
I1222 15:44:07.246518 20975 net.cpp:122] Setting up rlstm2
I1222 15:44:07.246537 20975 net.cpp:129] Top shape: 13 1 256 (3328)
I1222 15:44:07.246539 20975 net.cpp:137] Memory required for data: 3788800
I1222 15:44:07.246551 20975 layer_factory.hpp:77] Creating layer lstm2-reverse2
I1222 15:44:07.246562 20975 net.cpp:84] Creating Layer lstm2-reverse2
I1222 15:44:07.246567 20975 net.cpp:406] lstm2-reverse2 <- rlstm2-output
I1222 15:44:07.246592 20975 net.cpp:380] lstm2-reverse2 -> rlstm2
I1222 15:44:07.246659 20975 net.cpp:122] Setting up lstm2-reverse2
I1222 15:44:07.246665 20975 net.cpp:129] Top shape: 13 1 256 (3328)
I1222 15:44:07.246668 20975 net.cpp:137] Memory required for data: 3802112
I1222 15:44:07.246671 20975 layer_factory.hpp:77] Creating layer blstm2
I1222 15:44:07.246691 20975 net.cpp:84] Creating Layer blstm2
I1222 15:44:07.246695 20975 net.cpp:406] blstm2 <- lstm2
I1222 15:44:07.246701 20975 net.cpp:406] blstm2 <- rlstm2
I1222 15:44:07.246706 20975 net.cpp:380] blstm2 -> blstm2
I1222 15:44:07.246732 20975 net.cpp:122] Setting up blstm2
I1222 15:44:07.246737 20975 net.cpp:129] Top shape: 13 1 512 (6656)
I1222 15:44:07.246740 20975 net.cpp:137] Memory required for data: 3828736
I1222 15:44:07.246743 20975 layer_factory.hpp:77] Creating layer blstm_sum
I1222 15:44:07.246749 20975 net.cpp:84] Creating Layer blstm_sum
I1222 15:44:07.246752 20975 net.cpp:406] blstm_sum <- blstm1_blstm1_0_split_2
I1222 15:44:07.246757 20975 net.cpp:406] blstm_sum <- blstm2
I1222 15:44:07.246763 20975 net.cpp:380] blstm_sum -> blstm_sum
I1222 15:44:07.246786 20975 net.cpp:122] Setting up blstm_sum
I1222 15:44:07.246790 20975 net.cpp:129] Top shape: 13 1 512 (6656)
I1222 15:44:07.246793 20975 net.cpp:137] Memory required for data: 3855360
I1222 15:44:07.246795 20975 layer_factory.hpp:77] Creating layer fc1x5990
I1222 15:44:07.246803 20975 net.cpp:84] Creating Layer fc1x5990
I1222 15:44:07.246807 20975 net.cpp:406] fc1x5990 <- blstm_sum
I1222 15:44:07.246814 20975 net.cpp:380] fc1x5990 -> fc1x5990
I1222 15:44:07.246995 20975 net.cpp:122] Setting up fc1x5990
I1222 15:44:07.247001 20975 net.cpp:129] Top shape: 13 1 37 (481)
I1222 15:44:07.247004 20975 net.cpp:137] Memory required for data: 3857284
I1222 15:44:07.247009 20975 layer_factory.hpp:77] Creating layer result
I1222 15:44:07.247017 20975 net.cpp:84] Creating Layer result
I1222 15:44:07.247021 20975 net.cpp:406] result <- fc1x5990
I1222 15:44:07.247026 20975 net.cpp:380] result -> result
I1222 15:44:07.247051 20975 net.cpp:122] Setting up result
I1222 15:44:07.247056 20975 net.cpp:129] Top shape: 1 13 1 1 (13)
I1222 15:44:07.247059 20975 net.cpp:137] Memory required for data: 3857336
I1222 15:44:07.247062 20975 net.cpp:200] result does not need backward computation.
I1222 15:44:07.247066 20975 net.cpp:200] fc1x5990 does not need backward computation.
I1222 15:44:07.247069 20975 net.cpp:200] blstm_sum does not need backward computation.
I1222 15:44:07.247072 20975 net.cpp:200] blstm2 does not need backward computation.
…
